All_model/Ori/87-global_G.ckpt (torch, 679145 bytes, 152 tensors)

con1.1.weight f4 [16, 3, 4, 4]
0	0xbdc01abf	-0.093801014
1	0x3d9bef20	0.07613969
2	0xbe2f67ea	-0.17129484
3	0xbd28be8d	-0.04119735
4	0xbd8bdd53	-0.068293236
5	0x3d11347a	0.035450436
6	0xbe11a0e6	-0.14221534
7	0xbe069e2b	-0.13146274
8	0xbc993e00	-0.018706322
9	0xbdb3bfec	-0.087768406
10	0x3c113bac	0.008864325
11	0xbc85047e	-0.016237494
12	0xbd2478ed	-0.040154386
13	0xbcb53798	-0.022121236
14	0x3c8045be	0.015658256
15	0xbd86f5ab	-0.06589826
16	0xbb6f6fab	-0.0036535065
17	0x3e246c36	0.16056904
18	0x3c3ed18d	0.0116466405
19	0x3e541ab3	0.2071331
20	0x3d1f742e	0.038929157
21	0x3e57e210	0.2108233
22	0xbd849c5c	-0.06475136
23	0x3c74aee4	0.014934275
24	0x3e1c1ae2	0.1524463
25	0x3dfa9fc0	0.12237501
26	0x3e0c6209	0.13709272
27	0x3e2a21af	0.16614412
28	0x3b3824da	0.0028098137
29	0x3e264e2a	0.16240755
30	0x3d8eec20	0.06978631
31	0xbc0816f3	-0.008306253
32	0x3bf60b35	0.00750866
33	0x3de01fb1	0.10943545
34	0xbdf6e568	-0.120554745
35	0xbdfdf7af	-0.124007575
36	0x3d0c2b52	0.034221
37	0xbd83ad12	-0.06429495
38	0x3d901a16	0.070362255
39	0xbd03bcf9	-0.03216264
40	0xbe3bdb94	-0.18345481
41	0xbc85f850	-0.016353756
42	0xbdddf9b4	-0.10838643
43	0x3d943560	0.07236743
44	0x3d4ac50e	0.049504332
45	0xbe2cfef2	-0.16894129
46	0xbdc12760	-0.09431338
47	0xbc99d6ab	-0.01877912
48	0xbca864c5	-0.020555863
49	0xbe0506b4	-0.12990838
50	0x3d9527f1	0.07283009
51	0xbdaa4c64	-0.083153516
52	0xbd45d17a	-0.048295476
53	0x3e0325ec	0.12807435
54	0x3e291b07	0.16514216
55	0x3ce99882	0.028515104
56	0xbd839dd2	-0.06426586
57	0x3d380da6	0.04493489
58	0x3e267277	0.16254602
59	0x3d9cab5c	0.07649872
60	0x3d50e008	0.050994903
61	0xbe2d78c3	-0.16940598
62	0xbad320a8	-0.0016107755
63	0xbe6596ea	-0.2242085
64	0x3bce7a64	0.006301211
65	0xbd580f0a	-0.052748717
66	0x3df57f19	0.119871326
67	0xbdc5db87	-0.09661012
68	0xbde37b53	-0.111075066
69	0xbd947ffe	-0.07250975
70	0x3e9c5d72	0.30540043
71	0x3cb9c003	0.022674566
72	0xbdcc50a1	-0.09976316
73	0xbdf6bad7	-0.120473556
74	0x3dcaec23	0.09908321
75	0x3db2e93b	0.087358914
76	0xbc370926	-0.011171615
77	0xbdfc03c6	-0.12305407
78	0x3e231979	0.15927686
79	0xbdc348ab	-0.09535345
80	0xbd239fb1	-0.039947215
81	0xbc80dadf	-0.015729366
82	0xbdafeb49	-0.08589799
83	0x3c2bba3c	0.010481413
84	0x3c848eba	0.016181339
85	0xbc351a82	-0.011053683
86	0x3e4d25c6	0.2003394
87	0xbde68b2c	-0.11257014
88	0xbda09297	-0.0784046
89	0x3c60fb88	0.013731845
90	0xbb1c0af5	-0.0023810242
91	0x3dcf47a6	0.10121088
92	0x3cdeb5f8	0.027186379
93	0xbcb3f357	-0.02196662
94	0xbdc81db0	-0.097712874
95	0x3d813468	0.06308824
96	0xbd66b144	-0.056321397
97	0xbd3a2eff	-0.045454975
98	0x3d44accb	0.04801635
99	0x3d8ca438	0.0686726
100	0x3d901d97	0.07036894
101	0x3e3f9d14	0.18712264
102	0x3c80c5a0	0.015719235
103	0xbe02f71a	-0.12789574
104	0x3d8446bd	0.06458805
105	0x3e1797a0	0.14803934
106	0x3c4c1482	0.012456061
107	0xbd9bc10a	-0.07605179
108	0x3c4d22ca	0.012520501
109	0xbdc21a7c	-0.09477708
110	0x3e212b69	0.15739216
111	0x3d84960a	0.0647393
112	0xbdc65ca9	-0.09685642
113	0x3d76944d	0.060200024
114	0xbdca8ece	-0.09890519
115	0xbdb61ff4	-0.08892813
116	0x3e310265	0.1728607
117	0x3d328277	0.043581452
118	0x3defd31c	0.11710188
119	0xbdd0452c	-0.101694435
120	0xbca55946	-0.02018417
121	0x3dfef7a3	0.12449577
122	0xbdb9f19d	-0.09079287
123	0xbd05b1ad	-0.032640148
124	0x3d46126d	0.048357416
125	0x3e22f99e	0.15915534
126	0x3e4a41b5	0.19751628
127	0x3e17974a	0.14803806
128	0x3dda89da	0.10670824
129	0xbdd2f537	-0.10300677
130	0xbd704e36	-0.058668338
131	0xbb8ea6f1	-0.004353397
132	0xbd0e2242	-0.03470064
133	0xbdc56ce1	-0.09639908
134	0xbe1c9d9e	-0.15294501
135	0xbe417b1a	-0.18894616
136	0x3d179f05	0.037016887
137	0xbdc5065b	-0.09620353
138	0xbd9c2eda	-0.07626124
139	0xbd41dff6	-0.047332726
140	0xbe0260aa	-0.12732187
141	0x3db515c6	0.088420436
142	0xbd4d3630	-0.050100505
143	0x3cc3cb3e	0.023900624
144	0xbe8ffc38	-0.28122115
145	0xbd478634	-0.04871197
146	0x3db8a1ba	0.09015222
147	0xbe8c1c9e	-0.27365583
148	0xbe093026	-0.13397273
149	0x3f2e2c2e	0.6803616
150	0x3f2d5d1f	0.67720217
151	0xbe41fcd3	-0.18944101
152	0x3db7a9ad	0.0896791
153	0x3f6c9a66	0.92423093
154	0x3ed22efb	0.41051468
155	0xbe33448d	-0.17506619
156	0xbd9e2e15	-0.07723633
157	0x3e40b3b7	0.18818556
158	0xbdcbd8cf	-0.09953462
159	0x3c584d84	0.013202075
160	0xbdaf1900	-0.0854969
161	0x3da50e4e	0.08059369
162	0x3d39bf69	0.04534856
163	0x3d5cc776	0.05390116
164	0x3d28b6dd	0.041190017
165	0xbdbaa29b	-0.09113046
166	0xbd7de4eb	-0.06198589
167	0x3d95e80d	0.07319651
168	0xbd1fde00	-0.039030075
169	0x3e36fea8	0.17870581
170	0x3d833af3	0.06407728
171	0x3c8275b8	0.015925273
172	0xbce52739	-0.027972804
173	0x3c88950a	0.01667263
174	0xbe37a1e6	-0.17932853
175	0xbdd09b40	-0.101858616
176	0x3e0ef27d	0.1395969
177	0x3c365589	0.011128792
178	0xbdeea63e	-0.11652802
179	0xbc29bee5	-0.010360454
180	0xbdda0f49	-0.10647447
181	0xbd03b703	-0.032156955
182	0x3db5e9b7	0.08882468
183	0x3d1f241d	0.0388528
184	0xbd8d8f00	-0.06912041
185	0x3d47cc67	0.048778918
186	0xbdd02c23	-0.101646684
187	0xbbcca660	-0.0062454194
188	0x3de54308	0.11194426
189	0x3d1b437c	0.037906155
190	0x3bdda2c6	0.006763789
191	0xbcc1a815	-0.023639718
192	0xbce95fe2	-0.028488103
193	0xba930372	-0.0011216237
194	0xbe547842	-0.20749
195	0xbe444353	-0.19166307
196	0xbe0db11a	-0.1383709
197	0xbd3a49b3	-0.04548044
198	0x3bf8888f	0.0075846384
199	0xbe49cfa5	-0.19708116
200	0xbd332dfd	-0.04374503
201	0x3e086843	0.13321023
202	0x3d28cb5b	0.04120956
203	0x3dfd61c6	0.123721644
204	0xbdb5ac43	-0.08870747
205	0x3defea26	0.11714582
206	0x3d13cd95	0.03608473
207	0x3dfd035b	0.12354156
208	0xbd3ca7f1	-0.0460586
209	0xbe1338ac	-0.14377087
210	0xbe0dc2ea	-0.13843885
211	0xbe237f1d	-0.15966459
212	0xbdf33eb7	-0.11877196
213	0xbdc66e62	-0.096890226
214	0x3c0b2103	0.008491757
215	0xbe384f68	-0.17999041
216	0x3d5516ca	0.052023686
217	0xbe082b4c	-0.13297766
218	0x3decbe0c	0.11559686
219	0x3e145d6d	0.14488764
220	0x3da1816d	0.07886014
221	0x3d1c893f	0.038216826
222	0x3c16cfcc	0.009204816
223	0x3e13fa31	0.14450909
224	0xbb241231	-0.0025035257
225	0x3d91a6b6	0.07111876
226	0xb91764cc	-0.00014438032
227	0x3d1f7701	0.03893185
228	0xbd799b50	-0.060939133
229	0xbdf14334	-0.11780396
230	0xbaa6307b	-0.0012679243
231	0xbe12d3ad	-0.1433856
232	0x3c950f30	0.018195719
233	0x3dc366ff	0.09541129
234	0x3d331bf6	0.043727838
235	0xbd6392a3	-0.055559766
236	0x3c45adcf	0.012065365
237	0x3bb784e4	0.0056005586
238	0x3df17c4f	0.11791288
239	0xbb666c94	-0.0035159932
240	0x3c756020	0.014976531
241	0x3df9a200	0.12189102
242	0xbdb9a35f	-0.09064364
243	0xbbd2c983	-0.0064327135
244	0xbca0b311	-0.019616636
245	0x3db90378	0.09033865
246	0xbd393cf4	-0.045224145
247	0xbc9c9f04	-0.019118793
248	0x3db0f6a7	0.08640795
249	0x3d91362c	0.070904106
250	0xb896e8fa	-7.195953e-05
251	0xbdbdcce5	-0.09267596
252	0x3d85b36d	0.065283634
253	0xbcf1bd8b	-0.029509326
254	0xbd96b6f8	-0.07359117
255	0x3d124f89	0.035720382

con1.1.bias f4 [16]
0	0xbcbf6727	-0.023364617
1	0xbdb5401b	-0.08850118
2	0xbdce4b0f	-0.1007291
3	0x3d85916b	0.06521877
4	0xbc9b872a	-0.01898535
5	0xbe10820a	-0.14112106
6	0x3dd27ae7	0.10277348
7	0xbd8e7a66	-0.069569394
8	0x3b0c8f15	0.0021447588
9	0xbdf27be7	-0.11840039
10	0xbd86f7b6	-0.06590216
11	0xbde7abd1	-0.11312068
12	0x3dfa4b32	0.122213736
13	0xbca19f0c	-0.01972916
14	0xbd992bfc	-0.074790925
15	0x3ded4d0a	0.1158696

con1.2.weight f4 [16]
0	0x3f611032	0.8791534
1	0x3f638867	0.8888001
2	0x3f5fc406	0.87408483
3	0x3f8b6e3d	1.0893017
4	0x3f826804	1.0187993
5	0x3f91ac1f	1.1380652
6	0x3f80372a	1.0016835
7	0x3f8daa13	1.1067528
8	0x3f61d9a9	0.8822275
9	0x3f867a8b	1.0506147
10	0x3f7fa41a	0.99859774
11	0x3f6fa505	0.93611175
12	0x3f6a3eab	0.91501874
13	0x3f9b2a70	1.2122326
14	0x3f883802	1.0642092
15	0x3f71b830	0.9442167

con1.2.bias f4 [16]
0	0x3e2ce486	0.1688405
1	0x3b8c1128	0.004274506
2	0x3d6279a8	0.0552918
3	0x3d8ec84c	0.06971797
4	0xbd079d4c	-0.033108994
5	0x3cbd6789	0.023120658
6	0xbd301adf	-0.042994376
7	0x3bc7d3b5	0.0060982355
8	0x3cf66e2e	0.030081835
9	0x3bd15fae	0.0063895797
10	0x3d349a53	0.044092488
11	0x3e6b8e9c	0.2300362
12	0xbd840afb	-0.06447407
13	0xbda7dac5	-0.08196024
14	0xbe74b50d	-0.2389719
15	0xbd716037	-0.05892965

con1.2.running_mean f4 [16]
0	0x3d92350b	0.071390234
1	0xbdac4601	-0.0841179
2	0xbd51282f	-0.051063713
3	0xbe203b88	-0.1564771
4	0x3d5e32f6	0.05424782
5	0xbed2b748	-0.41155457
6	0xbd514d45	-0.05109908
7	0x3e64536c	0.22297448
8	0xbd148ae3	-0.036265265
9	0xbd3bfadf	-0.045893546
10	0x3e0b1f01	0.13586046
11	0xbd696740	-0.056983232
12	0x3def884f	0.11695921
13	0x3e384627	0.17995511
14	0x3db0181a	0.08598347
15	0x3d65a025	0.05606093

con1.2.running_var f4 [16]
0	0x3d1ff581	0.03905249
1	0x3c3660a1	0.011131437
2	0x3dc896ff	0.09794425
3	0x3f5632f3	0.8367149
4	0x3e22bfc5	0.15893467
5	0x3f923de3	1.1425136
6	0x3dc0d598	0.0941574
7	0x3fd86aaf	1.6907557
8	0x3da2b4a3	0.0794461
9	0x3d9e98b5	0.0774397
10	0x3e10338b	0.14082162
11	0x3e1999ad	0.15000029
12	0x3c7e6324	0.015526567
13	0x3f582524	0.8443167
14	0x3e5a0af4	0.21293241
15	0x3daf531a	0.08560772

con2.1.weight f4 [16, 16, 4, 4]
0	0x3da0c5c3	0.0785022
1	0x3c4247c7	0.011857933
2	0xbc9f802b	-0.019470295
3	0x3d8ce4ad	0.06879554
4	0x3cf9ed9f	0.030508814
5	0x3d2fb18e	0.04289394
6	0x3cf30212	0.029664073
7	0x3d9334f4	0.071878344
8	0x3d424a99	0.047434423
9	0x3cb76056	0.022384804
10	0x3ccf30a6	0.025291752
11	0xbc703ea8	-0.014663376
12	0x3d85dca8	0.065362275
13	0x3d2e8dbe	0.042615645
14	0x3d8e3630	0.06943929
15	0x3da91f3f	0.08257913
16	0x3d24c63e	0.04022812
17	0x3d331217	0.043718424
18	0xbc984ab0	-0.018590301
19	0xbd28c6cb	-0.04120521
20	0x3d56a43c	0.05240272
21	0x3ce639c9	0.028103726
22	0x3c936d69	0.017996507
23	0xbd183cb5	-0.03716727
24	0x3d4c5e2e	0.049894504
25	0x3d142e63	0.03617705
26	0xbccdeda5	-0.025137732
27	0x3cc08ea9	0.023505526
28	0xbca223dd	-0.019792492
29	0x3b75785c	0.0037455773
30	0xbc95fc2d	-0.018308723
31	0x3c361950	0.011114433
32	0x3b71eedb	0.003691605
33	0x3d67e701	0.056616787
34	0x3d5ed027	0.05439773
35	0x3d7ea656	0.06217035
36	0x3cf7b6ea	0.030238587
37	0x3c861411	0.01636699
38	0x3da959cb	0.0826908
39	0x3d552a39	0.05204222
40	0x3d6a3d73	0.05718751
41	0x3d43e8a2	0.047829278
42	0x3b05e922	0.0020433147
43	0x3dd09276	0.10184185
44	0x3d1781c6	0.036988996
45	0x3dcb3d1d	0.09923766
46	0xbc9e8ac7	-0.019353284
47	0x3d525697	0.05135211
48	0x3dbaee06	0.091274306
49	0x3df5846e	0.119881496
50	0x3dd8ace6	0.10579853
51	0x3e052785	0.13003357
52	0x3dc5d53f	0.09659814
53	0x3dd2f460	0.10300517
54	0x3e3f2903	0.18667988
55	0x3d7b4f1e	0.06135475
56	0x3d7f7226	0.06236472
57	0x3df144be	0.1178069
58	0x3e15a0d9	0.1461214
59	0x3dd487f7	0.10377496
60	0x3e1f52c9	0.15558924
61	0x3d6d2123	0.05789293
62	0x3e0cfd71	0.13768555
63	0x3d1ee268	0.038790137
64	0xbc860b2f	-0.016362755
65	0x3cdccf27	0.026954247
66	0x3d489960	0.048974395
67	0xbc81350f	-0.01577237
68	0x3c5323fb	0.012886996
69	0x3db7ebf3	0.089805506
70	0x3d4b02eb	0.04956333
71	0x3dd932e5	0.106054105
72	0xbbcf111b	-0.006319178
73	0x3de9105d	0.11380074
74	0x3e077536	0.13228306
75	0x3dee9dac	0.11651167
76	0x3dac676f	0.08418166
77	0x3d09d7cc	0.033653066
78	0x3cf43a62	0.029812995
79	0x3d87c1f6	0.06628792
80	0xbc95b35d	-0.018274004
81	0xbca7bb04	-0.020474918
82	0x3cc902a6	0.024537396
83	0x3d520d3c	0.051282153
84	0x3d1a3f6f	0.03765815
85	0x3c1cd533	0.009572315
86	0x3b86785c	0.0041037034
87	0x3d826c79	0.06368346
88	0x3d434cc6	0.04768064
89	0x3d31e40f	0.043430384
90	0x392214e2	0.00015457303
91	0xbc4d953c	-0.012547787
92	0xbd3e5730	-0.046469867
93	0xbd48301a	-0.048874
94	0x3d1797b6	0.037009917
95	0xbd111e1f	-0.035429116
96	0xbdb25092	-0.08706774
97	0xbd6297ed	-0.05532067
98	0xbcbbc599	-0.02292137
99	0xbd344aef	-0.044016775
100	0xbc03b15f	-0.008037894
101	0x3c864426	0.016389918
102	0x3d6b4771	0.05744118
103	0xbb52e65c	-0.0032180762
104	0x3c6c9acf	0.014441206
105	0xbcb24e04	-0.021765716
106	0x3d7049ff	0.05866432
107	0x3c164c43	0.009173456
108	0xbc931a0c	-0.017956756
109	0xbd60a176	-0.05484148
110	0xbb0c827b	-0.0021440077
111	0x38d12f2f	9.974685e-05
112	0x3dbbe6c2	0.09174873
113	0x3c9ce031	0.019149872
114	0x3dada878	0.084793985
115	0xbb0434d0	-0.002017308
116	0x3cfda740	0.03096354
117	0x3dcd7265	0.10031585
118	0x3e00bc38	0.125718
119	0x3de7b2a1	0.11313368
120	0x3c5d825a	0.013519848
121	0x3bb1ce85	0.0054262304
122	0x3da826c0	0.08210516
123	0x3dd5cb2f	0.10439145
124	0x3d5ffeef	0.054686483
125	0x3dd4a6e6	0.10383396
126	0x3d3a94ea	0.04555217
127	0x3d229826	0.03969588
128	0xbca2d672	-0.019877646
129	0xbd717a42	-0.058954485
130	0x3d571627	0.05251136
131	0x3c4d96d2	0.012548165
132	0xbcca13ed	-0.024667704
133	0x3c1a2c27	0.009409941
134	0x3d450280	0.048098087
135	0x3da8ef1b	0.08248731
136	0x3db7e6b8	0.08979553
137	0x3d5550d6	0.052079044
138	0x3e003166	0.12518844
139	0x3d89cdec	0.067287296
140	0x3daa51b3	0.08316364
141	0x3d060933	0.032723617
142	0x3d241fcd	0.04006939
143	0x3cbb2f1f	0.022849618
144	0xbd0ddc84	-0.03463413
145	0x3c1b6dc7	0.009486622
146	0x3d54454d	0.051823903
147	0x3c953b71	0.01821682
148	0x3d8d4949	0.06898744
149	0x3d977c96	0.0739681
150	0x3c07159e	0.0082449
151	0x3d9f612f	0.07782208
152	0x3d728827	0.059211876
153	0x3ccf3799	0.025295066
154	0x3c57d1b3	0.013172555
155	0x3d802faf	0.06259095
156	0xbcceca03	-0.025242811
157	0x3d332815	0.043739397
158	0x3d8c4c4f	0.06850492
159	0xbcecf7e8	-0.028926805
160	0x3ccf0637	0.025271518
161	0x3c0ca966	0.00858531
162	0xbd27fba6	-0.041011475
163	0xbd58c7f0	-0.05292505
164	0xbd49c8cb	-0.049263757
165	0xbcc774fd	-0.024347777
166	0xbc028ce8	-0.007968165
167	0xbb092882	-0.0020928686
168	0xbc76e3ec	-0.015068989
169	0x3cc7f448	0.024408475
170	0xbd0af16b	-0.03392164
171	0x3c5538ba	0.013014013
172	0x3c90fc34	0.017698385
173	0xbd536482	-0.051609524
174	0xbc03f4b7	-0.00805395
175	0x3c4433cc	0.01197524
176	0xbded9178	-0.116000116
177	0xbda00cf8	-0.078149736
178	0xbd4d2fea	-0.050094523
179	0xbdcd38d6	-0.10020606
180	0xbe29672b	-0.16543262
181	0xbe04d4aa	-0.1297175
182	0xbd9878a3	-0.07444885
183	0xbd795a42	-0.060877092
184	0xbdb7bfbe	-0.08972119
185	0xbccc452f	-0.024935333
186	0xbdb0e1bb	-0.08636805
187	0xbdfc9083	-0.12332251
188	0xbe0a49ca	-0.13504711
189	0xbd29a60a	-0.041418113
190	0xbd279bf6	-0.04092022
191	0xbcde0eb2	-0.027106617
192	0x3c510a5b	0.012758817
193	0xbd919399	-0.0710823
194	0xbb1e5513	-0.0024159595
195	0x3d246078	0.040131062
196	0x3d41a672	0.047277875
197	0x3c6c8ac6	0.014437383
198	0x3ba315b8	0.0049769543
199	0xbcecaf6c	-0.028892241
200	0x3c890643	0.016726619
201	0x3cb9640e	0.022630718
202	0x3ac15531	0.001475012
203	0xbd01c356	-0.031680427
204	0xbc921d41	-0.017836215
205	0xbcb1e924	-0.021717615
206	0xbcf29c1c	-0.029615454
207	0x3c9d4493	0.019197738
208	0x3d9e98cd	0.07743988
209	0x3ded413c	0.11584708
210	0x3d6be5f4	0.057592347
211	0x3dd4d1ec	0.10391602
212	0x3c0e00d5	0.008667191
213	0x3d043940	0.03228116
214	0x3e1cce51	0.15313078
215	0x3db8b19a	0.0901825
216	0x3d57cc87	0.052685287
217	0x3d48418b	0.04889063
218	0x3de0ccfa	0.10976596
219	0x3d1f8c9d	0.03895246
220	0x3d037397	0.032092657
221	0xbb1ebb23	-0.002422043
222	0x3cbea543	0.023272162
223	0x3daa0197	0.083010845
224	0xbb3485a1	-0.002754547
225	0xbc09d805	-0.0084133195
226	0xbd31c678	-0.043402165
227	0x3c50c035	0.012741138
228	0x3cc0c444	0.023531087
229	0xba7fee2e	-0.00097629696
230	0x3cafeea4	0.021476097
231	0xbcc5e8e5	-0.024158904
232	0x3c810e3e	0.015753862
233	0x3b2291af	0.0024806072
234	0xbc5c4950	-0.013445213
235	0x3d5f8156	0.054566704
236	0xbc099db2	-0.008399414
237	0x3d4f9842	0.050682314
238	0xbcc9f6bb	-0.024653783
239	0xbc76bd36	-0.01505976
240	0xbc6e4c4f	-0.014544561
241	0x3d1c0b62	0.038096793
242	0xbd33429a	-0.043764688
243	0x3ba0d246	0.004907879
244	0x3d11fe09	0.035642657
245	0xbc97fe28	-0.018553808
246	0xbc0f9db8	-0.00876563
247	0x3d4ab6b2	0.049490638
248	0x3c1ad827	0.009450949
249	0x3db297aa	0.08720334
250	0x3d8a00f3	0.06738462
251	0x3d24449f	0.040104505
252	0xbc5b84d8	-0.013398372
253	0x3c92cd02	0.017920021
254	0xbd0a0ac7	-0.033701684
255	0xbce96c44	-0.028494008

con2.1.bias f4 [16]
0	0x3c4878e4	0.012235854
1	0xbc2bbd63	-0.010482165
2	0xbc0524c4	-0.008126441
3	0xbd079cc0	-0.033108473
4	0xba413a7f	-0.00073710823
5	0x3c8cf3ca	0.017206091
6	0x3b1d80d8	0.0024033096
7	0xbbeb5e2d	-0.0071828575
8	0x3c9c5c8b	0.019087097
9	0x3d246caa	0.040142693
10	0xbd22c02c	-0.03973405
11	0x3d8942a6	0.06702165
12	0x3c8f1e35	0.017470459
13	0xbbc52967	-0.0060168984
14	0xbd236c56	-0.03989824
15	0x3d0e6fd2	0.03477461

con2.2.weight f4 [16]
0	0x3f81755f	1.0113944
1	0x3f74da62	0.95645726
2	0x3f6b0f61	0.9182034
3	0x3f711767	0.94176334
4	0x3f7a9aba	0.97892344
5	0x3f7cb74d	0.98717195
6	0x3f85c95f	1.0452079
7	0x3f845808	1.0339365
8	0x3f6d3c79	0.926704
9	0x3f79fd78	0.9765239
10	0x3f773fde	0.9658183
11	0x3f8006c7	1.0002068
12	0x3f83ddee	1.0302103
13	0x3f87e889	1.0617839
14	0x3f885179	1.0649863
15	0x3f7f4b00	0.99723816

con2.2.bias f4 [16]
0	0xbef86191	-0.48511937
1	0x3d9850a4	0.07437256
2	0x3d3b5996	0.045739733
3	0x3c55e7a5	0.013055717
4	0x3dec577b	0.11540123
5	0xbe9452c3	-0.28969392
6	0xbe1135be	-0.14180657
7	0xbeea822b	-0.45802435
8	0xbea112be	-0.31459612
9	0x3c84abc3	0.016195184
10	0xbeae273d	-0.3401431
11	0xbdd0a28d	-0.10187254
12	0x3cc0fd33	0.023558235
13	0x3e1332c1	0.1437483
14	0xbe5dbf05	-0.216549
15	0x3abc6e49	0.0014376129

con2.2.running_mean f4 [16]
0	0x4000dc54	2.0134478
1	0xbedcb24c	-0.4310478
2	0x3ea0eecd	0.3143219
3	0xbfbb5f0d	-1.4638382
4	0x3e6ebf5b	0.23315184
5	0x3feb705a	1.8393662
6	0x3ed85956	0.42255658
7	0x4025ae9a	2.5887818
8	0x3ff37030	1.9018612
9	0x3f8233ab	1.0172018
10	0x40344ace	2.8170657
11	0x3ef75ebd	0.48314467
12	0xbf5a37de	-0.85241497
13	0xbe797c9f	-0.24363945
14	0x3fa32034	1.2744203
15	0xbf8298fe	-1.020294

con2.2.running_var f4 [16]
0	0x3fc63a35	1.5486513
1	0x4068f6ef	3.6400716
2	0x400d4eac	2.2079268
3	0x408d71f3	4.42016
4	0x3f3fe992	0.74965775
5	0x401e09af	2.469341
6	0x4000e8b1	2.0142024
7	0x3fddb95d	1.7322193
8	0x40432b16	3.0495048
9	0x40088b6f	2.1335104
10	0x407378b0	3.8042412
11	0x405e6631	3.4749873
12	0x41067573	8.403674
13	0x406f9fb4	3.7441225
14	0x40c3ed4a	6.122716
15	0x3ff2e6f8	1.8976736

con3.1.weight f4 [16, 16, 4, 4]
0	0x3e006346	0.1253787
1	0xbc2967fa	-0.010339731
2	0xbcd13d2d	-0.025541866
3	0x3d379ae8	0.044825464
4	0x3d2b83cb	0.041873734
5	0x3d88fe4e	0.0668913
6	0xbc9b6055	-0.018966833
7	0x3d6722a0	0.056429505
8	0xbcd35a81	-0.025799992
9	0xbda59381	-0.08084775
10	0xbcd83685	-0.026393184
11	0xbc1b614f	-0.009483649
12	0xbd9c3676	-0.07627575
13	0x3c87ef57	0.016593618
14	0xbdb4794b	-0.08812197
15	0x3ca8850a	0.02057125
16	0x3d8fd1cf	0.0702244
17	0x3d1e3d4e	0.038632683
18	0x3db893e3	0.09012582
19	0x3c91efb9	0.017814504
20	0x3d8b81d9	0.06811876
21	0x3c35ed3b	0.011103923
22	0x3daa6f20	0.08321977
23	0x3ae30fdd	0.0017323453
24	0x3d2232bd	0.03959917
25	0x3bb23ee7	0.0054396274
26	0xbd6fd1cb	-0.058549684
27	0x3cfa30b4	0.030540802
28	0x3b89a4d7	0.0042005586
29	0xbd5a0206	-0.053224586
30	0x3c27bd39	0.010237985
31	0xbd05be31	-0.032652084
32	0xbd991aab	-0.0747579
33	0xbb81cf1a	-0.003961456
34	0xbc2d1f0e	-0.010566486
35	0x3bad62ad	0.005291304
36	0x3c7226d7	0.014779768
37	0x3d0e0312	0.034670897
38	0x3d781f51	0.06057674
39	0x3d96190d	0.07328997
40	0xbd0dd6a9	-0.034628544
41	0x3da6fb3d	0.08153389
42	0x3c6dfbfa	0.014525408
43	0x3c3b0a68	0.011416055
44	0x3d04664d	0.032324124
45	0xbd06bda4	-0.0328957
46	0xbd2c70ea	-0.04209987
47	0xbcd4e4f2	-0.025988076
48	0xbda4e2d3	-0.08051076
49	0x3d666381	0.056247238
50	0x3d05d96b	0.03267805
51	0xbc7ff8d5	-0.015623291
52	0xbb12e701	-0.002241552
53	0xbd7f70ec	-0.06236355
54	0xbc92c0c4	-0.017914183
55	0xbbce6ac4	-0.0062993485
56	0xbdb545e7	-0.088512234
57	0x3bc20fa7	0.005922276
58	0x3d1147d9	0.03546891
59	0x3c864a6a	0.016392905
60	0xbd665d68	-0.056241423
61	0xbd1f9a13	-0.038965296
62	0xb8d5ce4b	-0.000101950565
63	0xbd4910ee	-0.04908841
64	0x3db46e8f	0.0881015
65	0x3e03de2c	0.1287772
66	0x3dde1c55	0.10845248
67	0x3e04cde5	0.12969168
68	0x3d1966c1	0.03745151
69	0x3e167ee5	0.14696844
70	0x3df8d7b7	0.12150519
71	0x3d06d6bf	0.03291964
72	0xbc4bcf74	-0.012439597
73	0x3c562d4f	0.013072326
74	0xbc2016a8	-0.009771027
75	0x3baa6d55	0.0052010217
76	0xbd41918d	-0.04725795
77	0xbd057ba1	-0.032588605
78	0x3d19408f	0.037415083
79	0xbd0ee319	-0.034884546
80	0x3d4da418	0.05020532
81	0xbd284102	-0.04107762
82	0xbd7cd988	-0.06173089
83	0xbd9c48e2	-0.07631089
84	0x3d4cc189	0.049989257
85	0xbc1ae02c	-0.009452861
86	0xbd86d4f4	-0.06583586
87	0xbdd86c43	-0.10567524
88	0x3d86a65d	0.065747
89	0xbd4642ac	-0.048403427
90	0xbc519c38	-0.012793593
91	0xbe01974b	-0.1265537
92	0x3d0852cb	0.033282083
93	0x3d5d1e8d	0.053984214
94	0xbcc65529	-0.02421053
95	0xbd9325d2	-0.07184948
96	0xbdc1291a	-0.094316676
97	0xbd9b6c68	-0.07589036
98	0x3cc8974c	0.024486206
99	0x3d5009c1	0.050790552
100	0x3ccfbb0c	0.025357746
101	0x3d0a830c	0.033816382
102	0x3d39d816	0.04537209
103	0xbcd7befd	-0.026336187
104	0x3d0c0a0a	0.03418926
105	0x3dcd70ec	0.10031304
106	0x3d28eeb3	0.041243266
107	0x3ccacc76	0.024755698
108	0xbd42ad56	-0.047528587
109	0x3c8caa85	0.017171154
110	0x3c8e8527	0.017397476
111	0x3db84daf	0.08999192
112	0x3c07d99d	0.008291629
113	0x3d4eb402	0.050464638
114	0x3d7d7d18	0.061886877
115	0x3d40bd47	0.04705551
116	0x3d9ae844	0.075638324
117	0x3baf1da8	0.0053441115
118	0x3cbb0f25	0.02283437
119	0x3c25b3d1	0.010113672
120	0xbd7b5ef5	-0.061369855
121	0xbd7b160d	-0.061300326
122	0x3da54235	0.080692686
123	0xbd2a5409	-0.04158405
124	0x3d086421	0.033298615
125	0x3d6e2984	0.05814506
126	0x3d7c456f	0.061589655
127	0x3d865cfe	0.065607056
128	0x3a8a6942	0.0010559934
129	0xbdc910e6	-0.09817676
130	0xbd46d99f	-0.048547383
131	0x3c926a79	0.017873036
132	0xbd81ff3a	-0.06347509
133	0xbdc77723	-0.097395204
134	0x3cb7950f	0.022409944
135	0x3d030383	0.03198577
136	0xbd0ce61d	-0.03439914
137	0xbd1ebb7a	-0.03875301
138	0x3d93d795	0.072188534
139	0x3d9e6f00	0.07736015
140	0xba5564d7	-0.00081403315
141	0x3c5cf55b	0.013486232
142	0x3cc05bba	0.023481239
143	0x3d85b512	0.06528677
144	0x3d625957	0.055260982
145	0x3c589d7e	0.013221143
146	0xbd0cc092	-0.034363337
147	0xbd15ac93	-0.036541533
148	0x3d623591	0.055226866
149	0xbc99d112	-0.01877645
150	0xbd4f239a	-0.05057106
151	0x3d4ce9a3	0.0500275
152	0xbc496b1a	-0.012293601
153	0xbb759cb5	-0.0037477438
154	0xbc8c271a	-0.017108489
155	0xbddea4ba	-0.10871263
156	0xbd816255	-0.063175835
157	0xbd822f8f	-0.06356727
158	0xbd4d60d2	-0.050141163
159	0xbda7f5e9	-0.082012005
160	0xbdd2d747	-0.10294967
161	0xbdb36138	-0.087587774
162	0x3d41d40a	0.047321357
163	0xbd2f734c	-0.042834565
164	0xbdba3fa7	-0.09094172
165	0xbda8a73b	-0.08235022
166	0x3d533847	0.051567342
167	0x3d4056e3	0.04695786
168	0xbddbeb10	-0.10738194
169	0x3a3ef0f0	0.0007283827
170	0x3d9b5d31	0.07586134
171	0x3d8d57c1	0.06901503
172	0xbd111113	-0.035416674
173	0xbd9be395	-0.07611767
174	0x3d75fa1f	0.060052987
175	0x3d149c03	0.036281597
176	0x3d5cbd8e	0.05389171
177	0x3d97c7f8	0.07411188
178	0x3d5431e0	0.051805377
179	0x3b24227f	0.0025044975
180	0x3dbcc8e3	0.092180036
181	0x3da93ac4	0.08263162
182	0xbc8f4179	-0.017487274
183	0x3b1a9dc6	0.0023592575
184	0xbc9ef437	-0.01940356
185	0x3b7acb7a	0.0038268254
186	0xbdd414f4	-0.10355559
187	0xbd947bb5	-0.07250158
188	0xbd3ce270	-0.046114385
189	0xbb659c42	-0.0035035764
190	0xbdfefb34	-0.12450257
191	0xbd80fb2a	-0.06297906
192	0x3da82b43	0.082113765
193	0x3b942df0	0.0045220777
194	0xbc8ef343	-0.01744998
195	0x3b78b1ee	0.0037947851
196	0x3d40096a	0.046883978
197	0x3d5baa5a	0.053629257
198	0xbd84eab6	-0.0649008
199	0xbd975d20	-0.07390809
200	0xbd284e23	-0.041090142
201	0xbd9814c9	-0.074258395
202	0xbcc42bc6	-0.023946654
203	0xbdb51d12	-0.08843435
204	0xbd3c210b	-0.04592995
205	0xbd9f0b56	-0.07765834
206	0xbde29847	-0.11064201
207	0xbdb96135	-0.09051744
208	0xbc962951	-0.018330248
209	0xbd8293f0	-0.06375873
210	0xbc0750a0	-0.008258969
211	0x3d59c264	0.0531639
212	0x3be8bffa	0.0071029635
213	0xbd8dcef3	-0.06924238
214	0x3bbcb578	0.0057589374
215	0x3de5ce7d	0.11221025
216	0x3c0bdee0	0.008537024
217	0xbd7a2bbe	-0.061076872
218	0x3d62a735	0.055335242
219	0x3dae14be	0.0850005
220	0xbd55c163	-0.05218638
221	0x3d030786	0.031989597
222	0x3c0b63fd	0.008507726
223	0x3d9c69a0	0.07637334
224	0x3e33fadf	0.17576168
225	0x3dbbe60e	0.09174739
226	0x3df24a4d	0.11830578
227	0x3cc3b97a	0.023892153
228	0x3e101997	0.14072262
229	0x3cad17d6	0.02112953
230	0x3cf0bf3c	0.029388063
231	0xbbcfae9e	-0.0063379547
232	0x3d4031dc	0.04692255
233	0xbcc92de0	-0.024558008
234	0x3be475cb	0.00697205
235	0xbcd61d0f	-0.026136903
236	0xbd760ca2	-0.06007064
237	0x3d1d824e	0.038454346
238	0xbd6f33e6	-0.058399104
239	0xbc13b29c	-0.009014752
240	0xbd274a72	-0.04084248
241	0xbdaf22d2	-0.08551563
242	0x3b7a237e	0.0038168128
243	0x3d42b04d	0.047531415
244	0x3c76a55a	0.015054071
245	0xbd4e3e21	-0.05035222
246	0xbc804996	-0.015660089
247	0xbcad4d11	-0.021154912
248	0xbd5dbb6d	-0.05413382
249	0xbdaeb4e0	-0.08530593
250	0xbc6d9683	-0.014501217
251	0xbccb60e4	-0.024826474
252	0xbd0edd53	-0.03487904
253	0xbdd10f09	-0.10207946
254	0x3d6089c1	0.054818872
255	0xbcf4989b	-0.029857924

con3.1.bias f4 [16]
0	0x3d015547	0.031575467
1	0xbd8dd4fa	-0.06925388
2	0x3cdf4774	0.027255751
3	0x3c421f03	0.011848214
4	0xbd597685	-0.053091545
5	0xbcd42286	-0.025895368
6	0x3d73e8da	0.059548236
7	0x3c2cee0e	0.010554804
8	0x3aba6b9b	0.0014222743
9	0x3ccbe360	0.024888694
10	0xba6ee01a	-0.0009112373
11	0x3d10cd3e	0.035351984
12	0x3d5a4df3	0.053296994
13	0x3d5bfc57	0.053707447
14	0xbc436861	-0.011926741
15	0x3cd16609	0.02556135

con3.2.weight f4 [16]
0	0x3f865a01	1.0496217
1	0x3f884639	1.064643
2	0x3f83552a	1.0260365
3	0x3f81d036	1.0141666
4	0x3f68fd10	0.9101114
5	0x3f8c8248	1.0977259
6	0x3f86f7c7	1.0544366
7	0x3f849b2b	1.0359854
8	0x3f80c6de	1.006069
9	0x3f5bb086	0.8581623
10	0x3f6dbdcc	0.9286773
11	0x3f784f47	0.9699597
12	0x3f8199f6	1.012511
13	0x3f81f20b	1.0151991
14	0x3f8119f1	1.0086042
15	0x3f7cc1f1	0.9873343

con3.2.bias f4 [16]
0	0x3d54a9b6	0.05191966
1	0x3e1f7726	0.15572795
2	0xbd3a630a	-0.045504607
3	0xbdf29708	-0.11845213
4	0xbd4f143c	-0.050556406
5	0x3dd86282	0.10565664
6	0xbd35cbf9	-0.044383977
7	0x3d944bba	0.07241006
8	0xbd514841	-0.051094297
9	0xbe3e3d93	-0.18578176
10	0xbea37915	-0.31928316
11	0xbe6e192b	-0.23251788
12	0xbe62a084	-0.22131544
13	0x3cb84592	0.022494111
14	0xbd75da51	-0.060022656
15	0x3d059e8a	0.032621898

con3.2.running_mean f4 [16]
0	0x3d79bb66	0.060969733
1	0xbf9b3822	-1.2126505
2	0xbf6e9dbf	-0.9320945
3	0x3f03823e	0.5137061
4	0xbf330414	-0.699281
5	0x3e67f38f	0.22651504
6	0xbeea1341	-0.45717815
7	0x3f49bad7	0.7880072
8	0x3f25c5ba	0.6475483
9	0x3ff601ad	1.9219261
10	0x3f3bc578	0.7334819
11	0x3f197936	0.5995058
12	0x3ec22f2a	0.37926608
13	0xc0014e5f	-2.0204084
14	0xbefcfd84	-0.49412167
15	0xbdfbbb42	-0.12291576

con3.2.running_var f4 [16]
0	0x3f1ff5c8	0.6248441
1	0x40878982	4.2355356
2	0x40ae6c8f	5.450752
3	0x40da2cf4	6.8179874
4	0x40a9668f	5.2937694
5	0x407e8924	3.9771204
6	0x3fbb2ae5	1.4622465
7	0x4112033b	9.125789
8	0x40710b4d	3.7663147
9	0x40ae0f21	5.439347
10	0x408944fc	4.289671
11	0x4011b445	2.2766278
12	0x3f93d082	1.1548007
13	0x404c783a	3.194838
14	0x408afafd	4.343138
15	0x3f90e2d5	1.1319224

con4.1.weight f4 [16, 16, 4, 4]
0	0xbe06a5f1	-0.13149239
1	0x3d3d9a73	0.046289872
2	0x3da05d93	0.07830348
3	0x3d97809a	0.07397576
4	0x3d73945d	0.059467662
5	0x3e38f521	0.1806226
6	0x3d36fe69	0.04467622
7	0x3cfc22a5	0.030778239
8	0xbde3288c	-0.11091718
9	0x3d3457f4	0.04402919
10	0xbcbba77d	-0.022907013
11	0xbcffa1cd	-0.031205082
12	0x3cd6d28a	0.02622344
13	0x3d9f128a	0.07767208
14	0x3d3bfae9	0.045893583
15	0xbdc03878	-0.093857706
16	0xbd02a899	-0.03189907
17	0xbd3a601b	-0.04550181
18	0x3cd3d03b	0.025856128
19	0xbc696a5b	-0.0142465485
20	0x3b1bd00c	0.0023775129
21	0x3d5499b3	0.05190439
22	0x3df7a7d3	0.12092557
23	0xbbb37e7f	-0.005477726
24	0x3b2c9e0e	0.0026339325
25	0x3d131bb2	0.035915084
26	0x3e1a3ad8	0.1506151
27	0x3df9ad98	0.121913135
28	0xbd89fe30	-0.067379355
29	0x3a7a8ba1	0.00095575495
30	0x3d62226d	0.055208612
31	0xbc0949cf	-0.008379414
32	0x3d4af634	0.049551204
33	0x3db24728	0.08704978
34	0xbc949383	-0.018136745
35	0x3d9708ec	0.073747486
36	0x3c9552f3	0.01822803
37	0xbd111f66	-0.035430335
38	0xbdbe97cb	-0.09306296
39	0x3cb66a57	0.022267504
40	0x3cc7e146	0.024399411
41	0xb931401e	-0.00016903921
42	0xbd4d87cb	-0.05017833
43	0x3d1c88f8	0.03821656
44	0x3d950c60	0.07277751
45	0x3d5a52fe	0.053301804
46	0x3d04c2cb	0.03241233
47	0x3c8e9e66	0.017409515
48	0x3c7e0bb4	0.01550572
49	0xbd82a01c	-0.06378195
50	0xbd461f6a	-0.048369803
51	0xbd951b58	-0.07280606
52	0xbc89d9ec	-0.016827546
53	0xbd0c7ddc	-0.034299716
54	0xbdce1beb	-0.10063919
55	0xbdb07d71	-0.08617676
56	0xbcec932e	-0.028878774
57	0xbdb08363	-0.0861881
58	0xbd2f7184	-0.042832866
59	0xbd8a13b6	-0.06742041
60	0x3be549a7	0.0069973054
61	0xbb3f0f77	-0.0029153505
62	0xbca57046	-0.020195138
63	0x3d373ec9	0.04473761
64	0x3dcbcb59	0.09950895
65	0x3d8f64bb	0.07001635
66	0x3dc88cd9	0.097924896
67	0x3d74cc71	0.059765283
68	0xbc1ff79e	-0.009763626
69	0x3c7a4473	0.015275109
70	0x3d8291c6	0.0637546
71	0xbc71e08e	-0.014763011
72	0x3d69842b	0.05701081
73	0xbd345eca	-0.04403571
74	0xbc19bb7a	-0.009383077
75	0x3c823cc7	0.015898122
76	0x3c24c3a4	0.01005641
77	0x3c2ad650	0.010427073
78	0xbcc41013	-0.023933446
79	0x3afa5d99	0.0019101381
80	0xbcdb30b3	-0.02675662
81	0xbd341b65	-0.043971438
82	0xbb1d04c7	-0.0023959146
83	0x3ce7c597	0.02829246
84	0xbd5e82d1	-0.054323975
85	0xbd3e028e	-0.046389155
86	0xbd4ad6ea	-0.049521364
87	0xbd241ea0	-0.04006827
88	0xba777b4b	-0.00094406743
89	0xbcf73c1e	-0.030180033
90	0xbd43812b	-0.047730606
91	0x3d122b82	0.035686024
92	0x3c4b65ee	0.012414439
93	0xbd61c8d3	-0.05512316
94	0x3d5fe0dd	0.054657806
95	0x3d1b0ef9	0.037856076
96	0xbdffe518	-0.12494868
97	0xbd11872f	-0.03552931
98	0xbda4f244	-0.08054021
99	0xbd1b5208	-0.037920028
100	0xbc456e6f	-0.012050255
101	0xbd80c407	-0.06287389
102	0x3db35652	0.08756699
103	0xbd2e0c5b	-0.04249225
104	0xbd859c88	-0.065239966
105	0xbd28b56e	-0.04118865
106	0x3d9315e7	0.07181912
107	0x3d92bda7	0.071650796
108	0x3be4014d	0.006958163
109	0x3cd195f5	0.0255842
110	0x3d4d04e5	0.050053496
111	0x3d8a6988	0.0675841
112	0x3c903552	0.01760355
113	0x3a6799aa	0.00088348484
114	0x3d035478	0.032062978
115	0xbc3002d1	-0.010742859
116	0x3b653d8f	0.0034979319
117	0xbb826291	-0.003979035
118	0x3da217aa	0.0791467
119	0x3d67a387	0.056552436
120	0x3d3d20a4	0.046173707
121	0x3adfdadd	0.0017078776
122	0x3da8b3f8	0.08237451
123	0x3db224e8	0.086984456
124	0xbc7e2af4	-0.0155131705
125	0x3c41636e	0.011803491
126	0x3bf069b8	0.0073368214
127	0xbbde9f70	-0.006793909
128	0x3d536feb	0.051620405
129	0xbcbef4e1	-0.023310127
130	0x3d95496b	0.07289394
131	0x3d68e325	0.056857247
132	0x3d8127e7	0.06306439
133	0xbc42875b	-0.011873092
134	0x3d39a0d6	0.0453194
135	0x3e156f1e	0.14593169
136	0xbd74693b	-0.059670668
137	0x3c227d0c	0.009917509
138	0x3dcc1d26	0.09966497
139	0x3e0bcf0e	0.13653204
140	0x3bbd5ef7	0.005779143
141	0x3d894b3e	0.067038044
142	0x3dc9f44d	0.0986105
143	0x3dd0e233	0.10199394
144	0xbcfd2dad	-0.030905569
145	0x3c898c62	0.016790573
146	0x3d750fd6	0.059829555
147	0xbc78e316	-0.01519086
148	0xbd28c400	-0.041202545
149	0xbb9da7fa	-0.004811284
150	0x3d69b0cc	0.057053372
151	0x3d5df163	0.054185282
152	0xbc2be01a	-0.010490442
153	0xbca87a18	-0.020566031
154	0xbb01b376	-0.0019790805
155	0x3d3caf5d	0.046065677
156	0xbc9eb520	-0.019373477
157	0x3ca047e2	0.019565526
158	0xbd29a610	-0.041418135
159	0x3d8a4d07	0.06752973
160	0x39cb1992	0.0003873823
161	0xbd9ac8d1	-0.07557834
162	0xbd7d4711	-0.061835352
163	0xbcbe5bc3	-0.023237115
164	0xbcde01e4	-0.02710051
165	0xbdbe03d1	-0.09278072
166	0xbda07711	-0.0783521
167	0x3c49816f	0.012298926
168	0xbd2731a7	-0.040818837
169	0xbdb24173	-0.0870389
170	0xbda9499e	-0.082659945
171	0x3c9c6313	0.019090211
172	0xbcdacd14	-0.026709117
173	0xbd7c6944	-0.061623827
174	0xba7616a5	-0.00093875296
175	0x3c362575	0.011117329
176	0x3d778298	0.06042728
177	0x3d38e483	0.0451398
178	0x3c43e1cc	0.01195569
179	0x3c38cfc0	0.01128
180	0x3cb731a3	0.022362536
181	0x3cb0a84d	0.021564627
182	0x3d3376a7	0.043814328
183	0x3caa921d	0.020821625
184	0x3c51a1cc	0.012794923
185	0xbc51abc8	-0.0127973035
186	0xbaeec715	-0.001821729
187	0x3cbbf408	0.022943512
188	0x3d125a79	0.035730813
189	0x3d427e34	0.047483638
190	0x3d665170	0.05623001
191	0x3d945205	0.072422065
192	0x3e2326d3	0.15932779
193	0x3d47e76a	0.048804678
194	0xbd026239	-0.031831954
195	0x3d1ef9fb	0.03881262
196	0x3d8bc7df	0.06825232
197	0x3c3314ba	0.010930235
198	0xbd04c9da	-0.032419063
199	0x3be29ec0	0.006915897
200	0x3d170efe	0.036879532
201	0x3c4f575d	0.012655106
202	0xbd6d9560	-0.058003783
203	0x3d607beb	0.054805677
204	0x3d8cb944	0.06871274
205	0x3da95efa	0.082700685
206	0x3dab3f50	0.08361685
207	0x3d58700c	0.05284123
208	0xbda0ad1c	-0.07845518
209	0xbd72d473	-0.05928464
210	0x3cd0ad25	0.025473187
211	0xbb321f43	-0.0027179278
212	0x3d99e0c0	0.07513571
213	0x3e00c9da	0.12577
214	0x3ddf3ab3	0.10899868
215	0xbd27748b	-0.04088263
216	0xbd51069d	-0.051031698
217	0x3d3ac940	0.045602083
218	0x3d19781a	0.037468053
219	0x3bf3b425	0.0074372464
220	0x3cb5559c	0.022135548
221	0x3d3f8424	0.04675688
222	0x3c573d24	0.013137136
223	0xbc4f54e6	-0.012654519
224	0x3d3c6ad5	0.04600032
225	0x3d946849	0.07246453
226	0x3c4abf67	0.012374735
227	0xbd9a8c81	-0.0754633
228	0x3c0c4bd2	0.008562999
229	0xbc8e0949	-0.017338412
230	0xbe04196d	-0.12900324
231	0xbd0f0109	-0.034913097
232	0xbccfc295	-0.025361339
233	0xbe078e62	-0.13237908
234	0xbdf1a745	-0.11799482
235	0xbe13bfbf	-0.14428614
236	0x3d0499c5	0.03237321
237	0xbdde6b32	-0.1086029
238	0xbbd0716d	-0.0063611777
239	0xbd2110f4	-0.03932281
240	0xbd08071d	-0.03320991
241	0x3cb02f1f	0.021506844
242	0xbdbb05f4	-0.09131995
243	0xbc7239cb	-0.014784287
244	0x3dbef636	0.09324305
245	0x3cc86965	0.024464319
246	0xbd707f5b	-0.058715206
247	0x3c9a5ee2	0.018844072
248	0xbbe9d1f5	-0.0071356245
249	0xbd1cd71d	-0.038291086
250	0xbd406c3f	-0.04697823
251	0xbd8bb682	-0.0682192
252	0x3db331b6	0.08749716
253	0x3da1d5df	0.07902121
254	0x3b90f555	0.004423777
255	0xbd71f779	-0.0590739

con4.1.bias f4 [16]
0	0xbd1233c2	-0.03569389
1	0x3d379042	0.04481531
2	0xbd68bf22	-0.056822903
3	0xbc318555	-0.0108350115
4	0xbcc77cd8	-0.024351522
5	0xbcf926ea	-0.030414063
6	0xbd26a040	-0.04068017
7	0xbd21bb1a	-0.039485075
8	0x3d427506	0.047474883
9	0xbc5ec904	-0.013597731
10	0x3d8a5db1	0.067561515
11	0xbd58fb5d	-0.052974094
12	0x3cb5d587	0.022196544
13	0x3ce75ec0	0.028243423
14	0x3d244bbe	0.040111296
15	0x3cd0a045	0.025467047

con4.2.weight f4 [16]
0	0x3f87ccb5	1.0609347
1	0x3f82881e	1.019779
2	0x3f7f8614	0.9981396
3	0x3f782430	0.9693022
4	0x3f6d6cd1	0.92744166
5	0x3f889581	1.0670625
6	0x3f7bb6a0	0.9832554
7	0x3f74c4a2	0.9561254
8	0x3f7afcea	0.98042166
9	0x3f9350df	1.1509055
10	0x3f8733f3	1.0562729
11	0x3f81fafb	1.0154718
12	0x3f8ffcab	1.1248983
13	0x3f825f53	1.0185341
14	0x3f881eeb	1.0634435
15	0x3f831569	1.0240909

con4.2.bias f4 [16]
0	0x3d13db3b	0.036097746
1	0x3ce07aa2	0.027402226
2	0x3b3b4f2d	0.0028581128
3	0xbcf388d0	-0.029728323
4	0xbe07918c	-0.13239115
5	0x3cf9f5e6	0.030512761
6	0x3966849d	0.00021983912
7	0xbcbf6f1a	-0.023368407
8	0xbd471377	-0.048602547
9	0x3d292ce6	0.041302584
10	0xbbdf0e43	-0.00680712
11	0xbd0e0f20	-0.034682393
12	0x3c89ad29	0.016806202
13	0x3c84cc90	0.016210824
14	0x3db6362e	0.08897053
15	0x3d366351	0.04452831

con4.2.running_mean f4 [16]
0	0x3f066878	0.52503157
1	0xbf87be4e	-1.0604951
2	0x3fda0fb3	1.7036041
3	0xbf08b653	-0.53403205
4	0x3eb725a6	0.3577091
5	0x3e974014	0.29541075
6	0xbf36db95	-0.71428806
7	0x3e3a8a3c	0.18216795
8	0xbfb2260c	-1.3917861
9	0x3f0eb647	0.55746883
10	0x3fea7a10	1.83185
11	0xbecffb7c	-0.40621555
12	0x3f43711c	0.76344466
13	0x3ea5c9fd	0.32380667
14	0xbe4fe51a	-0.20302239
15	0xbfa0d4d6	-1.2564952

con4.2.running_var f4 [16]
0	0x3fb16921	1.3860208
1	0x403cb3f5	2.9484837
2	0x3fda4626	1.7052658
3	0x4015808d	2.335971
4	0x4084e595	4.153025
5	0x40019ce1	2.0252001
6	0x40095a08	2.14612
7	0x4049ffa2	3.1562276
8	0x40d4af67	6.6464114
9	0x3f1cf38e	0.61309135
10	0x4017280b	2.361819
11	0x408be9d3	4.372293
12	0x3f74b96c	0.9559543
13	0x404c1f30	3.1894035
14	0x3f9ca2dc	1.2237201
15	0x3fee54f8	1.861968

con5.1.weight f4 [16, 16, 4, 4]
0	0xbca2f62c	-0.019892775
1	0x3d1fc0ba	0.039002158
2	0xbd105a35	-0.035242278
3	0x3d589590	0.05287701
4	0xbd92cfc3	-0.07168534
5	0xbd350c69	-0.04420129
6	0x3d027f3d	0.031859625
7	0x3e152bfa	0.14567557
8	0xbdcfccb7	-0.10146468
9	0xbd4b3daa	-0.049619354
10	0xbd361587	-0.044454124
11	0x3d41cd8a	0.047315158
12	0xbd02eb6f	-0.03196281
13	0xbdc882ee	-0.09790598
14	0xbdc66a7f	-0.09688281
15	0xbd13a5a7	-0.03604665
16	0x3c449fec	0.012001019
17	0x3d2d1adb	0.04226194
18	0x3cb5e4e2	0.022203866
19	0xbcf2bb4f	-0.029630331
20	0xbd4f176d	-0.05055945
21	0x3bfc297b	0.0076953745
22	0x3d7cd776	0.061728917
23	0xbb6214ca	-0.0034497255
24	0x3d31faa7	0.04345193
25	0xbcf45bea	-0.029828984
26	0x3d0f20ac	0.034943268
27	0xbd7ef498	-0.06224498
28	0xbd2cd0e8	-0.042191416
29	0xbc9d285f	-0.01918429
30	0x3cb5e38d	0.022203231
31	0x3ca0b47f	0.019617317
32	0x3ce51209	0.027962701
33	0x3af4d916	0.0018680419
34	0xbd6554f3	-0.055989217
35	0xbd1d3982	-0.03838492
36	0x3b136798	0.0022492167
37	0xbd506a94	-0.05088289
38	0xbd013b37	-0.031550612
39	0xbd596068	-0.053070456
40	0xbd3415e5	-0.043966193
41	0xbcacea11	-0.021107705
42	0x3d24291a	0.04007826
43	0x3d1b8ba4	0.03797497
44	0xbda2e388	-0.079535544
45	0x3c433a2a	0.011915723
46	0xbcf39a7c	-0.02973675
47	0xbb01d649	-0.0019811562
48	0xbc8ef150	-0.017449051
49	0xbc406909	-0.011743792
50	0x3bc1febf	0.0059202607
51	0xba68d663	-0.0008882044
52	0xbbf211ee	-0.0073873913
53	0xbc389525	-0.011266028
54	0xbc4c49a6	-0.012468731
55	0x3b72841b	0.003700501
56	0xbdcd9b58	-0.10039395
57	0xbda9ae55	-0.08285204
58	0x3cdb163e	0.026744004
59	0x3d24b656	0.04021295
60	0x3bcd599d	0.0062667863
61	0xbdf5d356	-0.120032
62	0xbc869ebb	-0.01643311
63	0xbd384b1e	-0.044993512
64	0x3dd0da12	0.101978436
65	0x3d3580a0	0.04431212
66	0x3d313400	0.04326248
67	0x3d857ea4	0.065182954
68	0x3d886fcb	0.06661948
69	0x3db6329b	0.08896371
70	0xbc898da9	-0.016791182
71	0xbd31a009	-0.043365512
72	0x3d6eb83e	0.058281176
73	0x3d660b58	0.056163162
74	0x3c25ab4d	0.010111642
75	0xbd421952	-0.04738743
76	0x3d897fc8	0.067138255
77	0x3cd7145b	0.026254823
78	0x3cb13bf9	0.021635043
79	0x3ca0ae00	0.01961422
80	0x3c54fa33	0.012999105
81	0xbdbe0cd4	-0.092797905
82	0x3b4baefd	0.0031079643
83	0xbd5bcf94	-0.05366476
84	0xbda047c2	-0.07826187
85	0xbd5cf838	-0.053947657
86	0x3cbb01e8	0.022828057
87	0xbd979ed9	-0.07403345
88	0x3c9ce2a3	0.019151038
89	0xbde0051d	-0.10938475
90	0x3d10563b	0.035238486
91	0xbd0d0a35	-0.034433562
92	0xbc6a0667	-0.014283753
93	0xbd04493c	-0.032296404
94	0xbccdd987	-0.02512814
95	0xbc376b30	-0.011194989
96	0x3bbecc70	0.0058227107
97	0xbbb7e33f	-0.0056118066
98	0x3d14433f	0.036196943
99	0x3db7fddf	0.08983969
100	0xbd041655	-0.03224786
101	0xbb1768de	-0.0023103277
102	0x3dbfcd0a	0.0936528
103	0x3d9d5111	0.07681478
104	0xbc521ff2	-0.012824999
105	0xbda61e53	-0.08111253
106	0xbd6fac19	-0.058513734
107	0xbcb94d05	-0.022619734
108	0xbd0bbb91	-0.034114424
109	0xbd1b34f7	-0.037892308
110	0xbcf86ae5	-0.030324409
111	0xbd525a51	-0.051355664
112	0xbc10ea0b	-0.008844863
113	0x3d08c542	0.033391245
114	0xbd78bfe7	-0.060729887
115	0x3b9d3a77	0.0047982293
116	0x3d895066	0.06704788
117	0x3b98ec6e	0.0046668565
118	0x3c22ca4e	0.0099359285
119	0x3d616d2f	0.055035766
120	0xbc6e7d5d	-0.014556256
121	0xbdb14d3c	-0.086573094
122	0xbd5ca279	-0.053865883
123	0x3d054617	0.032537546
124	0x3d9834ab	0.074319206
125	0xbc58b661	-0.013227076
126	0x3c335a77	0.0109468615
127	0x3d2bab1e	0.041911237
128	0x3cf52a94	0.02992753
129	0x3d995ea2	0.07488753
130	0xbdc0a39e	-0.094062075
131	0xbda40d54	-0.08010355
132	0x3ce4bde8	0.027922586
133	0x3dcaedc4	0.099086314
134	0xbc4cc711	-0.012498633
135	0xbda59bcc	-0.080863565
136	0x3d1ddc54	0.0385402
137	0x3da22961	0.07918049
138	0xbdc33b39	-0.0953278
139	0xbd8c82ac	-0.06860861
140	0x3de7314f	0.11288702
141	0xbcd956e5	-0.026530692
142	0xbc973984	-0.018460043
143	0xbc55846a	-0.013032058
144	0x3d485180	0.04890585
145	0xbcbf3b96	-0.023343842
146	0xbdad774f	-0.08470022
147	0xbd386b1b	-0.04502402
148	0xbd09fa19	-0.033685777
149	0xbca3c6c9	-0.01999225
150	0xbd24a62c	-0.040197536
151	0x3d4669f2	0.04844088
152	0x3d28f3fb	0.041248303
153	0xbd6bd2f2	-0.05757422
154	0xbd1df0e1	-0.0385598
155	0xbc985875	-0.018596867
156	0x3b3a7ef9	0.002845703
157	0xbdb86a2f	-0.09004628
158	0xbd961f7c	-0.07330224
159	0x3daa16ea	0.08305152
160	0xbd1a5678	-0.03768012
161	0xbd0254c0	-0.031819105
162	0x3de09a53	0.10966935
163	0x3de0aa06	0.109699294
164	0xbda17689	-0.07883937
165	0xbd4f182c	-0.05056016
166	0x3da0e0dc	0.078553885
167	0x3ddc8514	0.1076757
168	0xbcf427cb	-0.029804131
169	0xbcc01366	-0.02344675
170	0x3d4fbda6	0.050717972
171	0x3d50ced6	0.050978504
172	0xbd92e72c	-0.07172999
173	0xbc36265b	-0.011117543
174	0x3c72b4a5	0.014813577
175	0x3c23f81e	0.010007886
176	0x3d9ace2b	0.07558855
177	0xbcf16ec9	-0.029471772
178	0xbb7fabe8	-0.0039012376
179	0xbdd4c99b	-0.10390016
180	0x3c8b2f5d	0.016990358
181	0x3d33142a	0.0437204
182	0xbd8531b7	-0.06503623
183	0xbda14582	-0.07874586
184	0xbc22fdb6	-0.009948185
185	0xbb2261a7	-0.0024777444
186	0x3d9af0c9	0.075654574
187	0x3d06a116	0.032868467
188	0x3d363656	0.044485413
189	0x3d9ddd7a	0.07708259
190	0x3b9ece7a	0.0048463913
191	0xbd3e29f4	-0.04642673
192	0xbe01e975	-0.12686713
193	0xbd8e3d28	-0.069452584
194	0x3cd50c90	0.026006967
195	0xbccff969	-0.025387483
196	0xbe47de6f	-0.19518445
197	0xbdaa786c	-0.0832375
198	0xbdf9a9bd	-0.12190578
199	0x3cdf0fdb	0.02722924
200	0xbe12e4ee	-0.14345142
201	0xbe1828e6	-0.14859352
202	0xbd88346f	-0.06650626
203	0xbbd4aa47	-0.006490025
204	0xbdf6509f	-0.12027096
205	0xbe0ee5eb	-0.13954894
206	0xbdf27eba	-0.118405774
207	0xbd88ae3c	-0.066738576
208	0x3d9ced39	0.07662434
209	0xbc74949a	-0.0149280075
210	0x3dd64925	0.1046317
211	0x3d954766	0.07289009
212	0x3d422349	0.04739693
213	0x3dd25383	0.10269835
214	0x3df0d48d	0.11759291
215	0x3c9a8f6f	0.018867223
216	0xbd1523b3	-0.036411
217	0xbd16a974	-0.036782697
218	0x3d5f8255	0.054567654
219	0xbd591001	-0.05299378
220	0x3cda7a3a	0.02666961
221	0x3d620e26	0.055189274
222	0xbd7014f0	-0.058613718
223	0xbd1d302b	-0.038376015
224	0xbcf746be	-0.0301851
225	0x3d19ba29	0.03753105
226	0xbb9fd4e2	-0.0048776725
227	0x3e01e081	0.12683298
228	0xbda7d9f6	-0.081958696
229	0x3c21ec97	0.009883068
230	0xbdc128ef	-0.094316356
231	0xbd683976	-0.056695424
232	0xbd42bac2	-0.047541387
233	0x3d08b5eb	0.033376615
234	0xbd92f8d5	-0.07176367
235	0xbd39541f	-0.04524624
236	0xbd55c90b	-0.052193683
237	0xbd201221	-0.03907979
238	0xbdf7b5bb	-0.12095209
239	0xbbbdaf6d	-0.0057887346
240	0xbd0afcae	-0.03393238
241	0xbc40b720	-0.01176241
242	0xbd1a8b3c	-0.03773044
243	0xbcc621f8	-0.02418612
244	0x3c686b10	0.014185682
245	0xbd6fd55c	-0.058553085
246	0xbd622779	-0.055213425
247	0x3c509d37	0.012732795
248	0x3d2771e6	0.040880106
249	0x3c30e7dc	0.010797467
250	0xbd07752d	-0.033070732
251	0xb8eaa115	-0.000111879934
252	0xbda6ff8e	-0.08154212
253	0xbd16c5b2	-0.03680963
254	0xbd407f99	-0.046996687
255	0xbca77a8e	-0.02044418

con5.1.bias f4 [16]
0	0x3d7f3fec	0.06231682
1	0x3c0754e4	0.008259986
2	0x3d097ff0	0.033569276
3	0x3bc4530d	0.0059913457
4	0x3caa748e	0.02080753
5	0x3d090c32	0.033458896
6	0xbd700553	-0.058598828
7	0x3d1031eb	0.035203855
8	0xbd40971d	-0.047019113
9	0xbd08d316	-0.033404432
10	0x3c7a8fce	0.015293075
11	0xbbf4f2a7	-0.0074752155
12	0x3c53093f	0.012880622
13	0x3bf3a128	0.007434983
14	0x3d2c7244	0.04210116
15	0xbd6b4e07	-0.05744746

con5.2.weight f4 [16]
0	0x3f7b9c92	0.9828578
1	0x3f744501	0.9541779
2	0x3f811fa3	1.008778
3	0x3f81c945	1.0139548
4	0x3f7ff271	0.9997931
5	0x3f807b5d	1.0037647
6	0x3f76c8e1	0.96400267
7	0x3f6d5c85	0.927193
8	0x3f76fb1c	0.9647691
9	0x3f7b1d54	0.98091626
10	0x3f69a113	0.91261405
11	0x3f848cf4	1.0355515
12	0x3f924a79	1.1428977
13	0x3f83ff68	1.0312319
14	0x3f81d420	1.014286
15	0x3f858a3e	1.0432813

con5.2.bias f4 [16]
0	0xbc909b09	-0.017652052
1	0xbd8e8fac	-0.06960997
2	0xbce9be8e	-0.028533246
3	0xbcc962db	-0.02458327
4	0xbcf728c9	-0.030170815
5	0xbcf64501	-0.0300622
6	0xbcf30726	-0.029666495
7	0xbd7f6e26	-0.062360905
8	0xbbd739be	-0.0065681627
9	0xbd22c701	-0.039740566
10	0xbd35b390	-0.044360697
11	0xbcf4c3d0	-0.029878527
12	0x3d4d43e5	0.050113577
13	0xbc7e07ca	-0.015504787
14	0xbd4fecef	-0.050763067
15	0xbc301ebd	-0.010749516

con5.2.running_mean f4 [16]
0	0xbf76565a	-0.9622551
1	0x3fc79ac2	1.5594103
2	0xbf8e9619	-1.1139556
3	0x3e1dd493	0.15413122
4	0xbe4033cd	-0.1876976
5	0x3e31411e	0.17309996
6	0xbea35356	-0.31899518
7	0xbe1c666a	-0.15273443
8	0x3e8ef1f6	0.27918977
9	0xbf8b00a0	-1.0859566
10	0xbec5fda8	-0.38670087
11	0xbee376a9	-0.44426468
12	0xbd895fa0	-0.06707692
13	0x3e82d21a	0.2555092
14	0x3ee3a5cb	0.44462427
15	0xbec9e07e	-0.39429086

con5.2.running_var f4 [16]
0	0x4035b96d	2.8394425
1	0x40ab241a	5.348157
2	0x40c649e1	6.1965184
3	0x3f8422f8	1.0323172
4	0x3f4d726e	0.8025273
5	0x3fa1ea12	1.2649558
6	0x3fae5c66	1.3621948
7	0x3ffececd	1.990686
8	0x4087f1e6	4.2482786
9	0x409d0049	4.906285
10	0x3fbb8933	1.4651245
11	0x3f413947	0.75478023
12	0x3f37a80c	0.71740794
13	0x3f320a5d	0.69547063
14	0x3f201962	0.6253873
15	0x3f1d8892	0.61536515
