Super_NoDWT/trained_model/Student/60-global_G.ckpt (torch, 159261 bytes, 184 tensors)

con1.con.1.weight f4 [8, 3, 4, 4]
0.05080489 -0.038878128 -0.00806645 -0.1857434 0.34259912 0.36578745 0.12611689 -0.014053631
0.26059154 0.2884469 0.07786552 0.17228928 -0.1363121 -0.010372273 -0.14236312 -0.027104579
0.0017565713 0.04249733 0.074113674 -0.09919221 0.11211326 -0.047426894 0.18774198 -0.036320284
-0.012217856 0.023131726 0.03775092 0.06896499 -0.03015086 -0.03324928 0.07820108 -0.18585661
0.06568503 -0.10426001 -0.022341551 0.06483598 -0.110104434 0.03995774 0.13422951 0.07708431
0.03929876 -0.055084873 -0.026685942 -0.064496845 0.0071500083 -0.15683264 0.041712 -0.040932003
-0.060549732 -0.011897494 -0.08631011 -0.03158767 -0.13293615 -0.1019319 -0.043419667 -0.12903908
0.076007165 0.035734933 -0.071510606 -0.054180685 -0.15652707 0.08135514 -0.052324876 -0.042624645
0.10269959 -0.03775447 0.17605361 0.1870097 0.14106089 0.0754621 0.011724974 0.12133702
0.05171519 0.070937775 -0.03663916 0.13933733 0.19153802 0.19495174 0.059228987 0.04529898
-0.08798975 -0.0002367671 -0.15828782 0.01710958 -0.010258082 -0.013951944 0.0024954965 0.0054784585
-0.11202796 -0.01853459 -0.0026997838 -0.069550976 -0.079165846 0.06815452 -0.083408065 -0.058096014
-0.1651262 -0.1474148 0.080703884 -0.021023963 -0.19510423 -0.16275194 -0.12892751 -0.011307213
0.057220265 -0.2796298 -0.06846199 0.047724325 0.052898232 0.08878549 0.07317597 0.06378552
-0.10061595 0.0554347 -0.09592565 0.11205689 -0.12092222 -0.20336753 0.040332492 -0.023728818
-0.12928152 -0.018808655 -0.07942538 -0.026652504 0.06006113 0.04020474 0.03443295 -0.029291376
-0.053918175 -0.029985558 -0.14207661 0.027608925 -0.07023253 0.014505393 0.07476609 0.012799717
-0.039679807 -0.020505883 -0.028276285 0.091737926 0.12590723 0.017077895 0.056079388 -0.0166625
0.0665871 -0.00541173 -0.00050704903 0.066718005 0.08310343 0.122882105 0.107358076 0.16090581
0.008539364 0.097807854 0.03154208 -0.068376236 0.15872744 0.06886994 0.12206582 0.07425171
-0.058442052 -0.020930635 0.09824426 -0.12271375 -0.124832705 -0.022800118 -0.116969906 -0.07492886
0.10470061 -0.18564309 0.07875868 0.014826749 -0.1066752 -0.14361255 -0.0634917 0.03623595
-0.043672767 -0.028117457 -0.16076514 0.07000068 -0.09643527 0.046896473 0.032119647 -0.064808
0.025095165 -0.12050117 -0.11800582 0.034518868 -0.14248708 -0.121033594 -0.11039632 -0.014380057
0.053952415 0.14493628 -0.047852553 0.10350664 0.04110041 -0.07944621 0.058201987 -0.10418657
-0.058417674 0.037399378 -0.046974663 0.07024395 0.07357485 -0.0013545717 0.06822984 -0.10842586
0.07665283 0.12756906 0.07487588 -0.05995645 0.016611347 0.23667233 0.11612731 -0.13172813
-0.01969869 0.11819328 -0.13161765 0.14072424 -0.18694052 -0.12604652 -0.047672644 0.123329565
-0.07310044 0.031039279 0.15783203 0.014459098 0.0913649 0.19527017 0.18026191 -0.11182292
0.02424621 0.10332813 -0.09131674 -0.0855995 -0.044656664 -0.025639405 0.0148284985 -0.0557434
0.072173685 -0.034745146 -0.024721678 0.12660588 0.04281574 -0.035702843 -0.079005644 -0.036197912
-0.086354904 0.032789897 -0.08471685 -0.035057902 0.02237265 0.114916876 -0.078931645 0.033457
00000000: ca18 503d ac3e 1fbd 2529 04bc 8533 3ebe
00000010: 2769 af3e 7e48 bb3e c924 013e 3341 66bc
00000020: 416c 853e 50af 933e f577 9f3d 9a6c 303e
00000030: 6695 0bbe 77f0 29bc a3c7 11be 6c0a debc
00000040: c13c e63a ae11 2e3d e9c8 973d 4925 cbbd
00000050: a39b e53d b442 42bd 6f3f 403e 94c4 14bd
00000060: 672d 48bc bf7e bd3c b5a0 1a3d 843d 8d3d
00000070: f0fe f6bc 6630 08bd e327 a03d 3251 3ebe
00000080: df85 863d 4686 d5bd a105 b7bc bac8 843d
00000090: 6f7e e1bd baaa 233d 7673 093e 61de 9d3d
000000a0: bdf7 203d ada0 61bd 7a9c dabc ec16 84bd
000000b0: 9e4a ea3b bc98 20be 34da 2a3d 51a8 27bd
000000c0: ff02 78bd b5ed 42bc 5bc3 b0bd 1362 01bd
000000d0: 6a20 08be acc1 d0bd d2d8 31bd d222 04be
000000e0: a5a9 9b3d cb5e 123d 2774 92bd 91ec 5dbd
000000f0: a248 20be 869d a63d 9c52 56bd 2e97 2ebd
00000100: 2a54 d23d 6ea4 1abd 6647 343e 797f 3f3e
00000110: 4472 103e e08b 9a3d 1b1a 403c 8b7f f83d
00000120: 4fd3 533d d347 913d f212 16bd 72ae 0e3e
00000130: 8b22 443e 6ea1 473e 189a 723d 6c8b 393d
00000140: f833 b4bd af44 78b9 3416 22be 6429 8c3c
00000150: 8411 28bc b296 64bc 7c8b 233b a484 b33b
00000160: ea6e e5bd dad5 97bc dbee 30bb be70 8ebd
00000170: b421 a2bd 9994 8b3d d9d1 aabd 16f6 6dbd
00000180: d816 29be e8f3 16be 1448 a53d 723a acbc
00000190: 67c9 47be 72a8 26be 9305 04be e441 39bc
000001a0: cc5f 6a3d a32b 8fbe cd35 8cbd 957a 433d
000001b0: d1ab 583d 2bd5 b53d 48dd 953d fca1 823d
000001c0: bc0f cebd 7f0f 633d ab74 c4bd 157e e53d
000001d0: 12a6 f7bd 943f 50be af33 253d f062 c2bc
000001e0: 6062 04be 9c14 9abc c6a9 a2bd 5a56 dabc
000001f0: a902 763d baad 243d 9109 0d3d 78f4 efbc
00000200: 4ed9 5cbd 46a4 f5bc 887c 11be 1d2c e23c
00000210: 13d6 8fbd 07a8 6d3c f71e 993d e7b5 513c
00000220: 4b87 22bd f4fb a7bc aba3 e7bc 18e1 bb3d
00000230: d3ed 003e f1e6 8b3c 80b3 653d cc7f 88bc
00000240: d15e 883d e254 b1bb 7ceb 04ba 73a3 883d
00000250: 2232 aa3d 9da9 fb3d 8dde db3d 7ec4 243e
00000260: b0e8 0b3c 7c4f c83d 4532 013d d708 8cbd
00000270: 7289 223e af0b 8d3d a5fd f93d 4811 983d
00000280: ef60 6fbd b976 abbc 4934 c93d 5951 fbbd
00000290: 4aa8 ffbd 50c7 babc eb8d efbd 4d74 99bd
000002a0: 466d d63d 3919 3ebe 3b4c a13d e5eb 723c
000002b0: 8778 dabd 2b0f 13be f007 82bd 266c 143d
000002c0: 37e2 32bd 9556 e6bc 9e9f 24be 845c 8f3d
000002d0: db7f c5bd 8416 403d e48f 033d 0fba 84bd
000002e0: 6094 cd3c 51c9 f6bd 09ad f1bd a863 0d3d
000002f0: 22e8 11be 76e0 f7bd 7717 e2bd 559a 6bbc
00000300: 35fd 5c3d 2d6a 143e 0a01 44bd 4afb d33d
00000310: e758 283d b2b4 a2bd 3565 6e3d c55f d5bd
00000320: 5f47 6fbd 1730 193d 8168 40bd 0fdc 8f3d
00000330: 69ae 963d e28b b1ba 16bc 8b3d 610e debd
00000340: 29fc 9c3d 77a1 023e 8658 993d e594 75bd
00000350: 8514 883c 3b5a 723e 28d4 ed3d bde3 06be
00000360: 265f a1bc 520f f23d c7c6 06be 041a 103e
00000370: 566d 3fbe 5712 01be 6444 43bd 3694 fc3d
00000380: afb5 95bd 1646 fe3c b89e 213e dae5 6c3c
00000390: 851d bb3d e7f4 473e 9496 383e 6a03 e5bd
000003a0: fd9f c63c b39d d33d 4504 bbbd ca4e afbd
000003b0: e8e9 36bd bb09 d2bc 3bf3 723c 3153 64bd
000003c0: cccf 933d ed50 0ebd 1e85 cabc f9a4 013e
000003d0: 8f5f 2f3d 253d 12bd b6cd a1bd 4344 14bd
000003e0: d7da b0bd b34e 063d 0780 adbd e098 0fbd
000003f0: d946 b73c 8a59 eb3d eaa6 a1bd 350a 093d

con1.con.1.bias f4 [8]
-0.020883014 0.09527308 -0.10946952 0.02131765 -0.12506327 -0.0021871866 -0.08603977 -0.049172495
00000000: db12 abbc 881e c33d 8e31 e0bd 5aa2 ae3c
00000010: 9610 00be e756 0fbb 9e35 b0bd 1969 49bd

con1.con.2.weight f4 [8]
1.0532035 0.7991247 1.080755 1.0478612 1.0738895 0.8592675 0.9937874 0.864663
00000000: 5fcf 863f 7093 4c3f 2e56 8a3f 5120 863f
00000010: 3675 893f f4f8 5b3f da68 7e3f 8e5a 5d3f

con1.con.2.bias f4 [8]
-0.101718366 0.040224217 0.06715621 -0.0420775 -0.20021237 0.0016478465 -0.13986817 0.3412933
00000000: b851 d0bd 26c2 243d 3289 893d 7559 2cbd
00000010: 7904 4dbe 8efc d73a 9a39 0fbe ffbd ae3e

con1.con.2.running_mean f4 [8]
-0.54081583 0.57557523 0.2134593 -0.45539328 -0.2398808 0.028158221 0.17045255 -0.44487393
00000000: e872 0abf e658 133f 1395 5a3e 4f29 e9be
00000010: 50a3 75be 12ac e63c 1d8b 2e3e 84c6 e3be

con1.con.2.running_var f4 [8]
0.26865742 0.11826779 0.24538316 0.33272737 0.13816299 0.0096998215 0.541976 0.045483198
00000000: 778d 893e 6236 f23d b945 7b3e 3e5b aa3e
00000010: 997a 0d3e 00ec 1e3c f0be 0a3f 974c 3a3d

con2.con.1.weight f4 [8, 8, 4, 4]
-0.03376595 -0.030225048 -0.018031428 -0.0572516 -0.046271496 0.07558043 0.111886635 0.034720298
-0.063762076 0.12760709 0.085370876 0.019181378 -0.06981565 0.025637815 0.050889254 -0.03782001
0.06625811 0.025824003 -0.01548781 -0.022369983 0.04701715 -0.011843884 0.08690467 0.014384334
-0.021465743 0.03723426 0.085459866 0.021662261 -0.032593664 0.0052136322 0.05038566 0.048741594
0.03814623 0.057066675 0.10773005 0.06283495 0.08044499 -0.005179101 0.085068226 0.02827215
0.12950772 0.10466374 0.022227252 0.011184789 0.10318829 0.022225337 0.032957744 0.072250634
-0.0054210643 0.039396457 0.029529031 0.015057251 0.059769586 -0.051651552 0.04867187 -0.013818759
0.056781497 0.029192291 0.06879639 0.080520034 0.013428895 -0.026639337 0.037597522 0.058373924
-0.005532747 0.016537938 -0.07465697 0.013387715 0.001227536 0.07223433 0.079383075 0.019487314
0.033752043 0.14049153 0.15307158 0.09281767 0.09006702 0.19616172 0.1523463 0.011681059
0.012765915 -0.04181989 -0.0327182 0.009603261 -0.0017606536 -0.035878405 -0.013673907 0.016292958
-0.0697334 -0.009745204 0.003920031 -0.0021771789 -0.039653867 -0.015307214 -0.004025522 -0.018116465
0.0005892005 -0.022375531 0.052371174 0.08646709 -0.07693063 -0.022500217 -0.0463527 0.14991021
-0.00080942566 -0.002584698 -0.061954565 0.096260466 0.035296537 0.114506334 0.050499417 0.002939979
0.017120166 0.06836102 0.040290046 0.033666927 -0.06034872 0.050555713 0.030922743 0.015395729
-0.059189606 0.11265738 0.058956176 0.08465164 -0.0012589274 0.00824999 -0.039927505 -0.025613371
0.040971763 -0.08968672 0.03990904 0.043088827 0.0793826 -0.009603142 -0.098504506 0.109241836
0.10020805 -0.047331773 -0.17263317 0.09418076 0.11704467 -0.05929232 0.0066481475 0.06379354
0.022799749 0.02083018 -0.08532191 0.00492427 0.029051824 -0.053066842 0.02077961 0.01509658
-0.032396358 -0.04265663 -0.020875579 0.00779826 -0.012239994 -0.02312365 -0.018694147 -0.05912179
0.0051905606 0.04117848 0.068657376 0.01609606 -0.00643091 0.022549095 0.16298543 0.059371755
0.0022263138 0.10552994 0.3904706 0.11318442 -0.02102112 0.059771698 0.19514498 0.17345892
-0.011121293 -0.062099963 -0.030071279 0.053670086 -0.07180509 -0.04910648 -0.016658688 0.037005786
-0.032474834 -0.0786898 0.0034549043 -0.030584008 -0.035893567 0.014981392 -0.06646057 -0.09047706
0.030904496 -0.00136149 0.044305332 0.019154519 0.09324572 0.024422722 0.0825844 0.023513911
-0.082124814 -0.14903718 -0.123384714 -0.025480386 -0.14861627 -0.112817295 -0.03597613 -0.13427466
-0.0454086 -0.019651916 -0.014612522 -0.007016204 0.032050595 0.017595513 -0.022210842 -0.0050483984
0.031283576 0.05420629 0.0330201 -0.024538407 0.05144479 0.080267854 -0.0014024779 -0.0034277472
0.14485689 0.18329366 0.10589196 0.084267974 0.07413742 0.073356725 0.1625323 0.06190489
-0.0009049745 0.03599152 0.10115512 0.032876365 0.031851612 -0.011211682 -0.030946905 -0.016621074
-0.07189749 -0.016949011 -0.0012597387 -0.13054267 0.10509564 -0.0533111 0.007602782 -0.048365604
0.03735289 -0.028231021 -0.019242441 0.033408716 -0.04550438 -0.031409293 0.009894595 -0.034685336
00000000: 2a4e 0abd 859a f7bc a5b6 93bc a780 6abd
00000010: 2e87 3dbd eac9 9a3d d224 e53d df36 0e3d
00000020: b195 82bd 6fab 023e edd6 ae3d 4422 9d3c
00000030: 82fb 8ebd 6506 d23c 4071 503d 28e9 1abd
00000040: 55b2 873d dc8c d33c 95c0 7dbc 4141 b7bc
00000050: 0e95 403d da0c 42bc 13fb b13d 45ac 6b3c
00000060: edd8 afbc f482 183d 9505 af3d 0e75 b13c
00000070: ef80 05bd 1ed7 aa3b 3261 4e3d 44a5 473d
00000080: 393f 1c3d bfbe 693d 93a1 dc3d 9caf 803d
00000090: 58c0 a43d 73b5 a9bb 4038 ae3d ff9a e73c
000000a0: ac9d 043e f159 d63d ed15 b63c 6840 373c
000000b0: 6254 d33d e911 b63c b3fe 063d 24f8 933d
000000c0: 2fa3 b1bb 2e5e 213d dee6 f13c b0b2 763c
000000d0: f4d0 743d 9490 53bd 285c 473d 1368 62bc
000000e0: b793 683d ac24 ef3c 1fe5 8c3d b0e7 a43d
000000f0: de04 5c3c bd3a dabc dcff 193d 7f19 6f3d
00000100: 0c4c b5bb 927a 873c c1e5 98bd 2658 5b3c
00000110: 46e5 a03a 98ef 933d 9893 a23d dca3 9f3c
00000120: 953f 0a3d 03dd 0f3e ccbe 1c3e 3117 be3d
00000130: 0f75 b83d 9ede 483e ab00 1c3e ea61 3f3c
00000140: 2128 513c 554b 2bbd 8503 06bd ff56 1d3c
00000150: bbc5 e6ba 3cf5 12bd 8608 60bc cf78 853c
00000160: 63d0 8ebd 59aa 1fbc 9a73 803b 00af 0ebb
00000170: 186c 22bd 1ccb 7abc 87e8 83bb fb68 94bc
00000180: 9474 1a3a e44c b7bc 2883 563d a815 b13d
00000190: ce8d 9dbd 6052 b8bc 54dc 3dbd 1082 193e
000001a0: a32f 54ba 0964 29bb 12c4 7dbd 3524 c53d
000001b0: 1a93 103d 4c82 ea3d 7ad8 4e3d aaac 403b
000001c0: 973f 8c3c dd00 8c3d 2d07 253d 55e6 093d
000001d0: 3830 77bd 8213 4f3d b151 fd3c 5e3e 7c3c
000001e0: cd70 72bd eab8 e63d 087c 713d d75d ad3d
000001f0: 9802 a5ba f72a 073c 068b 23bd 22d3 d1bc
00000200: 02d2 273d acad b7bd a977 233d e97d 303d
00000210: 5893 a23d 7f56 1dbc bbbc c9bd 2fba df3d
00000220: e139 cd3d f6de 41bd c0c6 30be d8e1 c03d
00000230: 1eb5 ef3d 81dc 72bd b4d8 d93b 30a6 823d
00000240: 8ac6 ba3c 0ea4 aa3c 41bd aebd c55b a13b
00000250: 17fe ed3c 9e5c 59bd 003a aa3c a557 773c
00000260: 0bb2 04bd b8b8 2ebd 4303 abbc 8c88 ff3b
00000270: 418a 48bc cf6d bdbc 7824 99bc b129 72bd
00000280: 9415 aa3b c4aa 283d 3d9c 8c3d e2db 833c
00000290: 62ba d2bb e1b8 b83c a7e5 263e cc2f 733d
000002a0: 59e7 113b 1520 d83d c3eb c73e 3ccd e73d
000002b0: 7c34 acbc 2bd3 743d 16d4 473e 379f 313e
000002c0: 1536 36bc 885c 7ebd 0b58 f6bc 2ad5 5b3d
000002d0: 8c0e 93bd e023 49bd cd77 88bc 6193 173d
000002e0: 5504 05bd 1e28 a1bd ad6b 623b 508b fabc
000002f0: 2205 13bd 8374 753c 7b1c 88bd 094c b9bd
00000300: 6d2b fd3c 0674 b2ba 8279 353d f0e9 9c3c
00000310: 9df7 be3d 2912 c83c 0322 a93d 3fa0 c03c
00000320: 0e31 a8bd 349d 18be 20b1 fcbd 3ebc d0bc
00000330: dd2e 18be c10c e7bd b55b 13bd 4c7f 09be
00000340: 5efe 39bd 0efd a0bc 5c69 6fbc 2fe8 e5bb
00000350: 7c47 033d 7724 903c 83f3 b5bc 096d a5bb
00000360: 3523 003d 6a07 5e3d 1640 073d c504 c9bc
00000370: c6b7 523d 7963 a43d 59d3 b7ba 0ea4 60bb
00000380: 5d55 143e 55b1 3b3e e2dd d83d b094 ac3d
00000390: 5cd5 973d 0d3c 963d de6e 263e fb8f 7d3d
000003a0: d03b 6dba d86b 133d 6a2a cf3d 5ea9 063d
000003b0: d676 023d 34b1 37bc 5d84 fdbc eb28 88bc
000003c0: fe3e 93bd a7d8 8abc d11d a5ba faac 05be
000003d0: 623c d73d bd5c 5abd c220 f93b 031b 46bd
000003e0: 58ff 183d be44 e7bc 53a2 9dbc 94d7 083d
000003f0: cd62 3abd 08a7 00bd f01c 223c 3612 0ebd

con2.con.1.bias f4 [8]
-0.07405151 0.08894765 0.07459731 0.06976664 -0.00021917053 -0.01521518 0.042212084 -0.030406898
00000000: 51a8 97bd 2f2a b63d 79c6 983d d0e1 8e3d
00000010: 24d1 65b9 1749 79bc 94e6 2c3d e317 f9bc

con2.con.2.weight f4 [8]
0.9092181 0.8796429 0.6633366 0.8764686 0.9241352 0.77669805 0.97290766 1.1493868
00000000: 84c2 683f 4730 613f 6dd0 293f 3f60 603f
00000010: 2094 6c3f afd5 463f 7a10 793f 1b1f 933f

con2.con.2.bias f4 [8]
-0.4544785 0.97122455 1.5051233 0.2124216 -0.3664527 0.51452136 -0.22414891 -0.30779675
00000000: 68b1 e8be 2ca2 783f e1a7 c03f 0c85 593e
00000010: b09f bbbe acb7 033f 4b87 65be 8997 9dbe

con2.con.2.running_mean f4 [8]
1.0432936 0.5210519 -0.13509007 0.22831391 0.39149582 0.23133302 0.7238891 -0.5211859
00000000: a58a 853f a863 053f 0d55 0abe 1fcb 693e
00000010: 2472 c83e 90e2 6c3e cc50 393f 706c 05bf

con2.con.2.running_var f4 [8]
0.4214083 2.1761146 0.88975465 0.13994029 0.4788191 0.79718405 0.2217772 2.3420458
00000000: d4c2 d73e 7645 0b40 f6c6 633f 824c 0f3e
00000010: c727 f53e 4114 4c3f 9019 633e 14e4 1540

con3.con.1.weight f4 [8, 8, 4, 4]
-0.007511766 0.0064726206 -0.0004086625 -0.011041544 0.057992097 0.053770363 0.03536277 0.0310607
0.035926256 0.072207704 0.06436149 0.0460398 0.03360871 0.06180076 0.043837287 0.02043767
-0.027812932 -0.031523135 -0.039154418 -0.010869286 -0.049250238 -0.09047027 -0.0678794 -0.101677865
-0.045080353 -0.11990147 -0.17874144 -0.09362822 0.0039490573 -0.11368642 -0.15118256 -0.04086477
-0.020125287 0.019760204 -0.026489865 -0.015502442 -0.016872047 -0.032393303 0.005686238 -0.0340569
-0.010878326 -0.021590628 -0.07483645 -0.040708266 -0.029444028 -0.026967231 -0.04814297 -0.042697057
-0.0035486473 -0.049669124 -0.04732638 0.018765599 0.018216277 -0.05840333 -0.07767052 -0.019341761
0.019873342 -0.011681716 -0.01146782 -0.026018135 0.011480477 0.040896643 0.018906802 0.016166527
0.01371399 0.029767476 0.03886723 0.005754342 0.05515348 0.09960988 0.09516874 0.03275688
0.04776387 0.11012751 0.10106196 0.052205417 0.014173207 0.050047908 0.054677747 0.053109232
-0.0075922273 -0.020205203 -0.05778515 -0.041532293 -0.012256353 -0.0056978916 0.009092842 0.031416543
-0.0024364083 -0.018689584 -0.030758291 0.01987525 0.004899345 -0.02530562 -0.01198516 -0.02232483
-0.0032523514 0.025063286 0.08163502 0.03261335 0.016409954 -0.0004608876 0.10102747 0.035268642
-0.0591244 -0.01732024 -0.0011121763 0.04151668 -0.01028019 -0.051484026 -0.0036364542 -0.0052914247
0.021652915 -0.061937787 -0.049307916 0.1356487 -0.04853778 -0.19610074 -0.19174932 0.035713907
-0.050959542 -0.2248683 -0.2365857 -0.115558654 -0.030989878 -0.05827165 -0.113561 -0.038396858
0.03018034 0.011067195 0.039611176 -8.113848e-06 0.038393825 0.0020356323 -0.03884424 -0.01917038
0.031008845 -0.0801831 -0.082381435 -0.027951637 0.03757529 -0.006932346 -0.05430676 -0.015473024
0.0856083 0.07841288 0.083474495 -0.052272934 0.14565545 0.17019026 0.079174966 0.06079522
0.05036718 0.08799635 0.15189643 0.08271069 -0.067623705 -0.042957105 -0.08131489 -0.032005925
-0.033317756 -0.15442091 -0.09656376 -0.083675355 -0.055485234 -0.15515673 -0.094840154 0.024235869
-0.036566857 -0.15449752 -0.059868645 -0.035444807 -0.040108185 -0.0044126096 -0.011869337 0.066393524
0.054673538 0.023909997 0.028286662 0.044284802 0.025264602 0.007301662 -0.017262692 0.030904675
0.04993976 0.04598197 0.023922661 0.009637917 0.030092206 0.028615296 0.044027153 0.023907628
0.04111284 0.0805847 0.083906576 0.057719402 0.08372982 0.12939402 0.07963012 0.05241963
0.072584875 0.10062411 0.016104674 0.00092760316 0.044846125 0.06404624 0.058875408 0.028243512
0.06012343 0.061766773 0.083655305 0.07065509 0.014825809 -0.042465024 0.017502908 0.04818319
-0.018736407 -0.055612966 -0.05284827 0.025328813 0.02774981 0.06612714 0.061543494 0.06822898
-0.04483974 -0.031684343 -0.01809787 -0.062042948 -0.019765353 -0.04923982 -0.08412151 -0.06554505
-0.06539909 -0.011226677 -0.026151765 -0.027734509 -0.027178613 -0.03610978 -0.03775247 -0.022503974
0.15267082 0.014890245 0.04014175 -0.012425156 0.046176616 -0.10218644 0.016775833 -0.026136532
0.03905488 -0.10269904 -0.06867898 0.03871382 0.09010127 0.079449326 0.010366144 0.17563586
00000000: 4325 f6bb 4718 d43b c141 d6b9 98e7 34bc
00000010: 1f89 6d3d 503e 5c3d 8dd8 103d 0273 fe3c
00000020: 6927 133d a2e1 933d f5cf 833d 3b94 3c3d
00000030: 49a9 093d cb22 7d3d ba8e 333d e76c a73c
00000040: f2d7 e3bc 671e 01bd 6260 20bd 1715 32bc
00000050: 9eba 49bd 7a48 b9bd 5b04 8bbd 7c3c d0bd
00000060: 2da6 38bd e78e f5bd ff07 37be 27c0 bfbd
00000070: 1867 813b 6dd4 e8bd 9acf 1abe d161 27bd
00000080: c9dd a4bc 27e0 a13c 4601 d9bc f4fd 7dbc
00000090: 3f37 8abc d7ae 04bd 9f53 ba3b 3f7f 0bbd
000000a0: 023b 32bc d4de b0bc da43 99bd b6bd 26bd
000000b0: 9a34 f1bc 62ea dcbc 9031 45bd 1ce3 2ebd
000000c0: 6c90 68bb da71 4bbd 4ed9 41bd 50ba 993c
000000d0: 4d3a 953c 5538 6fbd b911 9fbd 9d72 9ebc
000000e0: 6bcd a23c ab64 3fbc 86e3 3bbc fc23 d5bc
000000f0: 9c18 3c3c 3d83 273d 70e2 9a3c aa6f 843c
00000100: a5b0 603c ecda f33c 3f33 1f3d eb8e bc3b
00000110: 9ee8 613d 4400 cc3d d4e7 c23d 142c 063d
00000120: 0ca4 433d 888a e13d 93f9 ce3d 59d5 553d
00000130: bd36 683c 09ff 4c3d c6f5 5f3d 1189 593d
00000140: 38c8 f8bb 6285 a5bc 1fb0 6cbd c41d 2abd
00000150: dfce 48bc 61b5 babb 25fa 143c a2ae 003d
00000160: 26ac 1fbb e61a 99bc d0f8 fbbc 6cd1 a23c
00000170: af8a a03b bb4d cfbc 685d 44bc 90e2 b6bc
00000180: 6725 55bb 8551 cd3c 4330 a73d 9395 053d
00000190: 2b6e 863c 49a3 f1b9 7de7 ce3d da75 103d
000001a0: 6d2c 72bd 2de3 8dbc 72c6 91ba 650d 2a3d
000001b0: 3e6e 28bc eae0 52bd 9451 6ebb b063 adbb
000001c0: 7461 b13c 7ab2 7dbd 19f7 49bd 7ee7 0a3e
000001d0: 8dcf 46bd a2ce 48be ef59 44be bf48 123d
000001e0: f4ba 50bd e043 66be 8643 72be 04aa ecbd
000001f0: 7cde fdbc 41ae 6ebd ab92 e8bd 0646 1dbd
00000200: c33c f73c 2e53 353c 543f 223d b620 08b7
00000210: d842 1d3d 3e68 053b 231b 1fbd 330b 9dbc
00000220: 4306 fe3c 0a37 a4bd 99b7 a8bd d5fa e4bc
00000230: 8ce8 193d bc28 e3bb c470 5ebd 9182 7dbc
00000240: 6853 af3d ef96 a03d adf4 aa3d 251c 56bd
00000250: b426 153e 5b46 2e3e 7c26 a23d 6904 793d
00000260: d14d 4e3d 6e37 b43d bd8a 1b3e 3964 a93d
00000270: 4c7e 8abd caf3 2fbd 6c88 a6bd a518 03bd
00000280: 3378 08bd 8420 1ebe 38c3 c5bd fc5d abbd
00000290: 7c44 63bd 68e1 1ebe 8e3b c2bd 4d8a c63c
000002a0: 21c7 15bd 9934 1ebe d338 75bd 932e 11bd
000002b0: 7b48 24bd a797 90bb 9c77 42bc 54f9 873d
000002c0: 5cf1 5f3d e6de c33c 6eb9 e73c fb63 353d
000002d0: b6f7 ce3c c842 ef3b 7d6a 8dbc cd2b fd3c
000002e0: a28d 4c3d 9757 3c3d 75f9 c33c 5be8 1d3c
000002f0: ee83 f63c a06a ea3c d155 343d eed9 c33c
00000300: f065 283d 9709 a53d 36d7 ab3d 2e6b 6c3d
00000310: 8a7a ab3d de7f 043e 1e15 a33d f7b5 563d
00000320: 61a7 943d 0314 ce3d f3ed 833c 652a 733a
00000330: 92b0 373d ad2a 833d 5727 713d f05e e73c
00000340: fc43 763d 28ff 7c3d 7953 ab3d 9eb3 903d
00000350: f3e7 723c ceef 2dbd 4262 8f3c bd5b 453d
00000360: 187d 99bc 6cca 63bd 6d77 58bd 5f7e cf3c
00000370: 9253 e33c aa6d 873d 0815 7c3d a3bb 8b3d
00000380: e0a9 37bd 71c7 01bd fc41 94bc bf20 7ebd
00000390: f3ea a1bc b2af 49bd e647 acbd 7c3c 86bd
000003a0: f5ef 85bd 19f0 37bc 3a3c d6bc 7b33 e3bc
000003b0: afa5 debc d9e7 13bd 55a2 1abd 415a b8bc
000003c0: bd55 1c3e 37f6 733c ad6b 243d e292 4bbc
000003d0: b123 3d3d 2047 d1bd 796d 893c 481c d6bc
000003e0: 03f8 1f3d e053 d2bd 91a7 8cbd 6292 1e3d
000003f0: 0487 b83d 54b6 a23d c2d6 293c e3d9 333e

con3.con.1.bias f4 [8]
0.069494955 0.075693175 -0.06674662 -0.066384636 0.043157347 0.06876393 -0.008188131 -0.0065153847
00000000: 5f53 8e3d 0605 9b3d 74b2 88bd abf4 87bd
00000010: c2c5 303d 1ad4 8c3d 8327 06bc 027f d5bb

con3.con.2.weight f4 [8]
1.4359081 1.3738644 1.4531893 1.3482863 1.4698015 1.348625 1.5348873 1.4132534
00000000: d6cb b73f cada af3f 1b02 ba3f a594 ac3f
00000010: 7522 bc3f be9f ac3f 3077 c43f 7de5 b43f

con3.con.2.bias f4 [8]
-0.10550942 -0.008708087 -0.40110037 0.041278582 -0.09897828 0.050596207 -0.68392336 0.41429606
00000000: 5315 d8bd 5dac 0ebc 075d cdbe bb13 293d
00000010: 20b5 cabd f83d 4f3d 9a15 2fbf 9d1e d43e

con3.con.2.running_mean f4 [8]
-1.9368756 -0.058797017 0.122568354 1.0287246 0.865552 1.3805386 -1.2649572 3.025341
00000000: 8aeb f7bf 24d5 70bd 1e05 fb3d 3fad 833f
00000010: d194 5d3f 7db5 b03f 1eea a1bf 309f 4140

con3.con.2.running_var f4 [8]
1.1465356 0.80348086 0.68222773 0.18164615 1.9766704 0.5495193 4.8238688 2.0204468
00000000: aec1 923f ecb0 4d3f 7aa6 2e3f 7301 3a3e
00000010: 8903 fd3f 4cad 0c3f 225d 9a40 004f 0140

con4.con.1.weight f4 [8, 8, 4, 4]
-0.05469681 -0.051534947 -0.032231044 -0.05904085 0.03559779 -0.16222297 -0.1185369 -0.046219196
-0.026842685 -0.12551281 -0.08759432 0.019082353 -0.013520412 -0.086409554 -0.08423022 0.011857674
-0.013041506 -0.031125465 0.008973203 0.04285273 -0.026077945 -0.014731333 -0.068868026 -0.04936035
0.005682446 -0.090889625 -0.021234766 0.041878633 0.0067784353 -0.0183221 -0.009350104 0.034944452
-0.124877475 -0.19580741 -0.09039105 0.045783814 -0.19012232 -0.5504822 -0.44145474 -0.08968061
-0.033770368 -0.38247657 -0.39345747 -0.062411606 -0.002374662 -0.10634407 -0.12967317 -0.0123853665
0.015697317 -0.0014131762 -0.015643215 -0.007914508 -0.041681617 -0.0046493965 0.02558573 0.04047087
0.008753901 0.014842517 0.007939429 -0.0073678507 0.04422602 -0.013937619 -0.033760447 -0.08571315
-0.009431419 -0.036280517 0.013702557 -0.055032033 0.043011017 -0.003147313 -0.04761353 -0.05610264
0.02277525 0.0035870166 -0.024093198 -0.09620321 -0.006034885 -0.1082094 -0.061452124 0.030764878
-0.054062314 0.012075267 0.078228146 0.015433826 0.016292049 0.06017343 0.04439509 -0.02188026
0.033758678 0.033386983 0.024027387 -0.0065665334 0.0066451165 0.062520914 0.039235055 0.03051696
0.043638464 0.05803074 0.004214035 0.028433178 0.035297878 0.055979073 0.042815715 0.027418625
0.03785171 0.044262767 0.026844738 -0.028169991 -0.02448801 0.00660159 -0.00030703945 0.085615166
0.041590117 -0.030900128 -0.0018169866 -0.0071006804 -0.073422015 -0.0038428647 -0.012047161 -0.03250315
-0.081273474 -0.09037209 0.0089601725 -0.026245065 -0.031522166 -0.004843447 -0.07934589 -0.061286096
0.014569977 -0.051794417 -0.040134385 -0.073963724 -0.06021202 -0.05939693 -8.306983e-05 -0.03638656
0.00052830955 0.04723388 0.035121884 0.007266758 -0.020740429 0.07398055 0.060160246 -0.0067896363
0.012359573 0.0050702966 -0.025955891 -0.010318143 0.034910467 0.03288392 0.012681259 0.012553099
0.012270439 0.068603426 0.08276321 0.03585135 -0.034660235 0.025111271 0.05381516 -0.009767916
-0.015425809 -0.02138226 -0.015102719 -0.07462035 -0.019168347 0.045419272 0.0330312 -0.059470832
0.11210021 0.15312555 0.14758286 0.068227954 0.13840711 0.10358347 0.11354111 0.015330248
0.045207717 0.026994335 -0.0017951595 0.011556649 -0.042647127 0.034370925 0.09098053 0.035554733
-0.00235667 0.06225286 0.05687947 0.011608695 0.027622564 0.03879384 0.019293835 -0.029646453
-0.02915602 -0.020721855 0.021401837 -0.02817908 0.045428794 0.019451374 0.07005776 0.029439604
0.06333283 0.029170891 0.14846174 -0.015084633 0.047061566 0.08615946 0.045439225 0.044437177
-0.052460212 -0.012003487 0.0061766664 -0.06252371 0.016091224 0.02050725 -0.05918271 -0.038599674
0.00018362529 -0.0029120995 0.022845352 0.0178197 0.016131332 -0.031986542 0.057979986 0.049448803
0.0813228 -0.056621563 -0.03514299 0.063885845 0.10648613 0.20015468 0.1613752 0.008174986
0.11789071 0.26910117 0.25874692 0.0765823 -0.043018024 0.06348214 0.033665095 0.013832069
0.018978788 0.024113355 0.009271688 0.0720001 0.050767653 0.044378154 -0.03174457 0.023938334
-0.05874353 -0.17543945 -0.06980329 -0.059804175 -0.11639804 -0.06983841 -0.1761578 -0.0216371
00000000: c309 60bd 4f16 53bd b304 04bd d1d4 71bd
00000010: fdce 113d c71d 26be 79c3 f2bd 5750 3dbd
00000020: 31e5 dbbc 6e86 00be a764 b3bd 9852 9c3c
00000030: b884 5dbc 7ef7 b0bd e580 acbd b146 423c
00000040: 0aac 55bc d5fa febc 5704 133c 5886 2f3d
00000050: 6aa1 d5bc b05b 71bc ae0a 8dbd 142e 4abd
00000060: d033 ba3b 5724 babd 88f4 adbc ee88 2b3d
00000070: a31d de3b 3b18 96bc 2e31 19bc ea21 0f3d
00000080: c3bf ffbd bd81 48be f11e b9bd cf87 3b3d
00000090: 6daf 42be 67ec 0cbf 5b06 e2be 78aa b7bd
000000a0: cc52 0abd f8d3 c3be 4273 c9be 50a3 7fbd
000000b0: 38a0 1bbb ebca d9bd 0bc9 04be feeb 4abc
000000c0: a997 803c 533a b9ba 3326 80bc daab 01bc
000000d0: 58ba 2abd f759 98bb 2a99 d13c c8c4 253d
000000e0: 866c 0f3c 072e 733c 6114 023c 036e f1bb
000000f0: 5826 353d 9c5a 64bc 6548 0abd 608a afbd
00000100: 3d86 1abc e19a 14bd b180 603c 4569 61bd
00000110: 522c 303d 2643 4ebb 6806 43bd e2cb 65bd
00000120: 2993 ba3c 2714 6b3b 195f c5bc 3006 c5bd
00000130: 49c0 c5bb e49c ddbd 39b5 7bbd a006 fc3c
00000140: 7270 5dbd 57d7 453c 1436 a03d 28de 7c3c
00000150: e776 853c 6a78 763d a0d7 353d 3b3e b3bc
00000160: 8a46 0a3d cac0 083d 15d5 c43c 132c d7bb
00000170: 47bf d93b f70a 803d f0b4 203d b4fe f93c
00000180: 3fbe 323d a4b1 6d3d e315 8a3b b2ec e83c
00000190: 8294 103d 504a 653d 885f 2f3d 069d e03c
000001a0: 650a 1b3d e04c 353d 7fe9 db3c c1c4 e6bc
000001b0: 149b c8bc 2752 d83b 23fa a0b9 0157 af3d
000001c0: 665a 2a3d 4422 fdbc f427 eeba d3ac e8bb
000001d0: 485e 96bd 92d8 7bbb 7561 45bc 0622 05bd
000001e0: b572 a6bd 0115 b9bd b0cd 123c e4ff d6bc
000001f0: 631d 01bd c7b5 9ebb 1980 a2bd 2107 7bbd
00000200: eab6 6e3c 6226 54bd f463 24bd 4b7a 97bd
00000210: e1a0 76bd 324a 73bd c735 aeb8 130a 15bd
00000220: 417e 0a3a 5078 413d f7db 0f3d fc1d ee3b
00000230: d5e7 a9bc 1d83 973d 976a 763d 997b debb
00000240: ce7f 4a3c bb24 a63b 73a1 d4bc 6e0d 29bc
00000250: 47fe 0e3d 4ab1 063d 0ec5 4f3c 83ab 4d3c
00000260: f409 493c f47f 8c3d c27f a93d ddd8 123d
00000270: e4f7 0dbd 27b6 cd3c 496d 5c3d 9c09 20bc
00000280: 88bc 7cbc d929 afbc 6571 77bc 8ed2 98bd
00000290: f006 9dbc 8f09 3a3d b94b 073d b097 73bd
000002a0: cb94 e53d f2cc 1c3e f61f 173e 19bb 8b3d
000002b0: 98ba 0d3e 9223 d43d 3e88 e83d b82b 7b3c
000002c0: ba2b 393d 3923 dd3c 8f4b ebba 1958 3d3c
000002d0: c1ae 2ebd 87c8 0c3d 0054 ba3d d7a1 113d
000002e0: 5d72 1abb dbfc 7e3d 72fa 683d 6532 3e3c
000002f0: b748 e23c 4ae6 1e3d 1b0e 9e3c 1edd f2bc
00000300: 9bd8 eebc e1c0 a9bc e852 af3c d0d7 e6bc
00000310: 8b13 3a3d 7d58 9f3c 717a 8f3d 532b f13c
00000320: a5b4 813d cbf7 ee3c 5b06 183e 8925 77bc
00000330: a1c3 403d 5f74 b03d 7b1e 3a3d c203 363d
00000340: 85e0 56bd 46aa 44bc a265 ca3b 6e0c 80bd
00000350: bed1 833c d2fe a73c 9269 72bd b11a 1ebd
00000360: 8a8b 4039 ecd8 3ebb 2d26 bb3c 9ffa 913c
00000370: db25 843c 5204 03bd 6c7c 6d3d d48a 4a3d
00000380: 918c a63d 03ec 67bd 19f2 0fbd 95d6 823d
00000390: 6615 da3d 59f5 4c3e 8a3f 253e 60f0 053c
000003a0: af70 f13d a1c7 893e 7a7a 843e 2ed7 9c3d
000003b0: ab33 30bd ed02 823d 69e4 093d e79f 623c
000003c0: 6779 9b3c 5f89 c53c 47e8 173c ca74 933d
000003d0: bef1 4f3d dec5 353d 9806 02bd 531a c43c
000003e0: 0e9d 70bd 66a6 33be 07f5 8ebd 39f5 74bd
000003f0: 1862 eebd 7107 8fbd b662 34be 4a40 b1bc

con4.con.1.bias f4 [8]
-0.014397154 0.0062018693 -0.097874604 0.028164918 0.07351663 0.009476449 -0.008960324 0.082110174
00000000: 0ae2 6bbc 0d39 cb3b 7b72 c8bd 1dba e63c
00000010: e38f 963d 1c43 1b3c 53ce 12bc 6129 a83d

con4.con.2.weight f4 [8]
1.1579121 0.9582969 1.0385276 1.1378084 1.100629 1.0268809 0.971993 0.99410397
00000000: 7736 943f f252 753f 79ee 843f b5a3 913f
00000010: 69e1 8c3f d570 833f 89d4 783f 997d 7e3f

con4.con.2.bias f4 [8]
0.11625868 0.6152392 0.533456 -0.12417279 -0.140897 0.391372 0.16828032 -0.08286156
00000000: 0819 ee3d 5180 1d3f 9390 083f 4e4e febd
00000010: 4e47 10be e961 c83e ad51 2c3e 52b3 a9bd

con4.con.2.running_mean f4 [8]
-1.4429688 0.5002177 -0.21964036 -0.1823313 0.6906114 -2.1095436 0.33763295 -0.317069
00000000: 34b3 b8bf 440e 003f 67e9 60be 0eb5 3abe
00000010: e9cb 303f c302 07c0 3ade ac3e de56 a2be

con4.con.2.running_var f4 [8]
5.146698 3.8875506 3.3452392 2.7115812 3.3421938 2.0579355 3.463031 2.1145575
00000000: c0b1 a440 a1cd 7840 6618 5640 8c8a 2d40
00000010: 81e6 5540 37b5 0340 4da2 5d40 e954 0740

con5.con.1.weight f4 [8, 8, 4, 4]
0.07275974 0.06546517 0.086529866 0.20812492 0.07428963 0.13586158 0.040082805 0.1475766
0.05669117 0.05218436 0.032063868 0.10473639 0.00860786 -0.020796908 0.061664797 0.06029506
0.015392253 0.0055654985 0.044383783 0.07634801 0.13442259 0.031983905 0.06367897 0.02103046
0.043204993 0.082657605 0.052034706 0.0064725853 0.043740615 0.109538265 0.09834449 0.118063316
-0.10131029 -0.06619373 -0.044826943 -0.06689412 0.004343354 -0.06723085 0.07324712 0.061187312
-0.0233765 -0.057428706 0.07832227 0.07948101 0.043605763 0.027581826 0.03529239 0.022231588
0.061457116 0.12579787 0.0026526547 0.016765041 -0.03460197 0.054214764 0.025353536 0.013808331
-0.025235584 -0.02613856 0.04497815 0.0073674363 0.007287613 -0.09561568 -0.02276383 -0.03870577
0.0808887 -0.091659814 -0.07468174 0.0016969183 -0.055643935 0.01874301 -0.034394972 0.02884091
-0.08191637 0.01698484 0.045392264 -0.08753007 -0.022733226 -0.04513555 0.017912574 -0.05526606
-0.13937218 -0.22481434 -0.16909136 -0.21488735 -0.033521052 -0.059875153 -0.07403624 -0.03200219
-0.11353599 -0.029787356 -0.07709875 -0.08775428 0.0013505449 -0.043626383 -0.08495265 -0.13299723
0.036706865 0.016167242 -0.044429034 -0.065809436 0.0052914456 0.0435386 0.05860309 -0.029177928
-0.12189091 -0.017938415 -0.02300612 -0.16555841 -0.04070905 0.012232943 -0.12154562 -0.07799165
0.09058301 0.016719477 -0.064937 0.05186514 -0.0021446603 0.0795059 -0.02515552 -0.053401172
-0.0069734617 0.011723475 -0.042648032 0.00081318227 0.05771036 -0.0146367205 -0.096693195 -0.066456124
0.09135239 0.08656856 -0.017513491 0.002705456 0.04047491 -0.014403757 0.01223242 0.0026437354
0.047411025 -0.016711323 -0.037568655 0.02863715 0.08079344 0.031374563 0.049009517 0.04140945
0.02588124 -0.049495578 -0.12214506 0.027589004 -0.055126 0.053972878 -0.031846754 0.040075507
0.025934553 -0.013971648 -0.021701872 -0.06222951 -0.09484801 -0.17885989 -0.14753716 -0.17208497
0.06105687 -0.021501143 0.038473338 0.021177072 -0.009122017 0.010006125 0.00201889 -0.032939445
0.06885371 0.034638148 0.036847077 0.04021399 -0.021223534 0.0076226336 0.04733992 0.0768981
-0.070478365 -0.107357435 -0.032772183 -0.14617607 -0.011864237 -0.096454196 -0.08359173 -0.05474675
-0.069516614 -0.12807049 -0.06686351 -0.17327063 0.0053284457 -0.036634784 -0.18048131 -0.283201
0.014581858 -0.08389153 -0.10011423 -0.006730051 0.017975941 -0.017756542 -0.04203663 0.077577025
-0.012716806 -0.046101682 0.02087357 -0.027766999 -0.06517177 -0.09396987 -0.14161435 -0.24659482
0.10789318 0.020297522 -0.03811452 0.044910934 0.05719388 -0.0052833874 0.009711743 -0.024401061
0.026449766 0.013116399 0.030893398 0.046779413 0.053738713 0.116230786 0.122019194 0.10630139
0.0056381985 0.028856033 0.11139396 -0.00080068485 0.041038908 -0.034418758 0.0734177 0.121422775
0.0604957 -0.0048578666 0.011406229 0.00821344 -0.030206662 0.031155592 -0.032275487 -0.14673132
0.08396623 0.05939845 0.052284423 0.12555283 0.0009287644 0.07102294 0.051515114 0.026906347
0.07260964 -0.036175728 -0.015136076 0.031086003 0.16082866 0.14661844 0.06260811 0.1840678
00000000: 0f03 953d 9a12 863d 9236 b13d b31e 553e
00000010: 2925 983d 4c1f 0b3e de2d 243d 521e 173e
00000020: 0035 683d 44bf 553d 6755 033d 0880 d63d
00000030: fb07 0d3c 475e aabc 3a94 7c3d f4f7 763d
00000040: ca2f 7c3c c95e b63b c5cb 353d 585c 9c3d
00000050: 13a6 093e 8e01 033d 1f6a 823d 1248 ac3c
00000060: b8f7 303d 6448 a93d 5822 553d fb17 d43b
00000070: 5c29 333d 9955 e03d d668 c93d 2ecb f13d
00000080: c57b cfbd 9490 87bd 759c 37bd c9ff 88bd
00000090: b252 8e3b 54b0 89bd 9602 963d 8c9f 7a3d
000000a0: 1380 bfbc 5d3a 6bbd 6d67 a03d f1c6 a23d
000000b0: f59b 323d 48f3 e13c c18e 103d 051f b63c
000000c0: 75ba 7b3d 28d1 003e 29d8 2d3b d756 893c
000000d0: ccba 0dbd 4d10 5e3d 38b2 cf3c 573c 623c
000000e0: dbba cebc 8920 d6bc 023b 383d 896a f13b
000000f0: eecc ee3b 27d2 c3bd 367b babc f189 1ebd
00000100: faa8 a53d 24b8 bbbd bdf2 98bd 216b de3a
00000110: e5ea 63bd f18a 993c bee1 0cbd c643 ec3c
00000120: c5c3 a7bd cb23 8b3c 3ded 393d f742 b3bd
00000130: 083b babc 0ee0 38bd 64bd 923c aa5e 62bd
00000140: 95b7 0ebe bb35 66be 4926 2dbe 6e0b 5cbe
00000150: 5f4d 09bd a63f 75bd 50a0 97bd ba14 03bd
00000160: 8f85 e8bd 9d04 f4bc f3e5 9dbd 84b8 b3bd
00000170: c404 b13a 94b1 32bd a8fb adbd 6d30 08be
00000180: f059 163d 2a71 843c 38fb 35bd 19c7 86bd
00000190: dd63 ad3b 8855 323d cb09 703d 8d06 efbc
000001a0: f1a1 f9bd 95f3 92bc 5577 bcbc 2588 29be
000001b0: 88be 26bd af6c 483c e9ec f8bd 16ba 9fbd
000001c0: 9683 b93d 49f7 883c b1fd 84bd 8b70 543d
000001d0: 6e8d 0cbb fdd3 a23d f312 cebc 30bb 5abd
000001e0: a381 e4bb d113 403c b4af 2ebd bd2b 553a
000001f0: b361 6c3d dbce 6fbc 1507 c6bd 261a 88bd
00000200: f616 bb3d db4a b13d 7478 8fbc 054e 313b
00000210: 05c9 253d bcfd 6bbc 7d6a 483c 8542 2d3b
00000220: 1032 423d 2fe6 88bc 97e1 19bd 7598 ea3c
00000230: 0877 a53d 9d82 003d 34be 483d f59c 293d
00000240: e504 d43c e0bb 4abd 3027 fabd 5602 e23c
00000250: cdcb 61bd aa12 5d3d be71 02bd 3726 243d
00000260: b374 d43c 57e9 64bc 20c8 b1bc 5fe4 7ebd
00000270: ac3f c2bd 0c27 37be fb13 17be 0b37 30be
00000280: c516 7a3d 2a23 b0bc 3896 1d3d 8a7b ad3c
00000290: 8374 15bc bbf0 233c 5b4f 043b 83eb 06bd
000002a0: 2d03 8d3d bbe0 0d3d f6ec 163d 6db7 243d
000002b0: fadc adbc 49c7 f93b 81e7 413d c07c 9d3d
000002c0: f656 90bd 37de dbbd 203c 06bd 2eaf 15be
000002d0: 3762 42bc c789 c5bd 2432 abbd 213e 60bd
000002e0: ba5e 8ebd e924 03be bcef 88bd db6d 31be
000002f0: 3e9a ae3b 5b0e 16bd 18d0 38be b9ff 90be
00000300: bfe8 6e3c 53cf abbd b008 cdbd c287 dcbb
00000310: 4842 933c 2b76 91bc 9a2e 2cbd b4e0 9e3d
00000320: 265a 50bc 1ed5 3cbd 0dff aa3c 9e77 e3bc
00000330: c778 85bd 4673 c0bd 5a03 11be 5a83 7cbe
00000340: 19f7 dc3d fd46 a63c f91d 1cbd 87f4 373d
00000350: 2144 6a3d 4420 adbb 011e 1f3c bce4 c7bc
00000360: 2ead d83c 2ae6 563c 2714 fd3c c59b 3f3d
00000370: 201d 5c3d 680a ee3d 33e5 f93d 8bb4 d93d
00000380: a3c0 b83b 7d63 ec3c 8422 e43d 0de5 51ba
00000390: 6a18 283d affa 0cbd 055c 963d 81ac f83d
000003a0: 57ca 773d bd2e 9fbb 31e1 3a3c aa91 063c
000003b0: f673 f7bc 033a ff3c 4d33 04bd bc40 16be
000003c0: 7df6 ab3d ca4b 733d 3128 563d ec90 003e
000003d0: 5378 733a 7a74 913d 8301 533d b36a dc3c
000003e0: 5db4 943d 002d 14bd 4efd 77bc 13a8 fe3c
000003f0: 45b0 243e 2523 163e ae38 803d 457c 3c3e

con5.con.1.bias f4 [8]
0.06508184 -0.07229662 -0.07431959 0.06605949 -0.054833267 0.04544783 -0.02123851 -0.030443342
00000000: a149 853d 4010 94bd df34 98bd 334a 873d
00000010: d998 60bd 8127 3a3d 62fc adbc 5164 f9bc

con5.con.2.weight f4 [8]
0.97853947 0.82822126 0.9420904 0.95058125 0.79546744 0.59939176 0.5230167 0.8935745
00000000: 9081 7a3f 4f06 543f d62c 713f 4b59 733f
00000010: c1a3 4b3f bd71 193f 6ce4 053f 4cc1 643f

con5.con.2.bias f4 [8]
0.13234055 0.061497968 -0.106384315 0.009663465 0.3579744 -0.087999776 0.6444515 -0.09865765
00000000: 4884 073e 4be5 7b3d 05e0 d9bd 8353 1e3c
00000010: 6c48 b73e 3a39 b4bd c6fa 243f 060d cabd

con5.con.2.running_mean f4 [8]
0.053505376 -0.06289864 -0.7044563 0.6206784 1.9358159 0.9405668 0.59840155 -0.88483745
00000000: 7428 5b3d 01d1 80bd 4057 34bf c8e4 1e3f
00000010: d1c8 f73f fcc8 703f d830 193f b584 62bf

con5.con.2.running_var f4 [8]
1.6540636 3.1735172 1.6079583 0.17894804 1.4614282 1.1024925 1.8561692 1.6162299
00000000: 5bb8 d33f e81a 4b40 94d1 cd3f 283e 373e
00000010: 1410 bb3f 791e 8d3f f496 ed3f 9fe0 ce3f

RCAB1.body.0.conv.0.weight f4 [8, 1, 3, 3]
0.35862464 0.23210554 0.30615214 0.15830009 -0.116812095 0.22823493 0.37586287 -0.07710241
0.25747 -0.22295088 0.3996805 -0.045834072 0.19270751 0.20299971 -0.21985571 -0.2344686
-0.15238614 -0.28126758 -0.47699445 -0.0805213 -0.24912995 0.14846446 -0.044767287 0.018025687
-0.077348754 0.32970336 -0.023628274 -0.18601993 0.049796086 -0.22061583 -0.23524942 0.20950101
-0.3484503 -0.17613427 0.2026662 -0.26271692 0.10198371 0.099607326 0.03518293 0.48331678
-0.26936284 0.05369494 0.36602095 0.14850351 0.054044355 0.28151593 0.34168014 0.36661193
0.038431425 -0.28834122 -0.04488349 0.19931479 0.08837334 0.059852537 -0.37722105 -0.008585181
0.13116147 -0.28589782 0.29551595 0.18813151 -0.44327757 -0.13655572 -0.1537546 0.045418784
0.2469363 0.035100583 0.15733258 -0.5244919 0.20028952 0.23275839 0.012706945 0.25990328
00000000: a69d b73e 13ad 6d3e f9bf 9c3e 6b19 223e
00000010: 2e3b efbd 6bb6 693e 1971 c03e dee7 9dbd
00000020: 1cd3 833e 3c4d 64be eca2 cc3e 82bc 3bbd
00000030: 1e55 453e 28df 4f3e db21 61be 8918 70be
00000040: 1d0b 1cbe 4e02 90be 9e38 f4be 5ae8 a4bd
00000050: ec1b 7fbe 1107 183e e75d 37bd 9baa 933c
00000060: 0669 9ebd e1ce a83e 1590 c1bc 027c 3ebe
00000070: fbf6 4b3d 1ee9 61be 39e5 70be 6f87 563e
00000080: 1468 b2be 8b5c 34be ba87 4f3e d582 86be
00000090: d6dc d03d edfe cb3d fa1b 103d 4c75 f73e
000000a0: ede9 89be 3aef 5b3d 1967 bb3e 4e11 183e
000000b0: 9d5d 5d3d db22 903e b3f0 ae3e 8fb4 bb3e
000000c0: 456a 1d3d 76a1 93be c0d7 37bd 2d19 4c3e
000000d0: 15fd b43d ef27 753d 1e23 c1be dca8 0cbc
000000e0: 314f 063e 3361 92be de4d 973e 8ca5 403e
000000f0: 47f5 e2be 43d5 0bbe d971 1dbe 0c09 3a3d
00000100: dfdc 7c3e a1c5 0f3d cb1b 213e 1a45 06bf
00000110: b218 4d3e 3758 6e3e ca30 503c 0b12 853e

RCAB1.body.0.conv.0.bias f4 [8]
-0.07288525 -0.20037737 -0.1408831 -0.0887532 0.27157345 0.08147594 -0.27087522 0.14658582
00000000: dd44 95bd ba2f 4dbe a943 10be 3dc4 b5bd
00000010: ad0b 8b3e dcdc a63d 28b0 8abe 981a 163e

RCAB1.body.0.conv.1.weight f4 [8]
1.0180223 1.0829496 1.0647665 0.9723689 0.9936304 1.0329789 0.846455 1.0965497
00000000: 8e4e 823f 189e 8a3f 454a 883f 2bed 783f
00000010: 905e 7e3f a738 843f 46b1 583f be5b 8c3f

RCAB1.body.0.conv.1.bias f4 [8]
-0.0059319027 -0.0035726267 -0.0033553825 0.003175521 0.010933331 7.0157206e-05 0.0061234515 0.0056083105
00000000: 6860 c2bb bb22 6abb fae5 5bbb 671c 503b
00000010: b721 333c 5d21 9338 3ca7 c83b ebc5 b73b

RCAB1.body.0.conv.1.running_mean f4 [8]
0.4335197 -0.26331583 -0.21157092 -0.2888548 0.7033692 0.18521641 -0.62968373 0.23266917
00000000: 4bf6 dd3e 55d1 86be 0ca6 58be c7e4 93be
00000010: 0110 343f 5fa9 3d3e f432 21bf d440 6e3e

RCAB1.body.0.conv.1.running_var f4 [8]
0.6161842 0.043151107 0.061311945 0.18130358 0.286597 0.08074484 0.21603978 0.0450179
00000000: 3fbe 1d3f 37bf 303d 3c22 7b3d a5a7 393e
00000010: d8bc 923e 8d5d a53d 8839 5d3e b164 383d

RCAB1.body.0.conv.2.weight f4 [8, 8, 1, 1]
0.1333851 -0.35221276 -0.017358689 -0.14148392 0.13487811 -0.035698306 0.17085135 -0.18901739
-0.12879923 -0.3364156 -0.22925787 0.5321399 0.017686907 0.016134927 0.29437304 0.051811777
-0.43777207 0.07088431 -0.42419627 -0.037161987 0.12931663 0.34348747 0.007923433 -0.15334666
0.41512907 0.17363633 -0.20576349 -0.17234336 -0.2126173 -0.03106323 -0.15102561 -0.24797139
0.22433423 -0.016081667 -0.19772352 -0.10295994 -0.060704008 -0.23235664 -0.1907463 0.06402204
0.23792328 0.10829237 0.033432152 -0.0559721 -0.246573 -0.037022967 -0.3163448 -0.15700473
0.35951757 0.23287867 0.12948543 -0.08403492 0.04948099 -0.26066428 0.28672743 -0.088909365
0.12678824 0.19490157 -0.24200374 -0.02229901 0.04008971 0.22661977 0.10044308 0.47686222
00000000: 1b96 083e 3b55 b4be cf33 8ebc 29e1 10be
00000010: 7d1d 0a3e 6338 12bd a8f3 2e3e c68d 41be
00000020: f2e3 03be aa3e acbe 93c2 6abe 523a 083f
00000030: 22e4 903c 652d 843c 10b8 963e 9638 543d
00000040: a923 e0be cb2b 913d 4130 d9be 2b37 18bd
00000050: 946b 043e 97dd af3e 49d1 013c e806 1dbe
00000060: cc8b d43e b9cd 313e aab3 52be c77a 30be
00000070: 59b8 59be 5178 febc 75a6 1abe 36ec 7dbe
00000080: dfb7 653e b3bd 83bc 0978 4abe a9dc d2bd
00000090: c4a4 78bd e6ee 6dbe 0053 43be fd1d 833d
000000a0: 29a2 733e 64c8 dd3d 27f0 083d 0043 65bd
000000b0: a27d 7cbe 65a5 17bd f2f7 a1be d9c5 20be
000000c0: b012 b83e bf77 6e3e d497 043e 801a acbd
000000d0: 94ac 4a3d ca75 85be f0cd 923e 1d16 b6bd
000000e0: c7d4 013e 4794 473e d4cf 77be 6aac b6bc
000000f0: 1c35 243d 030f 683e 1ab5 cd3d 4927 f43e

RCAB1.body.0.conv.2.bias f4 [8]
0.043709673 -0.33833793 0.114912555 0.16671342 -0.22380464 -0.2938573 -0.2234557 0.1289088
00000000: ea08 333d a13a adbe 4657 eb3d ecb6 2a3e
00000010: 0b2d 65be 7774 96be 92d1 64be ab00 043e

RCAB1.body.1.weight f4 [8]
0.4794513 0.8687864 0.43622372 0.34916228 0.77558005 0.2988546 0.29256657 0.30124208
00000000: a47a f53e c968 5e3f b758 df3e 66c5 b23e
00000010: 6a8c 463f 7803 993e 49cb 953e 673c 9a3e

RCAB1.body.1.bias f4 [8]
0.42066848 0.046646148 0.46119124 0.5455985 -0.12829533 0.6061212 0.60430735 0.57653904
00000000: dc61 d73e 0810 3f3d 4221 ec3e 58ac 0b3f
00000010: da5f 03be c22a 1b3f e3b3 1a3f 1098 133f

RCAB1.body.1.running_mean f4 [8]
0.045244634 -0.3316272 0.11918684 0.15912995 -0.2262324 -0.30146635 -0.2253408 0.13194431
00000000: 7052 393d 0acb a9be 3b18 f43d f6f2 223e
00000010: 77a9 67be cc59 9abe bdbf 66be 691c 073e

RCAB1.body.1.running_var f4 [8]
0.29667145 0.5915844 0.72982633 0.27847564 0.21776706 0.1561477 0.3245422 0.4215379
00000000: 52e5 973e 1372 173f e6d5 3a3f 5c94 8e3e
00000010: 54fe 5e3e 2fe5 1f3e 652a a63e d1d3 d73e

RCAB1.body.3.conv.0.weight f4 [8, 1, 3, 3]
-0.0074150767 -0.06380357 0.1523928 0.008774405 -0.11481845 -0.041176688 0.39535135 -0.1594586
0.4267096 -0.17703126 -0.21787669 -0.11972176 -0.04778003 0.1266318 -0.038508568 -0.31362745
-0.35491565 -0.366991 -0.33432034 0.27861837 -0.34995088 -0.07569794 0.19932975 -0.026475264
-0.16221777 0.22672936 -0.12756355 0.1464244 -0.078108236 -0.016316408 0.095048405 0.04840035
0.024199456 -0.36509833 -0.12760139 -0.38106707 0.30113783 0.25185347 0.3121407 0.095524766
-0.34296772 0.01244223 0.15885377 0.06345431 0.13505761 -0.40552518 -0.14243871 -0.29749653
-0.0878538 0.04530633 0.22836068 -0.22721606 -0.083388016 0.0024344232 0.14259166 -0.2886275
0.31278175 -0.20777641 0.21812212 0.11410546 -0.14885296 -0.27334264 0.16737102 0.17274691
-0.020498998 0.25077975 0.053107407 -0.15598546 -0.035702914 0.19883102 0.0043414887 0.2021173
00000000: 2cfa f2bb 72ab 82bd dc0c 1c3e 86c2 0f3c
00000010: ef25 ebbd e3a8 28bd 7e6b ca3e 1e49 23be
00000020: ae79 da3e af47 35be 111b 5fbe af30 f5bd
00000030: feb4 43bd c4ab 013e 29bb 1dbd c793 a0be
00000040: 81b7 b5be 3fe6 bbbe 092c abbe 11a7 8e3e
00000050: c32c b3be 8607 9bbd 191d 4c3e a7e2 d8bc
00000060: 6a1c 26be be2b 683e 05a0 02be 47f0 153e
00000070: 36f7 9fbd fda9 85bc bda8 c23d 723f 463d
00000080: f03d c63c 2bee babe f0a9 02be 391b c3be
00000090: bd2e 9a3e f0f2 803e e8d0 9f3e 7da2 c33d
000000a0: 7799 afbe 7fda 4b3c 90aa 223e 55f4 813d
000000b0: 8b4c 0a3e ffa0 cfbe 74db 11be 7751 98be
000000c0: b1ec b3bd 2193 393d 62d7 693e 54ab 68be
000000d0: 56c7 aabd d88a 1f3b 8c03 123e fcc6 93be
000000e0: ee24 a03e 57c3 54be 685b 5f3e 20b0 e93d
000000f0: e96c 18be 91f3 8bbe 4f63 2b3e 91e4 303e
00000100: 84ed a7bc 3466 803e 2787 593d a7ba 1fbe
00000110: 383d 12bd 5c9a 4b3e 0c43 8e3b d6f7 4e3e

RCAB1.body.3.conv.0.bias f4 [8]
0.18844716 0.32717362 0.024250269 0.038433585 -0.29452866 0.17350993 0.17835361 0.24180694
00000000: 4bf8 403e 4d83 a73e 80a8 c63c 896c 1d3d
00000010: 76cc 96be 96ac 313e 54a2 363e 3d9c 773e

RCAB1.body.3.conv.1.weight f4 [8]
0.9246456 1.0234189 0.9965222 1.0171099 1.084728 1.071252 1.065263 0.92495334
00000000: 93b5 6c3f 64ff 823f 141c 7f3f a830 823f
00000010: 5ed8 8a3f c91e 893f 8a5a 883f bec9 6c3f

RCAB1.body.3.conv.1.bias f4 [8]
-0.0030477627 0.0045635435 0.005474553 0.0039669517 0.0010685212 0.009694529 -0.0027374446 -0.0021484136
00000000: f9bc 47bb c789 953b e163 b33b 34fd 813b
00000010: 9f0d 8c3a cdd5 1e3c b366 33bb 66cc 0cbb

RCAB1.body.3.conv.1.running_mean f4 [8]
0.3744971 -0.1090406 -0.072168104 -0.25672892 -0.080358125 -0.2655884 0.17080022 0.5351529
00000000: 15be bf3e ae50 dfbd dfcc 93bd f971 83be
00000010: cd92 a4bd 34fb 87be 41e6 2e3e c8ff 083f

RCAB1.body.3.conv.1.running_var f4 [8]
0.05552784 0.19980733 0.024321318 0.07187525 0.092842504 0.091349244 0.030683957 0.033759438
00000000: 2971 633d 4b9a 4c3e 803d c73c 5533 933d
00000010: 3624 be3d 5015 bb3d ec5c fb3c 5647 0a3d

RCAB1.body.3.conv.2.weight f4 [8, 8, 1, 1]
-0.18195057 -0.44379374 0.017392045 -0.23585796 -0.09039672 -0.15096273 -0.43173605 -0.2436473
0.400059 -0.41858864 0.19418925 0.2718353 -0.24042037 0.017120536 0.21436703 0.014407973
0.23012102 0.21348254 -0.34762514 0.37936723 0.09627183 0.16993524 -0.38903707 0.07920519
-0.15720248 0.12940623 0.2347511 0.046942297 0.0076345573 0.12844795 0.49078003 -0.033533216
-0.044940453 -0.1043832 0.229929 0.29120827 0.1462229 0.36489344 0.068129845 -0.014770772
0.31344962 0.106918015 -0.49173337 -0.18753059 -0.19937171 0.020178124 -0.016937207 0.34041312
0.013077738 -0.009473964 -0.057790555 -0.11178903 -0.06662251 -0.21684606 0.047375724 -0.2470657
-0.0026263036 0.06351091 0.21731366 0.13301145 -0.0014654421 -0.12982589 -0.010772935 0.29237655
00000000: 4051 3abe ef38 e3be c379 8e3c c084 71be
00000010: ea21 b9bd f995 1abe 820c ddbe ae7e 79be
00000020: 89d4 cc3e 4051 d6be 8cd9 463e ff2d 8b3e
00000030: c230 76be 5e40 8c3c 0883 5b3e 6b0f 6c3c
00000040: d8a4 6b3e 2b9b 5a3e ecfb b1be 6c3c c23e
00000050: 2a2a c53d 8103 2e3e de2f c7be 5536 a23d
00000060: b0f9 20be 1183 043e 9862 703e 9146 403d
00000070: 4f2b fa3b dc87 033e 8547 fb3e 205a 09bd
00000080: 7b13 38bd dcc6 d5bd 8272 6b3e 4019 953e
00000090: 75bb 153e 50d3 ba3e a987 8b3d 1c01 72bc
000000a0: 787c a03e d5f7 da3d 7ac4 fbbe 0508 40be
000000b0: 1928 4cbe 984c a53c e6bf 8abc a14a ae3e
000000c0: 0244 563c af38 1bbc cab5 6cbd a6f1 e4bd
000000d0: 6271 88bd e50c 5ebe 0c0d 423d cafe 7cbe
000000e0: 101e 2cbb 0212 823d 7987 5e3e 2734 083e
000000f0: 1414 c0ba 14f1 04be f780 30bc 61b2 953e

RCAB1.body.3.conv.2.bias f4 [8]
-0.095937885 0.29539448 0.032005563 -0.13394709 -0.25531074 0.06768434 0.14054231 -0.05683064
00000000: 157b c4bd f23d 973e 4418 033d 6d29 09be
00000010: 17b8 82be 169e 8a3d 53ea 0f3e 3fc7 68bd

RCAB1.body.4.weight f4 [8]
0.9135058 1.093003 1.1648537 0.89114213 0.99117154 1.2489597 1.057102 1.0140257
00000000: 84db 693f 86e7 8b3f ed19 953f e421 643f
00000010: 6bbd 7d3f e9dd 9f3f 1e4f 873f 98cb 813f

RCAB1.body.4.bias f4 [8]
0.16904224 0.04765735 0.21167412 0.6322563 0.17863621 0.19886021 0.49029854 0.25664586
00000000: 6919 2d3e 5a34 433d 1ac1 583e 8ddb 213f
00000010: 69ec 363e 03a2 4b3e 6908 fb3e 1667 833e

RCAB1.body.4.running_mean f4 [8]
-0.0980993 0.29369953 0.03452535 -0.13142683 -0.24969655 0.06307909 0.13792638 -0.05667144
00000000: 49e8 c8bd c95f 963e 746a 0d3d c194 06be
00000010: 74b0 7fbe 9c2f 813d 933c 0d3e 5020 68bd

RCAB1.body.4.running_var f4 [8]
0.4272776 0.5564423 0.334535 0.4150509 0.39610666 0.62899196 0.08328077 0.0997755
00000000: 21c4 da3e 0173 0e3f 2c48 ab3e 8d81 d43e
00000010: 7ece ca3e 9e05 213f 1c8f aa3d 1957 cc3d

RCAB1.CA.conv_du.0.weight f4 [8, 8, 1, 1]
-0.2589975 -0.023774086 0.038903363 -0.2501888 0.011236071 0.085761786 0.15479794 -0.38400093
0.44557157 0.16216885 -0.3994069 0.03818751 -0.05486297 0.19786048 -0.036035657 -0.3998657
-0.124084674 -0.27720708 -0.22877724 0.35759744 -0.051950667 -0.22522806 0.23108158 -0.0028633615
0.42348436 -0.026582958 -0.5286087 -0.11892439 -0.1204379 0.032972347 -0.35108852 -0.35780016
-0.0168077 0.21903902 -0.16434655 0.29611078 0.33173114 0.49323893 -0.47659275 0.19215229
-0.30542362 0.43007922 0.1577529 0.4496434 0.009210746 -0.07864091 0.24094045 -0.55505705
-0.3040663 -0.1516333 -0.4595989 0.312832 0.21761198 0.0054241377 0.403466 0.2286353
0.26296514 -0.006081315 0.015503951 -0.036370028 -0.3388114 -0.013215132 0.4483387 0.18635911
00000000: 529b 84be dfc1 c2bc 2259 1f3d bf18 80be
00000010: 7f17 383c e0a3 af3d 5a83 1e3e c59b c4be
00000020: f521 e43e 970f 263e 107f ccbe 826a 1c3d
00000030: feb7 60bd f09b 4a3e 209a 13bd 32bb ccbe
00000040: 1b20 febd 16ee 8dbe 9544 6abe 0317 b73e
00000050: 39ca 54bd 2fa2 66be a6a0 6c3e 3ca7 3bbb
00000060: f1d2 d83e 81c4 d9bc e652 07bf a18e f3bd
00000070: 25a8 f6bd 030e 073d e0c1 b3be 9531 b7be
00000080: 4db0 89bc c44b 603e 764a 28be d59b 973e
00000090: aad8 a93e d089 fc3e f703 f4be 92c3 443e
000000a0: 7c60 9cbe 5833 dc3e fa89 213e a937 e63e
000000b0: abe8 163c 7c0e a1bd 18b9 763e 3818 0ebf
000000c0: 94ae 9bbe c345 1bbe 8c50 ebbe 842b a03e
000000d0: add5 5e3e f7bc b13b 1893 ce3e 5f1f 6a3e
000000e0: 5ea3 863e c545 c7bb 4904 7e3c bdf8 14bd
000000f0: b078 adbe 4884 58bc a68c e53e ecd4 3e3e

RCAB1.CA.conv_du.0.bias f4 [8]
0.42471194 0.04177853 0.3680078 0.036158044 0.079952344 -0.09623457 -0.03314598 -0.39970368
00000000: d873 d93e f71f 2b3d 856b bc3e 751a 143d
00000010: 0ebe a33d a116 c5bd 14c4 07bd f6a5 ccbe

RCAB1.CA.conv_du.2.weight f4 [8, 8, 1, 1]
-0.53738165 -0.46092704 -0.658229 0.1313708 0.11116072 -0.6336054 -0.695453 -0.18190405
-0.22500484 -0.42630038 0.13955595 0.19968185 0.29031396 -0.17933409 -0.12872262 0.43043005
0.18641165 -0.11390087 0.2946431 -0.52138025 -0.3666592 -0.1487326 0.2239561 -0.07560084
0.06924079 -0.024709083 0.19283377 0.16312522 -0.07989649 -0.6388437 -0.10810576 0.08993616
-0.14647688 -0.43502688 -0.16631807 -0.3686361 0.0918845 -0.11823824 0.41074243 0.10550965
0.42736664 -0.033625662 0.20261729 -0.03195352 0.52741617 -0.18880858 -0.055531744 -0.01764928
-0.006314082 0.45767283 0.54990417 0.4180829 -0.13973267 0.015297011 0.07778529 -0.017344166
0.07097433 -0.15372123 -0.03529253 0.13852277 -0.2384083 0.08089137 0.3374691 0.27626732
00000000: d891 09bf a1fe ebbe b281 28bf 1186 063e
00000010: 3ba8 e33d f733 22bf 3509 32bf 0e45 3abe
00000020: ab67 66be 0b44 dabe c1e7 0e3e 6679 4c3e
00000030: 08a4 943e 5ba3 37be ddcf 03be 5461 dc3e
00000040: b2e2 3e3e dc44 e9bd 76db 963e 2d79 05bf
00000050: c1ba bbbe 5c4d 18be bf54 653e 9dd4 9abd
00000060: 1ece 8d3d b46a cabc 3776 453e 4c0a 273e
00000070: c5a0 a3bd 438b 23bf 8d66 ddbd 7330 b83d
00000080: 09fe 15be d8bb debe 494f 2abe dfbd bcbe
00000090: f12d bc3d e426 f2bd d54c d23e 7215 d83d
000000a0: cdcf da3e 10bb 09bd e87a 4f3e b2e1 02bd
000000b0: bf04 073f 0957 41be 4175 63bd 3995 90bc
000000c0: 5ce6 cebb 1854 ea3e 85c6 0c3f f60e d63e
000000d0: 1516 0fbe 50a0 7a3c e54d 9f3d 5a15 8ebc
000000e0: fd5a 913d 1969 1dbe e68e 10bd ead8 0d3e
000000f0: 4e21 74be 60aa a53d c0c8 ac3e e972 8d3e

RCAB1.CA.conv_du.2.bias f4 [8]
-0.032507442 0.08505962 0.043591768 -0.29253042 -0.34990144 0.23103148 0.36912706 -0.015279883
00000000: 8626 05bd bd33 ae3d 488d 323d 8cc6 95be
00000010: 4826 b3be 8493 6c3e 39fe bc3e 7958 7abc
