Export/finute/trained_model/Student/export-146-global_G.ckpt (torch, 157725 bytes, 164 tensors)

con1.1.weight f4 [8, 3, 4, 4]
00000000: 6962 c9bd eef9 fcbd e8ba 96bd 1102 3ebe
00000010: d1df 463e 775e 8a3e 25c4 273d 2672 6ebd
00000020: 2e39 023e ab2a 483e 31cf 05bb 2b86 173e
00000030: fa5a 6cbe b666 86bd 9dc0 20be 6b04 fb3c
00000040: 162b 13bd 829b a03d 0d5d 993d 519d 1cbe
00000050: a0c9 333e 6d1c a33d 8f50 8a3e 347e b6bd
00000060: 2af7 91bb cf7b 903d 00ce a63d 8fd0 1a3c
00000070: b109 d8bd 8aad 1dbd b6c6 e93d b575 21be
00000080: 1a5a 09bd 1a07 cb3d 7d21 e53c e15e 81be
00000090: 2f86 a23e fc42 7a3f 617c 123f f259 e8bc
000000a0: eadb 303e fdb7 813e 4255 623e dffa 94be
000000b0: 6c86 d1be 17a7 3abe 086f e3bc 7445 d5bd
000000c0: 9b65 7ebd a1bb 133d 3083 48bd 788a 0ebd
000000d0: f63e 6dbd dd32 123d 999f 193c 1b92 27be
000000e0: 35fc af3e 20fc b53e 027a dd3d 2bc8 a63c
000000f0: b376 583d c594 a63e 40e4 593d a770 78bd
00000100: 10b8 eabc 3201 34be a238 e23d 8926 133e
00000110: dbf9 bf3d 81fb cd3c db95 8abd b584 febc
00000120: ae7a 9d3e f732 8c3e bdc7 e53d 9289 6d3d
00000130: 3e5d 823e 1085 673e a625 d23c b68b 51be
00000140: 8057 81bd a73e 193c 5115 01be 122e ed3d
00000150: fc5e 0f3c c11f c23a aa76 623b 8256 5b3d
00000160: 3774 15bd 21f8 fe3c 9c01 003d f346 fbbc
00000170: bab3 74bd 6638 943d 40de bdbd 5306 06bd
00000180: 2c16 9fbe 2262 9ebe d58e 0f3c 6392 923d
00000190: eed7 aebe d2c0 a5be c9d5 43be 4324 323d
000001a0: a60e b93b 7fec 96be b151 95bc 281d 053e
000001b0: 69e5 703d 06da 853d 4d0b 7f3d 3007 d93c
000001c0: 7bb0 5fbe 5fab 61bc f253 22be 2e15 2d3e
000001d0: 991c 8cbe c12c 8abe 6a6c 10bd 6f93 8a3c
000001e0: f51d 34be b5b6 ae3c 2fdc 5dbd bc0c ff3c
000001f0: bb10 843d 8b28 da3d f646 453d db70 72bc
00000200: 571d deb9 fed6 233d 1f03 f2bd 2962 693b
00000210: 6b5a 61bd 722c 853d b397 ab3d cb27 d0bc
00000220: e9ed efbc 04d4 0d3d 5f29 4cbc d1b8 253d
00000230: 2df8 be3d afca d13c 2a50 9d3c bc46 01be
00000240: 2cb6 763d 1935 59bd 0a6d 6dbd cd5f ce3d
00000250: bdc3 2c3d 874c 353d 9b84 a83b 1b46 243e
00000260: 5dd5 5dbd 6b99 953b 3c0a c6bd 99b7 d6bd
00000270: 5ae5 1d3e 7e61 143d eecb 063d 5ad7 663d
00000280: 9265 43bd 0362 ecbc 8571 ad3d 059f 863c
00000290: 260d 3abe 2024 c9bd 3fc9 6bbe 6773 13bc
000002a0: 6921 333d ac93 8abe 12d3 88bd d3c2 333d
000002b0: 8996 28bc f09f a6bd e7f8 adbd e0de 1e3e
000002c0: 3621 003d 3214 9fbd 5d0a 36be 44e7 cc3e
000002d0: 51c1 9cbe 0f9d d9be 8b38 c3be 15b0 7abd
000002e0: ae97 1dbe d1f2 e1be c729 1fbf 47f8 c13d
000002f0: 1741 e63e 94ad fe3d de8c 93bc c60e b43e
00000300: 9c69 5b3d 7d9b 333e 9ba6 1b3d 212e 333e
00000310: 51ef b2ba 5ff9 f0bd 0fc0 8b3d d8d8 e7bd
00000320: 6b48 51bd c6c9 613c a697 27bd b149 9c3d
00000330: 8e18 423e b026 673d 419a 003e a65c 80bd
00000340: b15f fb3c 6965 4d3e 79c0 113f f5b2 ac3c
00000350: aa76 873b 5f06 8f3e dc3c 073f 5eb7 aebd
00000360: accb 963d 419f a63d bc3b 043e 9dfc 393e
00000370: 39a9 fd3c 8fba 94bd bc56 07bd a8ed e33d
00000380: 6ae5 00be 65e1 5b3d c94d 8c3e 2d20 a23d
00000390: bbf9 043d 2985 673e cb1a 8a3e e6b3 0fbd
000003a0: 5ddf 1fbd 2d0a 6c3d a1ff 5cbd d791 89bd
000003b0: 33c2 9dbd 25d6 67bd 1f74 bebc 74fc 71bd
000003c0: 80f3 093e ae35 663d 9e1e 9cbd 8d77 b43e
000003d0: 39f5 c63c 4e33 c5bd d886 76be a445 41bd
000003e0: 31c1 51be 02be 873c 24a8 90be a526 efbd
000003f0: 119b 41bc 0670 053e 75c2 3fbe caa3 a03d
-0.098332234 -0.12352358 -0.07359868 -0.18555476 0.19421317 0.27025196 0.040958542 -0.05821433
0.12717125 0.19547527 -0.0020417685 0.14797275 -0.2308158 -0.06562559 -0.15698476 0.030641755
-0.03592976 0.07842161 0.07488451 -0.15294386 0.17557383 0.07964406 0.27014586 -0.0891079
-0.004454513 0.070548646 0.0814476 0.009449138 -0.105487235 -0.038495578 0.11414854 -0.15767558
-0.033533193 0.09913464 0.02797007 -0.252677 0.31743 0.9775846 0.5722104 -0.028363202
0.1727139 0.25335684 0.22102836 -0.2909765 -0.40922868 -0.18227802 -0.027762905 -0.10413638
-0.062108617 0.03606761 -0.048953235 -0.034800023 -0.057921372 0.03569304 0.00937643 -0.16364329
0.34372106 0.3554392 0.10814287 0.02035912 0.052847575 0.32535377 0.05319619 -0.06065431
-0.028652221 -0.17578581 0.11045958 0.14370169 0.09373828 0.02514434 -0.06766864 -0.031069139
0.3075766 0.27382633 0.11219738 0.057992525 0.25461763 0.22609353 0.025652718 -0.20463452
-0.063155174 0.009353316 -0.12605788 0.11581053 0.008750673 0.0014810489 0.0034555593 0.053549297
-0.036487784 0.031124176 0.031251535 -0.03067348 -0.059741713 0.0723732 -0.092709064 -0.032720875
-0.31071603 -0.30934244 0.008762081 0.07156827 -0.34149116 -0.32373673 -0.19124521 0.043491613
0.005647498 -0.29477307 -0.01822743 0.12999403 0.058812533 0.06535725 0.062266637 0.026492685
-0.21844666 -0.013773768 -0.15852335 0.1690261 -0.27365568 -0.2698727 -0.03525964 0.016916005
-0.17589553 0.021327356 -0.05416506 0.031134002 0.064485036 0.10652264 0.048163377 -0.014797415
-0.00042365 0.039999954 -0.118170016 0.0035611487 -0.05501787 0.06502618 0.08378544 -0.0254096
-0.02928825 0.034626022 -0.0124610355 0.040459458 0.093246795 0.025609342 0.019203264 -0.1262464
0.060232326 -0.053029153 -0.057965316 0.10076866 0.042178858 0.044262435 0.005142761 0.16042368
-0.054158557 0.004565408 -0.09669921 -0.10484237 0.15419522 0.03622579 0.032909326 0.05635772
-0.047704287 -0.02885533 0.08468918 0.016433248 -0.18169078 -0.098213434 -0.23025988 -0.008999682
0.043733034 -0.2706579 -0.066808835 0.04388697 -0.010289797 -0.081359744 -0.0849474 0.15514708
0.031281672 -0.07767524 -0.17777391 0.40020192 -0.3061624 -0.4250264 -0.38129076 -0.06120308
-0.15389892 -0.44130567 -0.6217312 0.09471183 0.44971535 0.12435451 -0.018011507 0.3516752
0.053567514 0.17539783 0.038000684 0.17498066 -0.0013651644 -0.11766314 0.06823742 -0.113206565
-0.051094454 0.013781017 -0.040916108 0.07631243 0.1895468 0.05643338 0.12558843 -0.06267671
0.030685278 0.20058216 0.56934315 0.021081427 0.004134019 0.27934548 0.5282724 -0.08531068
0.07363066 0.08135844 0.12913412 0.1816277 0.03096448 -0.07262146 -0.0330417 0.11129314
-0.12587515 0.05368175 0.27403095 0.07916293 0.032464724 0.2260939 0.26973566 -0.035083674
-0.039031375 0.057626892 -0.053954724 -0.0671727 -0.07703056 -0.05660071 -0.02324873 -0.05907865
0.13471794 0.056203537 -0.07623027 0.3524746 0.024286853 -0.09628926 -0.24074876 -0.047185555
-0.20483853 0.016570095 -0.2825328 -0.11677293 -0.011816756 0.13031015 -0.18726523 0.0784374

con1.1.bias f4 [8]
00000000: ce2e 403d 7c8f 333d f186 e5bd 5160 4a3c
00000010: 0a43 01be 78ca 123d fd1d a2bd 4eae a1bd
0.046919636 0.04383801 -0.11207379 0.012352065 -0.1262323 0.03583762 -0.07915876 -0.07894574

con1.2.weight f4 [8]
00000000: e045 8b3f daad 783f 0240 8f3f e6b2 973f
00000010: 6572 fe3e b4b0 083f 4e4d f63e 6cbb 6a3e
1.0880699 0.97140276 1.1191409 1.185147 0.4969665 0.5339463 0.48105854 0.22923058

con1.2.bias f4 [8]
00000000: 4d54 743e 18cb 7f3e ce5d b0be d42d 8dbe
00000010: c092 b3be c92d dbbe 338e 823e a7d9 963e
0.23860283 0.24979818 -0.34446567 -0.27574027 -0.350729 -0.4280837 0.25499114 0.2946293

con1.2.running_mean f4 [8]
00000000: c9a2 7ebe b7c3 47be e69b 363e 3b61 8a3e
00000010: 8131 03bf f684 8b3d 3bc5 803e 40f4 4ebe
-0.24866785 -0.19508253 0.17832908 0.27027306 -0.5124741 0.0681247 0.25150475 -0.20210361

con1.2.running_var f4 [8]
00000000: cc22 743f dd40 523f 3f11 6c3f fe80 5b3f
00000010: 9891 e53f d27f 963e f80c a23f 720e b63e
0.95365596 0.82130224 0.92213815 0.857437 1.7935057 0.29394394 1.2660208 0.35557896

con2.1.weight f4 [4, 8, 4, 4]
00000000: 003b 9ebd 1f88 6a3d 44c7 aebd 1599 01be
00000010: 7e5f ccbc 8d19 dc3d 75a7 633e e796 303c
00000020: ae2f aabd f280 623c 7393 5c3e ced7 743d
00000030: 7034 42bd 588d 123d 0e4b 3b3e 0e3e f1bc
00000040: bd12 233e 3156 313d 3b91 b43d 9139 863b
00000050: 5ff2 383e b076 5bbe ba60 123e 6acb 723d
00000060: 419b a53d 702e 31be 4173 513d 5216 363d
00000070: 6452 9f3d 916e 4b3c ed94 803d 2477 15bd
00000080: 78dd 423d f17b a8bd e528 4f3d 28b0 9dbd
00000090: 356e 87bd c79c aa3d 994a 803e 4be7 023e
000000a0: cfc0 88bd bf37 073f 50c7 f73e e575 1f3e
000000b0: d187 8bbd ab78 8f3e aa88 553e f37e 5c3c
000000c0: 74a0 3fbc faef 6dbd 1cf1 f6b9 05b0 473d
000000d0: bf5d c53c 9cb1 8bbd 1557 d83d 213e 45bd
000000e0: 13f1 c13c 858a d23d 31cc bd3d 5c21 283b
000000f0: 8a24 d23c 9818 293c 1412 a23d a049 883d
00000100: 5f85 1bbd 158f d8bb f305 cfbd 2fb6 f43c
00000110: 70e4 a0bd 7a02 703d 7a0d dc3c a42f b5bd
00000120: 0e8b 8cbd d214 463d 7709 f03d 1def 923c
00000130: 277b 3e3c f590 fd3d b8b5 c73d 7fe3 b7bd
00000140: 708e 303c 7ceb 4abc 4f0e fcbc ab99 9dbc
00000150: 4d61 c33d 2254 fc3d 6f9e ae3d 4952 d9bc
00000160: fba3 8f3d e0f1 9a3d ba2c 873d 7139 83bd
00000170: 7db5 75bd c4be b0bc 1abf 8fbc 6580 8d3d
00000180: 3fb8 0fbb f782 323d a765 e03d 145e 8a3c
00000190: fca0 29bc d667 833d b11e a33c a235 ab3b
000001a0: 7730 183d 331e 883d af81 d5bd 533d c63c
000001b0: 5efb 9abc eada 063e d47b 353d 3f83 04bd
000001c0: 5379 9bbc 5017 1c3d 9504 1f3d fa58 223e
000001d0: eaa5 6bbc 037f 9dbd f0d8 97bd e588 6e3d
000001e0: 599d 3c3d b59f 2f3c 5ac9 28bd 035e 1f3e
000001f0: afca 7e3d 143c 1b3d 5d42 fb3b 2b3e a33d
00000200: 81e0 23bd f125 4f3c 3717 0e3d 8993 efbc
00000210: 7109 a13c c933 30bd 42e4 d93c fa88 7f3d
00000220: 4c2b 3b3d 5913 38be 7422 6cbd 30ce cf3d
00000230: 16ca b43d 639b 09bd fafb 383e 19cb f13c
00000240: 8d4d c73d 601d 86bc be63 88bd 3a56 c63d
00000250: d020 6b3d 3b50 f4be 079e 83be b48f 6fbd
00000260: 01df 383b 6751 a5be d2aa 4cbe b264 02bd
00000270: 954b 953d b58f a83d 9700 483d afb0 043d
00000280: 711d a4b9 59d3 97bd f9cf 89bc 73b1 f03c
00000290: dcb8 cebd 35d6 e53c 6b9f 383d a27a 05be
000002a0: f996 02be b0c7 0f3f 947d 0a3f 9f21 01bc
000002b0: 855c debd 9c3f 953e 6b77 2b3e 8ccd c9bc
000002c0: 6514 ba3d 20eb 55bd 28f7 14bd 9c5e 993d
000002d0: d8d1 0ebd 7356 2d3c 5bad c3bd 1cb9 93bd
000002e0: 0eca 83bc 8320 113e 010c a9bd 4e53 b2bd
000002f0: 4d44 22bd c5f5 c9bc 8ed6 4ebe 23a8 38bc
00000300: a5fc db3b de27 1fbd c948 a9bc 13fb 003c
00000310: 5825 be3d da98 4a3d ba8d df3d 0b1d 523c
00000320: b05c 41bc 251e 0ebe 50bf 75bd 2f5e 3c3b
00000330: 4f3c b93c f88c db39 a939 943d 97b7 40bd
00000340: f5d9 57be d3f7 69bd b89e 5abd 2d85 28bc
00000350: d455 563d e668 fe3d 55f2 a1bb cc48 f9bc
00000360: 2314 2c3e 4122 8f3e 5b23 fb3c 205b 0fbc
00000370: 1632 44be ca98 9fbd 908f e8bd abec 5a3c
00000380: 4a3e 003d 0682 333d 25f3 3dbd fd39 273d
00000390: ac5a d73a 5fe1 36bd f6ad 20bd 5811 613d
000003a0: 3fec 7dbc f05d 863c cd2a bbbc b9fb cc3d
000003b0: b925 3cba c3e4 b0bc 0c12 14bd d75f c93c
000003c0: ab9b abbd dbf4 6e3d 1551 c03c b126 153c
000003d0: da14 dc3d 51bd 53be cc1a 59be fb23 9d3c
000003e0: ba0d f93d 2fff 16be 4b71 8cbe b3fc aa3d
000003f0: 9c3a 82bd 1c84 743d 585c a03b df0d b8bc
-0.07726097 0.05725872 -0.08534101 -0.12656052 -0.024947878 0.10747061 0.22231849 0.010778165
-0.083098754 0.013824688 0.21540622 0.05977612 -0.04741329 0.035779327 0.1829035 -0.029448535
0.15925117 0.04329509 0.08816763 0.004096218 0.18061207 -0.21431994 0.14294711 0.059276022
0.08086253 -0.17302871 0.051135305 0.04445488 0.07779387 0.012416498 0.06278405 -0.036490574
0.04757449 -0.08226765 0.05057611 -0.07699615 -0.06612817 0.08330684 0.25056913 0.12783544
-0.066774 0.52819437 0.4839425 0.15572317 -0.06813014 0.2802175 0.20852914 0.013458001
-0.01169597 -0.058090188 -0.00047100417 0.04875185 0.024092553 -0.06820986 0.105634846 -0.048154954
0.023674523 0.10280327 0.09267462 0.002565465 0.025652189 0.010320805 0.079136044 0.06654668
-0.03796899 -0.0066088536 -0.101085566 0.029872028 -0.07856071 0.05859611 0.026861895 -0.08846977
-0.0686246 0.0483597 0.11720555 0.017936284 0.0116260415 0.12381164 0.09751457 -0.08978938
0.010776147 -0.012385245 -0.030768542 -0.019238314 0.09540043 0.123207346 0.085263126 -0.026528494
0.07013699 0.07565665 0.06600328 -0.064074405 -0.059987534 -0.02157534 -0.017547179 0.06909255
-0.0021929888 0.04358193 0.10956889 0.016890563 -0.010353323 0.064162895 0.019912096 0.0052248994
0.037155595 0.06646385 -0.10425126 0.024199164 -0.01891869 0.13169447 0.044307545 -0.03235173
-0.01897875 0.03810817 0.03882273 0.15854254 -0.014382819 -0.07690241 -0.074144244 0.05823602
0.046048496 0.0107192295 -0.04120765 0.15563206 0.062205013 0.03789909 0.007667823 0.07970842
-0.040009025 0.012643323 0.03469011 -0.029245155 0.019657822 -0.043018136 0.0265981 0.06238649
0.045695588 -0.1797613 -0.057650045 0.10146749 0.08827607 -0.033595454 0.18064871 0.02951579
0.097315885 -0.016371429 -0.06659649 0.09684415 0.05740434 -0.4771746 -0.25706503 -0.058486655
0.0028209093 -0.32288668 -0.19987038 -0.03183431 0.07289807 0.08230535 0.048828688 0.03239506
-0.00031302453 -0.07413358 -0.016822802 0.02938149 -0.10093853 0.028056243 0.045073908 -0.13035062
-0.12752904 0.56164074 0.54097867 -0.007881551 -0.108574905 0.29150093 0.16744773 -0.024634145
0.09085921 -0.052226186 -0.03636852 0.074887484 -0.03486809 0.010579693 -0.09554549 -0.07213041
-0.016087558 0.14172558 -0.08254243 -0.08707295 -0.039615918 -0.024653325 -0.20199034 -0.011270556
0.006713467 -0.03885638 -0.02066459 0.007872361 0.092844665 0.049462177 0.10915704 0.012824307
-0.011801884 -0.13878687 -0.059996903 0.0028742661 0.022611765 0.00041875965 0.0723756 -0.047050085
-0.21079238 -0.05712111 -0.053374022 -0.010285658 0.052327946 0.124223515 -0.0049422183 -0.03043022
0.16804557 0.2795582 0.030656507 -0.008749753 -0.19159731 -0.07792814 -0.113555074 0.01336209
0.031309403 0.043825172 -0.04637446 0.040826786 0.001643022 -0.044648524 -0.039228402 0.05494818
-0.01549822 0.016402215 -0.022847557 0.1000895 -0.0007177252 -0.021593457 -0.036150023 0.024581833
-0.08379301 0.05833898 0.023476163 0.009103463 0.107461646 -0.20677687 -0.21201628 0.019182196
0.12160821 -0.14745782 -0.27430186 0.0834898 -0.06358835 0.0596963 0.0048938207 -0.022467552

con2.1.bias f4 [4]
00000000: aaef 8cbd 1161 323e 0e87 483d 8f73 083e
-0.0688165 0.1741984 0.048956923 0.13325332

con2.2.weight f4 [4]
00000000: 9a93 6e3f fbc6 283f 4d75 7b3f 1dff 023f
0.9319397 0.6592862 0.9822586 0.5117052

con2.2.bias f4 [4]
00000000: 3789 82bf 845b d13f 8382 ec3f bca2 8e3f
-1.0198125 1.6356053 1.8477329 1.1143413

con2.2.running_mean f4 [4]
00000000: 63eb 8c3f 4181 4ebe a9fe ce3e 6504 c93e
1.1009334 -0.20166494 0.40428665 0.39261165

con2.2.running_var f4 [4]
00000000: e66a 453f 2fa0 a33f 7b9a 8040 3c78 df3e
0.7711624 1.2783259 4.0188575 0.4364642

con3.1.bias f4 [4]
00000000: 9cb6 903d 6cb7 c63d 7565 ecbc 1179 8ebd
0.0706608 0.09702954 -0.028856972 -0.06956685

con3.2.weight f4 [4]
00000000: 30f9 b53f 838e dd3f e44b c23f 2e60 ae3f
1.4216671 1.7309116 1.517941 1.3623102

con3.2.bias f4 [4]
00000000: 0e78 3abf d978 893e d704 3cbf 0570 473f
-0.7283944 0.26850012 -0.73444885 0.77905303

con3.2.running_mean f4 [4]
00000000: beb3 5d3f bddc fcbf 2600 7cc0 cbe1 b640
0.8660239 -1.9754864 -3.937509 5.7150626

con3.2.running_var f4 [4]
00000000: 3349 d33f a3e9 4e40 b9c2 9b3f ac6b d03f
1.6506714 3.23301 1.21688 1.6282859

con4.1.bias f4 [4]
00000000: bfe4 c9bc aa45 4b3c 23cc b8bd 3bb4 a03c
-0.024645207 0.012406746 -0.09023311 0.01961719

con4.2.weight f4 [4]
00000000: d1b0 b03f 5225 6d3f 3fd8 8d3f 54ae 973f
1.380396 0.9263507 1.1081618 1.1850076

con4.2.bias f4 [4]
00000000: 6833 053f b21d 6c3f 57a9 143f ba73 a6be
0.52031565 0.9223281 0.5807089 -0.32510167

con4.2.running_mean f4 [4]
00000000: b9fd 0ac0 c220 283f 4478 fc3f 3520 f7be
-2.171736 0.65674984 1.9724202 -0.4826676

con4.2.running_var f4 [4]
00000000: b247 9940 089e b640 5616 1241 51ec 5140
4.790002 5.706791 9.130453 3.2800486

con5.1.bias f4 [4]
00000000: 6f5c 753d 119e 8dbd f26e 85bd 28ab c33d
0.059902605 -0.069149144 -0.06515302 0.0955413

con5.2.weight f4 [4]
00000000: ac71 593f 785b 803f f3b3 703f 5277 963f
0.84939075 1.0027914 0.9402458 1.1755164

con5.2.bias f4 [4]
00000000: b993 043d 6928 58bd d675 a0bd 9170 8c3d
0.03236744 -0.052772913 -0.078349754 0.06857408

con5.2.running_mean f4 [4]
00000000: 3ecc 3a40 c17f 98bf c577 dfbf ec8c c0bf
2.918716 -1.1913987 -1.7458426 -1.5043006

con5.2.running_var f4 [4]
00000000: 28c1 9840 56fd f240 29f7 9f40 50ea e740
4.7735786 7.593425 4.998921 7.2473526

RCAB1.body.0.0.weight f4 [4, 1, 3, 3]
00000000: 708d 013e 0f75 063f bfe7 ad3e 167d 3ebd
00000010: 8a17 d73e 1288 0b3e 261a 5c3e 02e1 b53d
00000020: 9ae7 583e de63 75be 266c ca3e 046d 07be
00000030: 700e 873d f811 1e3e a63e b5be c1a1 97be
00000040: ed13 b9bd 9a3c 8abe 3cc4 09bf 24f6 42be
00000050: 4a83 95be 6e35 ef3d a920 87bd 98c0 113c
00000060: ef72 edbd e9f5 a33e 1935 78bd b119 b2be
00000070: 04d3 bebd c829 adbe 7bc0 c0bd 494c 073e
00000080: de5b 9abe 538f 90be 705b 98bd 6e15 afbe
0.1265161 0.5252237 0.3396587 -0.04650601 0.42010146 0.13626125 0.2149435 0.088808075
0.21182099 -0.23963878 0.39535636 -0.1322518 0.065945506 0.15436542 -0.3539936 -0.29615596
-0.09037004 -0.2699936 -0.53815055 -0.19039208 -0.29201728 0.11680113 -0.06598026 0.008896016
-0.115941875 0.32023552 -0.060597513 -0.34785226 -0.09317592 -0.3382094 -0.09411713 0.13212694
-0.30148214 -0.28234348 -0.07439315 -0.34196037

RCAB1.body.0.0.bias f4 [4]
00000000: 61b3 a7bd 0127 46be e22b 15be ad99 b5bd
-0.08188511 -0.19350816 -0.14567521 -0.08867202

RCAB1.body.0.1.weight f4 [4]
00000000: 259f a03f 3c13 823f a603 823f 1c6f 7a3f
1.2548567 1.016212 1.0157363 0.9782579

RCAB1.body.0.1.bias f4 [4]
00000000: 3e3d 0bbd a916 8abd 5258 a5bd aab3 533d
-0.033993952 -0.06742603 -0.080734864 0.051685013

RCAB1.body.0.1.running_mean f4 [4]
00000000: 6355 e13e bfb0 aabe 08cf 96be 411f 1dbf
0.44010457 -0.33337972 -0.29454827 -0.61375815

RCAB1.body.0.1.running_var f4 [4]
00000000: d4f1 323f ef6a 383e 03f2 213e c61c 2c3f
0.6990025 0.18009542 0.15814976 0.67231405

RCAB1.body.0.2.bias f4 [8]
00000000: 44d0 2a3d 87ef a3be acab e43d 451f 2c3e
00000010: caec 67be 4c4a 99be 9d1a 65be d243 073e
0.041702524 -0.32018682 0.11165556 0.16808803 -0.22648922 -0.29939497 -0.22373433 0.13209465

RCAB1.body.1.weight f4 [8]
00000000: 4f31 1e3f b1af 0b3f 1e63 d83e 5220 d93e
00000010: 20e3 ee3e 4639 bd3e e26d 993e 5e1e 293f
0.6179399 0.5456496 0.4226312 0.4240747 0.46657658 0.3695776 0.29966646 0.6606196

RCAB1.body.1.bias f4 [8]
00000000: b043 923e cec5 b83e 7b6c f03e a8bf e73e
00000010: 4e3b d9be 958a 073f cdb6 163f 4908 543e
0.28567266 0.36088413 0.46957764 0.4526341 -0.42428058 0.52945834 0.5887268 0.20706286

RCAB1.body.1.running_mean f4 [8]
00000000: f3f8 933d 8aca 73be 4e0c 273e 2a62 093e
00000010: b74b 62be 6f05 a9be deda 91be d549 073e
0.07225218 -0.23807731 0.16313288 0.13416353 -0.22099195 -0.33011958 -0.28487295 0.13211758

RCAB1.body.1.running_var f4 [8]
00000000: 5b3c 273f 7b80 703e c7e9 4d3f 398e fb3e
00000010: 2ef8 1e3e 79ab c43e ba17 f13e c658 9f3e
0.6532647 0.23486511 0.8043484 0.49131945 0.1552436 0.38412073 0.47088414 0.31122416

RCAB1.body.3.0.weight f4 [8, 1, 3, 3]
00000000: 1338 6e3e f008 a03e 914c 613e 53d1 ec3d
00000010: 9837 8c3d 832e f4bc acb5 eb3e 542d 09bd
00000020: eaee 543e e739 a3bd 4f09 69be 5c51 1abe
00000030: b90a 26be 11bd bebe f256 ecbd 3b4d 7abe
00000040: 7fcb e2be 998e 17be ad9b edbe 1016 9b3e
00000050: 871e 6bbe 4610 42be 7fbd 373e dc14 2d3b
00000060: 61b3 fbbd e697 6d3e 9849 8ebd c26a 02be
00000070: 6cf0 02be acd4 81be 11e4 91bd 1ca9 bfbd
00000080: 8350 8abd 7c96 c2be d186 fbbd e843 8ebe
00000090: f1a9 bc3e 2783 033f c04e bb3e a05a b23d
000000a0: ea12 1bbe 5cb3 473d ef68 de3d 9df0 ef3d
000000b0: 8281 0e3e f7c9 c0be efd6 a5bd 2bb5 07bf
000000c0: 892a acbc 2598 3e3d 4e9e 86b9 3791 32bd
000000d0: 7a21 823d f396 8fbd f7fb f83e f709 793c
000000e0: c9ea 033f 8d5f 83bd 5b54 7f3e 333c 38bd
000000f0: 480c 963d 777f 03be 506c 873e 29bd 003e
00000100: f269 37bd 04f9 883e 4c5c 1bbd dba7 8abe
00000110: 6d1b 26be 919e 323e 4334 89bb 97a7 dc3d
0.23263578 0.3125682 0.22001864 0.11563363 0.06846541 -0.029807335 0.46037042 -0.033490494
0.20794263 -0.07970028 -0.22757457 -0.15070099 -0.16215028 -0.3725362 -0.11540021 -0.24443524
-0.4429588 -0.1480049 -0.46407834 0.3029027 -0.22960864 -0.1895152 0.17943381 0.0026410138
-0.12290073 0.23202476 -0.06947631 -0.12736037 -0.12787026 -0.25357568 -0.07123578 -0.09358427
-0.06753638 -0.38005435 -0.122815736 -0.27786183 0.36848405 0.51372 0.3658352 0.087086916
-0.15143934 0.048755035 0.10859858 0.11715815 0.13916591 -0.37654087 -0.08097636 -0.53010815
-0.021016376 0.046531815 -0.00025676418 -0.04359552 0.063540414 -0.07011213 0.48629734 0.01520013
0.5153013 -0.06414709 0.24934523 -0.044979285 0.07326561 -0.12841593 0.26449823 0.12572159
-0.04477877 0.26752484 -0.037929818 -0.2708119 -0.162214 0.17443301 -0.0041871383 0.10774153

RCAB1.body.3.0.bias f4 [8]
00000000: 58dd 233e 3ee0 a13e f6d3 8d3c cacc 023d
00000010: 5e08 95be b528 363e 442a 2b3e 1baa 753e
0.16002405 0.31616396 0.017312985 0.031933583 -0.29107946 0.17788966 0.16715342 0.23990671

RCAB1.body.3.1.weight f4 [8]
00000000: bf6f 7d3f cb90 913f 6928 833f 74ca 9e3f
00000010: 0554 7d3f 1941 863f 43af 3f3f 5496 253f
0.98998636 1.1372312 1.0246707 1.2405534 0.9895633 1.0488616 0.74876803 0.6468251

RCAB1.body.3.1.bias f4 [8]
00000000: caa9 66bd 788a 203c 81bd 703d 2a19 a33c
00000010: 25bc 2cb9 6b87 c33b 49c4 eabb ac75 54bb
-0.056314267 0.0097986385 0.058774475 0.01990946 -0.00016473288 0.005967071 -0.0071645123 -0.003241877

RCAB1.body.3.1.running_mean f4 [8]
00000000: a7b1 313f 5e2c d8be 28fd a5bd ee3d 13bf
00000010: d1e6 69be 189b 79be 251a 513f cf55 843e
0.694117 -0.4222135 -0.08104926 -0.5751637 -0.22841956 -0.2437557 0.8168052 0.25846717

RCAB1.body.3.1.running_var f4 [8]
00000000: dfd3 8b3e 6f8d 813e 0bec 3e3d 1853 803e
00000010: 0bbf 9b3c ff2f 013e 5d23 193e 62d4 203d
0.27310082 0.25303218 0.046611827 0.25063396 0.019011995 0.12615965 0.14954896 0.039265044

RCAB1.body.3.2.weight f4 [4, 8, 1, 1]
00000000: da73 6dbe 4637 20bf 9fa0 173b 3b24 ef3d
00000010: cd1f 63bd 77ce 1cbe 7d18 82be 1a41 9fbd
00000020: 79cb 6d3e e7aa c7be 51db 0bbe 3c5f 263f
00000030: 60a2 8bbe 8983 1ebd 9b91 04be c09c 5ebe
00000040: 5001 283e 4886 423e 06f3 e4be 6174 a93e
00000050: 4c47 ebbd dd2e 43be 2635 6abe e134 293e
00000060: 390d a3be 1a48 683e eccc 243e 355c 22be
00000070: 9582 37bc c2cd 8c3d ed13 073e f1fa 163d
-0.23188725 -0.6258434 0.002313651 0.11676832 -0.05545025 -0.15313135 -0.25409308 -0.07776089
0.2322215 -0.38997576 -0.13657881 0.64989066 -0.2727232 -0.03869966 -0.12946169 -0.21739483
0.1640675 0.18996537 -0.44716662 0.33096603 -0.11488208 -0.19060846 -0.22871837 0.16524078
-0.31846026 0.22683755 0.16093796 -0.15855487 -0.011200567 0.06875183 0.13191195 0.03686041

RCAB1.body.3.2.bias f4 [4]
00000000: a7be 96bd 0baf 973e 3541 183d b477 0ebe
-0.07360583 0.29625735 0.03717156 -0.1391285

RCAB1.body.4.weight f4 [4]
00000000: e939 a53f fe26 6c3f 937e 753f 45e5 8a3f
1.2908298 0.92247 0.9589626 1.0851218

RCAB1.body.4.bias f4 [4]
00000000: 7a3a e93e 72d4 18bd 8c6d 663e f9e6 033f
0.45552427 -0.03731198 0.22502726 0.5152431

RCAB1.body.4.running_mean f4 [4]
00000000: a907 83bd 5eb3 913e 9f78 253c 2004 e7bd
-0.063979454 0.2845716 0.010099559 -0.11280084

RCAB1.body.4.running_var f4 [4]
00000000: ef2e f23e 2824 e43f f976 c83e 03eb fd3e
0.47301432 1.7823534 0.3915327 0.49593362

RCAB1.body.5.conv_du.0.bias f4 [8]
00000000: 891e e73e e258 b63e a379 923e 9952 db3d
00000010: 42b1 e23d 403a 76be 5530 f6be fb8f 15bf
0.45140484 0.35614687 0.28608426 0.10709114 0.110689655 -0.24045658 -0.4808375 -0.5842282

RCAB1.body.5.conv_du.2.weight f4 [4, 8, 1, 1]
00000000: 5d4b cabe 0fdf 97bd 47bb b6be 9742 273f
00000010: b6d4 3e3e 2759 b0be 666f b7be 16e2 1b3e
00000020: 3ed9 6fbe b3fa 41bf 17e0 67be 781f 0f3f
00000030: a5f4 1b3d c0ab 9ebe b987 92be 1cbf a03e
00000040: b2d4 7c3d 64f4 1ebf f34f a93e 2d38 2fbf
00000050: 96dc c2be 9d1d a8be 2eed b73e 1385 293d
00000060: 2447 833e 1e89 183d 37e4 82be c050 bf3e
00000070: 4968 323e 52c4 a6be d4ae dfbd d2c3 08bd
-0.39510623 -0.07415592 -0.35689756 0.65335983 0.1863583 -0.34443018 -0.35827178 0.15222964
-0.23422715 -0.7577316 -0.22644077 0.5590739 0.038075108 -0.3099041 -0.28619173 0.31395805
0.06172628 -0.6209166 0.3306881 -0.6844509 -0.3805892 -0.32835093 0.3592314 0.041386675
0.25640213 0.03724014 -0.2556474 0.37366295 0.17422594 -0.32571656 -0.10922018 -0.033389874

RCAB1.body.5.conv_du.2.bias f4 [4]
00000000: 25db e23d 8766 9dbe 4407 6fbe 825e 49be
0.11076955 -0.30742285 -0.23342615 -0.19664958

decon4.0.bias f4 [4]
00000000: 1c4a 053f d50f 5bbe ce3a 543e fe57 99bd
0.52066207 -0.21392758 0.20725557 -0.07487486

decon4.3.bias f4 [8]
00000000: 7aa8 e5bc 4c0b d8bc 11d8 d1bd e38a df3c
00000010: 697d d6bb bd7a 74bd aeec cebb 8fea 1b3d
-0.028034437 -0.026372574 -0.102462895 0.027287906 -0.006545712 -0.059687365 -0.0063148355 0.03806549

decon4.4.weight f4 [8]
00000000: e6cf 9b3f 0106 7c3f de3f 583f f478 023f
00000010: ad2e 383f b517 f73e b391 243f cc70 2c3f
1.217282 0.9844666 0.84472454 0.5096581 0.7194622 0.48260275 0.6428482 0.67359614

decon4.4.bias f4 [8]
00000000: f5c9 8d3e ee84 a03e d1e0 aebd d6f5 e2bd
00000010: e3cf 5f3e 89f5 413e 4d03 b63d 0899 03be
0.27693143 0.31351417 -0.08538974 -0.11082046 0.21856646 0.1894132 0.08887348 -0.12851346

decon4.4.running_mean f4 [8]
00000000: d4a7 a5be 781f 57bf 2fc8 babd 7310 0cbf
00000010: 4885 dfbe 6cfa 00be f143 83bf 69b4 e9be
-0.32354605 -0.8403239 -0.09120213 -0.547126 -0.43656373 -0.12595528 -1.0255109 -0.45645455

decon4.4.running_var f4 [8]
00000000: 347f c53e 90dd ce3e b75b 743d 2620 363f
00000010: 67fc 273e 4422 063f f166 c63e f3cb 153e
0.3857361 0.40403414 0.05965778 0.71142805 0.16404878 0.52396035 0.38750413 0.14628582

RCAB2.body.0.0.weight f4 [12, 1, 3, 3]
00000000: f32b a2be 23cb 87bd 476c 42be 6e77 5e3e
00000010: eaca 04bf 0bca a3bd e4e3 61be 55ce 213d
00000020: 14f4 7fbe 95eb d33d 4489 13be 842e 643c
00000030: acc8 93be 76df 11bf e6b4 5fbc 2996 85bc
00000040: a35d 5bbe cd21 38be b2f7 34be 5609 86be
00000050: b470 3fbb b13a 50be e7ce 8fbe cce1 65be
00000060: b387 89be c649 da3d 90cb 01be 9751 0ebe
00000070: 12e9 2ebe 08b1 813d 937f 6bbe 7b45 77be
00000080: 6093 61be df03 93bb bfae f5bd 0507 f2bc
00000090: 5043 653e bbc0 32bc 5519 553d 7b67 8d3e
000000a0: 8765 fd3d 1c6a 193f f784 7b3e ab48 193e
000000b0: bd83 dfbc 1dbc 2ebe afb1 a43e 2067 c9bd
000000c0: 34c5 293e 44e4 e73e 0840 82bd 7a48 50bd
000000d0: d776 0dbe 53d6 263d 7a8b 10be 0e5d 48bd
000000e0: 9329 5fbc d86a 33be 6b6f 09bb 8fe2 9dbe
000000f0: dd67 44be 0e7b cebd 297a 81be 602c 74bd
00000100: 261a cd3d 9eef c4bd 9610 a3bd e397 12bf
00000110: 217d d6bb 095f 1cbd 58a3 cf3c e8f6 c8bd
00000120: 1fae 8d3c 7db2 9cbd 0eee 01bd 0671 2abe
00000130: 4172 083f 3146 8d3e 011a 1d3d 54fd 333e
00000140: 0e66 4abd 2dd7 6bbc 65e4 1ebd cbcf 653d
00000150: 3331 303d fed4 40bf f211 d6bd 47dc babc
00000160: 22da 063d 44a0 863d 2c04 30bd c0c9 863e
00000170: 6905 933c 24aa d93d 9253 183f 8732 c73d
00000180: a2e0 58bc 2ff8 2f3e c95f ebbd 7800 2a3d
00000190: a456 0fbd ad4c cdbd 6634 28be 2cef 083f
000001a0: 338c 193e 7053 59bb 62e8 ae3d 27c2 02be
-0.31674156 -0.06630542 -0.18986617 0.21725246 -0.5187212 -0.07997521 -0.2205959 0.039503414
-0.24995452 0.10347668 -0.14407831 0.013927106 -0.28864038 -0.569816 -0.013653969 -0.016306954
-0.21422438 -0.17981644 -0.17672613 -0.26178998 -0.0029211463 -0.20334889 -0.2808754 -0.22449416
-0.26861343 0.106586024 -0.12675309 -0.13898312 -0.17081097 0.06332594 -0.22997884 -0.24147598
-0.22028875 -0.0044865455 -0.11996221 -0.029544363 0.22388959 -0.010910208 0.05202611 0.27618012
0.123728804 0.59927535 0.24562441 0.14969127 -0.027284497 -0.17063947 0.32166812 -0.09834123
0.16579133 0.4529134 -0.06359869 -0.05085037 -0.13814865 0.04073174 -0.14115706 -0.04891687
-0.013620752 -0.17521226 -0.0020970951 -0.30836913 -0.19180246 -0.100820646 -0.25288513 -0.05961263
0.10014753 -0.09616016 -0.07962148 -0.5726301 -0.0065456782 -0.03817657 0.025346443 -0.09812719
0.017294941 -0.076512314 -0.031721167 -0.16644678 0.5329934 0.27592614 0.038354877 0.17577106
-0.049413733 -0.014394564 -0.038792033 0.05610637 0.04301567 -0.75325 -0.104526415 -0.022810115
0.03292287 0.06573537 -0.04297273 0.26325798 0.017946916 0.10628155 0.5950252 0.09726434
-0.01323715 0.17184518 -0.11492879 0.041504353 -0.034994736 -0.1002439 -0.16426238 0.5348995
0.14994888 -0.0033161305 0.08540417 -0.12769376

RCAB2.body.0.0.bias f4 [12]
00000000: 1b18 003e ce57 8ebe c596 153e 5a31 91be
00000010: ead5 a5be 7b69 b33e 8b49 6dbd f82b 4bbd
00000020: eb82 c2bd b9c2 c83c 67e4 8d3e fec0 8cbc
0.12509196 -0.27801365 0.14608295 -0.28357965 -0.32389766 0.35041413 -0.057931464 -0.04960248
-0.09497627 0.024506913 0.2771332 -0.01718187

RCAB2.body.0.1.weight f4 [12]
00000000: 3639 813f 31f5 7a3f 666a 7f3f d269 883f
00000010: 41b2 733f 6c7c 8b3f 3299 703f 24e9 653f
00000020: 536c 673f afd0 a23f 4081 953f 6b87 673f
1.0095584 0.9803038 0.99771726 1.0657294 0.9519387 1.0897346 0.9398376 0.8980887
0.90399665 1.2719935 1.1680069 0.90441006

RCAB2.body.0.1.bias f4 [12]
00000000: e01f dabb 29ac 85bb fa2e 55bb 69fa 8bba
00000010: 9555 8fbb 735a de3b 4ddb d03b 0578 1a3b
00000020: 2c7d 24bb 7e62 483c a8fe 41bb 4bdf b7bb
-0.006656632 -0.004079361 -0.003252922 -0.0010679486 -0.004374216 0.0067856847 0.006373799 0.0023570072
-0.0025099022 0.012230514 -0.002960125 -0.0056113354

RCAB2.body.0.1.running_mean f4 [12]
00000000: 9b7a 16bf 4704 75bf 1d50 40be 979a d8be
00000010: 7ca9 903e f2c6 fe3e 689d bcbe baca 4fbe
00000020: d552 f33e d6c5 2ebf c50b 843f d1dd 4e3d
-0.5878083 -0.9570965 -0.18780561 -0.42305443 0.28254306 0.49761158 -0.3683884 -0.20292178
0.47524133 -0.68270624 1.0316092 0.05050451

RCAB2.body.0.1.running_var f4 [12]
00000000: 6c9d 803f 9918 2a3e d9cd 903e c666 a03c
00000010: b13e 623e 6607 383d 263e ca3d 6942 0b3d
00000020: be7b c13e 5d0d df3e b6d1 5a3f e10f c83d
1.0048041 0.16610946 0.2828205 0.019580256 0.22094227 0.04492893 0.09875135 0.03399888
0.3778972 0.43564883 0.85476243 0.09768654

RCAB2.body.0.2.bias f4 [8]
00000000: c83f 933d 2976 3e3d 4f14 503c 7e0e 2fbd
00000010: 2bab a23c 9ca6 9c3c 2063 1f3e 82e2 403e
0.071899 0.046499405 0.012700154 -0.04273843 0.01985701 0.019122414 0.15565157 0.18836406

RCAB2.body.1.weight f4 [8]
00000000: 06e6 613f 93b7 183f f2f5 8f3e 06f7 1d3f
00000010: 8baf 2c3f 2112 653f 562d 343f 8890 323f
0.8824161 0.5965511 0.2811733 0.6170505 0.6745536 0.8948079 0.7038168 0.6975179

RCAB2.body.1.bias f4 [8]
00000000: 9226 8bbc 9def b83e a4d1 1f3f 379c a93e
00000010: 52a1 283e b761 0ebd 3115 783e 5db2 673e
-0.016986165 0.3612031 0.6242926 0.33126995 0.16467789 -0.034761157 0.24226834 0.22626634

RCAB2.body.1.running_mean f4 [8]
00000000: a764 a03d 9127 323d f786 983c 461b 3dbd
00000010: 948a d63c a10c 683c 8fed 213e 9b72 3a3e
0.07831698 0.043494765 0.018619044 -0.046168588 0.026189126 0.014163167 0.15813278 0.18207781

RCAB2.body.1.running_var f4 [8]
00000000: 79a1 633f cb29 0e3f 97ee d13f 3ab4 d73e
00000010: 50c9 1a3f 71fe 303f d1fa 4a3e bf39 0b3f
0.8891826 0.5553252 1.6400937 0.4212969 0.6046343 0.69138247 0.19822241 0.5438499

RCAB2.body.3.0.weight f4 [8, 1, 3, 3]
00000000: 06d9 383e eb3a bfbe 80ac 37bd 25ec 17bf
00000010: 33c6 95be a397 35be 8b6d 1c3e e07d 473d
00000020: b7ac 86bd 81df 403e 7e14 3fbe 19eb 483d
00000030: 09c2 bfbd e3d7 47bf 311d 5e3c 9789 673d
00000040: 6709 e3bb 2374 983b 59be 0b3d 1cd7 edbd
00000050: b565 193d 3bce b4bd d4a5 28bf b6c9 a0bd
00000060: 5e00 fa3c 1e17 9abd 1263 8c3c f793 86bd
00000070: 417d 6e3e fb7d de3d 7db0 be3e 2395 ae3e
00000080: 7990 b3bc c048 f2bd 2ac0 713e 931f 213e
00000090: eeea 4a3e b78d b83e 673d 093d d886 16bd
000000a0: 9031 d03d 555f 23be 98e5 38be 92eb f73d
000000b0: 4748 b6be 5e85 b33d 6b3c cc3d f48d f13d
000000c0: ab96 8a3e 3e95 1a3e 1f1d 683e 4e3f 623e
000000d0: 4935 923d 2e18 0d3f dcae 85be 2e82 69be
000000e0: 074d 77be b3f9 cbbd 13b8 b9be 07ec 88bc
000000f0: 7399 8abe 9c8d f13d c8a2 b6be 6afd e2bd
00000100: 2294 b7be e29d 82bb fd68 51be 2ef0 20bf
00000110: f6d9 39be f842 aa3d 9dae f4be 5f26 37be
0.18051538 -0.37349638 -0.044842243 -0.593447 -0.29252777 -0.17733626 0.15276162 0.048704028
-0.065759115 0.1883526 -0.18660161 0.04905233 -0.09363181 -0.7806379 0.013556764 0.0565277
-0.006928611 0.0046525165 0.034117077 -0.116132945 0.03745051 -0.08828398 -0.65878034 -0.07850973
0.030517753 -0.075239405 0.017137084 -0.06571191 0.23289968 0.108638726 0.37244025 0.34098157
-0.021919476 -0.11830282 0.23608461 0.15734701 0.19816181 0.3604562 0.033505823 -0.03674969
0.10165703 -0.15954335 -0.18056333 0.12105478 -0.35602018 0.08765672 0.09972461 0.117946535
0.27068076 0.15095994 0.22667359 0.22094461 0.071390696 0.5511502 -0.2610997 -0.22803566
-0.24150477 -0.09959736 -0.3627325 -0.01671411 -0.27070197 0.11794588 -0.35671067 -0.11083491
-0.35855204 -0.0039861063 -0.20450206 -0.62866485 -0.18149552 0.083135545 -0.4778947 -0.17885731

RCAB2.body.3.0.bias f4 [8]
00000000: 7214 173e 387c 86be 7f87 9cbd b97b 6ebc
00000010: 8800 df3d 33e3 9ebd f2c8 453e b6d7 45be
0.14753893 -0.26266646 -0.07643031 -0.014555865 0.10888773 -0.077581786 0.19314936 -0.19320568

RCAB2.body.3.1.weight f4 [8]
00000000: b7af 9c3f 16d2 903f 6a4e a73f e5e1 923f
00000010: 8e0d 2f3f 92a4 413f 3b15 723f 4578 543f
1.2241124 1.1314113 1.3070805 1.1475188 0.6838006 0.7564174 0.94563645 0.82996017

RCAB2.body.3.1.bias f4 [8]
00000000: ac2e d33b 5dc2 b2bb 1f93 c5bc 2a55 b13b
00000010: e8f3 c0bb 1e3f 3abc 8bd7 32bc 316e 443b
0.0064447727 -0.005455299 -0.024118004 0.0054117637 -0.005888451 -0.011367587 -0.010915647 0.0029972906

RCAB2.body.3.1.running_mean f4 [8]
00000000: 999b 6bbe 7556 1bbf 19fc 21bf ae1c 043f
00000010: dc2a 0d3e 6a26 f43e d19b dabe 1253 77bf
-0.23008575 -0.606788 -0.63275295 0.5160626 0.13785881 0.47685558 -0.42697003 -0.9661113

RCAB2.body.3.1.running_var f4 [8]
00000000: 546c fc3d b86a 123e 43f0 663d d089 203e
00000010: 2c8b d33d b7ce 133f 1193 8f3e 3ef3 ac3e
0.123253495 0.14298522 0.056381475 0.15677571 0.10329279 0.57737297 0.2804189 0.3377933

RCAB2.body.3.2.bias f4 [12]
00000000: 2d42 f3bc 7049 41be c1cd 1dbe 625b 5d3d
00000010: 2934 d5bd 668c 56bd 5c28 d8bc ddc1 aabc
00000020: fdeb d7bd 338f 55be a2eb 863c f8b0 d4bd
-0.029694641 -0.1887567 -0.1541052 0.054042228 -0.104103394 -0.052379988 -0.026386432 -0.020844394
-0.10543058 -0.20855407 0.01646978 -0.103853166

RCAB2.body.4.weight f4 [12]
00000000: e10f 3e3f 23fa 863f b51d 7e3f 5719 6b3f
00000010: 6c7d 6e3f 9b05 573f f098 5f3f 8532 663f
00000020: a8f4 483f cc9d 7f3f ff09 313f e6ee 333f
0.7424298 1.0545086 0.9926408 0.9183554 0.9316013 0.8399293 0.8734274 0.89920837
0.78498316 0.99850154 0.6915588 0.70286405

RCAB2.body.4.bias f4 [12]
00000000: d004 9f3e 4071 923e d21b e93d a33c fa3c
00000010: 5304 8d3e e215 053f eaea 283f f4aa bebe
00000020: f52b bc3e 74e8 3fbe 4465 b5be 7349 4cbe
0.3105836 0.28602028 0.113822594 0.030546492 0.27542362 0.51986516 0.6598345 -0.37239802
0.36752287 -0.18741018 -0.35428822 -0.19949894

RCAB2.body.4.running_mean f4 [12]
00000000: 6bbe 11bd 2046 33be 1407 21be 2ca4 6a3d
00000010: 2649 ccbd d8b2 56bd a0bd c3bc a34f 0fba
00000020: 8f5a c7bd bec1 4ebe f050 073c cf5f debd
-0.035581987 -0.1750722 -0.15725356 0.057285473 -0.099748895 -0.052416652 -0.023894131 -0.0005466884
-0.097340696 -0.20191094 0.008259043 -0.10858118

RCAB2.body.4.running_var f4 [12]
00000000: 0a91 dc3e c2f3 243f 2592 e93e 7219 ac3e
00000010: c13d c33e 882e de3e 560a 033f 0584 563f
00000020: a3f0 b23e 0329 813f 5e76 0c3f b1d2 f43e
0.43079406 0.64434445 0.45619312 0.33613163 0.38133052 0.43394876 0.51187646 0.83795196
0.34949216 1.0090641 0.54868114 0.47816995

RCAB2.body.5.conv_du.0.bias f4 [16]
00000000: 0ac3 013f da18 c23e 9b2e 943e e379 1f3f
00000010: 9672 10be f953 3dbe ee94 cbbb e9e2 f03c
00000020: 7e3c 003e f8c3 f1bd f864 d23e c657 d83e
00000030: 0e9b febd 1b22 2e3d bf6c 24be 9fd3 803e
0.5068823 0.37909585 0.28941807 0.6229536 -0.14106211 -0.18489064 -0.006212822 0.029405074
0.12523076 -0.11804956 0.41092658 0.42254466 -0.12431918 0.042512994 -0.16057108 0.25161454

RCAB2.body.5.conv_du.2.weight f4 [12, 16, 1, 1]
00000000: 5f2f 083d 2eec c1be e8b0 b7bd 8079 e0be
00000010: 5bf8 9b3e 63d1 243b 2240 583e 59f0 76be
00000020: 41a3 ed3c 0fe8 afbe 3131 b1bd 7920 48be
00000030: 531c 353e c057 3ebd 86ed 04bd 531c 52be
00000040: 3867 6dbe 899c 81be c65a 4abe 8ccd 963e
00000050: d9aa 0dbd 4afa 97be 45c9 cd3d f315 8ebe
00000060: 71de 9c3d d80f 5cbd 5001 23be 407f 003f
00000070: 6e03 163e ffc7 42be 3e78 fb3c 0b91 a1bd
00000080: a46e d1bc 3b64 2ebf 95b5 7e3e 33f8 e3bd
00000090: c82c 633d df13 85bd 622c 86be 09e5 02be
000000a0: be5c e73d 57e8 68be 064f 9dbe ef40 92bd
000000b0: c72e 20bd 3972 51bd dbdc 7a3d d719 0bbe
000000c0: eb59 d8be 0670 c83d 7649 f2bb 3dab 54be
000000d0: 889e f73e da75 573e 41f1 833d 3cc6 b93d
000000e0: 8d43 a3be f81a 1f3e 038c a9be a0a1 d73d
000000f0: 9b37 3cbd 482c a1be 4d08 b83e ac49 033e
00000100: e5cb 96bd f04b a83d a278 9f3e ec8c d9bd
00000110: f7c7 0cb9 feb3 ca3e 7b3b a7bb d2f6 4a3e
00000120: 9206 6c3e ab0d bebe ea9f 213e 72cd f6be
00000130: 9a69 9f3e ea45 9e3c c5f6 1fbb 86d9 98be
00000140: d545 473b b712 9fbe 6875 2bbf aa50 233e
00000150: 1423 2c3f 61ed 623e 8bbc d2be 3d5a 3ebe
00000160: 8267 fd3d ef69 c33e 1e5a 04bf 6783 a93c
00000170: 8f71 173e afa1 74bc cd7e d1be 70e4 babd
00000180: 93d0 09be 2c2e 09bf 7558 363e 3687 c8be
00000190: 199e b83d ee5d e4bd 45cc 33be b80c a1bc
000001a0: e9de ad3e 88a8 513e 68fa 2bbe e9db 453e
000001b0: ee1e 343d d887 dbbc da5b 9f3d 8209 37be
000001c0: 022e b3be 29e8 953b 08d1 2dbd e8e2 423d
000001d0: 2044 b73e 9939 83bc 213e a93c 8ff3 663e
000001e0: 660a 08be 2292 aa3e d79c 063e d01a a3be
000001f0: 2bd3 7b3d 9d21 5bbe c755 4bbe 6b41 b8bb
00000200: 9484 e0be a163 c9bd 3c7b 05be c038 1ebd
00000210: 1494 9d3e 5ffe 293d 3070 183e 3480 98be
00000220: e441 57bc 1eb6 853e 584c abbe 9656 ca3e
00000230: e36d 3ebe 6b6f f23c 4374 993e 6d40 14be
00000240: 4043 36bc b466 72bc 7d52 a6bd 0ba5 3b3d
00000250: c728 babe efe9 b03e ea4e 5ebe 45ae 17bc
00000260: 5662 203d 5f30 d4bd e6fd 463b 06c2 373d
00000270: 2f67 a0be 138f a3bd eb4d 803b 5559 e23c
00000280: e127 0bbf 30f2 673e fb5c 4a3e a5d9 40bf
00000290: da2d 033f 21aa b73e 954a 4d3e d509 1c3c
000002a0: e270 eabd 502b 21be cdcb 103e 98d9 27be
000002b0: 14af c6bd 4e27 c9bd a2ac 85be 064e b5bd
000002c0: 1739 b43d 2684 1e3e 0993 203e 5810 10bf
000002d0: 4839 61be 7cf5 693e cb5d 97bc 5ded fdbc
000002e0: 449f 23bf 465a 08be 6593 5cbd 8ba7 3fbe
000002f0: 5c60 21bd 59eb 0fbf b0bc c0bb 18be 21bf
0.0332483 -0.37875503 -0.08969289 -0.43842697 0.30462918 0.0025149218 0.21118215 -0.24115123
0.02900851 -0.34356734 -0.08651961 -0.19543637 0.17686586 -0.046470404 -0.032453083 -0.20518617
-0.23183906 -0.2531474 -0.1976119 0.29453695 -0.03458676 -0.29683143 0.10048155 -0.2775112
0.07659615 -0.053726047 -0.1591847 0.5019417 0.14649746 -0.19021605 0.030696984 -0.07888993
-0.025565453 -0.6812169 0.24873956 -0.111313246 0.05546263 -0.06497931 -0.26205736 -0.12782682
0.11296986 -0.2274488 -0.30724353 -0.07141291 -0.03910711 -0.05113432 0.06124578 -0.13584076
-0.42256102 0.09786992 -0.007394011 -0.20768447 0.48363137 0.2104105 0.064425 0.09071013
-0.31887475 0.15537632 -0.33114633 0.105288744 -0.045951467 -0.31479096 0.35943833 0.12821072
-0.073631085 0.08217609 0.31146723 -0.10622582 -0.00013425933 0.39590448 -0.005103526 0.19820717
0.23049381 -0.37119803 0.15783659 -0.48203617 0.31135255 0.019320447 -0.002440856 -0.29853457
0.0030406613 -0.31068966 -0.6697602 0.1594874 0.67241025 0.22160865 -0.41159472 -0.1858911
0.12373258 0.38166758 -0.5170001 0.02069254 0.14789413 -0.0149311265 -0.40917054 -0.09125602
-0.13458471 -0.5358608 0.17807181 -0.39165658 0.0901453 -0.11150728 -0.17558391 -0.019659385
0.3395913 0.20474446 -0.16794741 0.1932217 0.04397481 -0.026798174 0.07781191 -0.1787472
-0.3499604 0.004574795 -0.042435676 0.047579676 0.35794163 -0.016018676 0.020659508 0.22553848
-0.13285217 0.33314615 0.13145767 -0.31856394 0.061480682 -0.21399541 -0.1985694 -0.005623033
-0.4385115 -0.09833456 -0.13035291 -0.03862834 0.30777037 0.041502353 0.14886546 -0.2978531
-0.013138268 0.26115507 -0.33456683 0.39519185 -0.18596606 0.029594144 0.29971513 -0.14477701
-0.011124432 -0.014794994 -0.08121202 0.045811694 -0.36359236 0.34553477 -0.21709791 -0.009257858
0.03915628 -0.103607886 0.0030363738 0.04486277 -0.31328723 -0.079862736 0.0039155385 0.027630487
-0.54357725 0.22650981 0.19762032 -0.753321 0.5124184 0.35871986 0.20047982 0.0095238285
-0.11447312 -0.15739179 0.14140244 -0.16391599 -0.09701362 -0.0982195 -0.2610827 -0.088527724
0.087999515 0.15480098 0.1568109 -0.5627494 -0.21994507 0.22847551 -0.018477341 -0.030996973
-0.63914895 -0.13315687 -0.053851504 -0.18716256 -0.039398536 -0.5621849 -0.0058818683 -0.63180685

RCAB2.body.5.conv_du.2.bias f4 [12]
00000000: d9a7 ffbc e697 ab3d 0f73 b4be 3999 8c3d
00000010: 53ab e63d e06e 88be 5806 f3bd 2cd2 9abe
00000020: 935d dcbd fa89 8a3c b926 40be def9 89be
-0.031207966 0.08378582 -0.35244033 0.068651624 0.11263146 -0.2664709 -0.11866444 -0.30238473
-0.10760035 0.016911495 -0.18764772 -0.26948446

decon5.0.bias f4 [4]
00000000: f1f4 0c3e 9092 c3be 5d4b 733d 48e5 913e
0.13765313 -0.38197756 0.059398044 0.2849524

decon5.3.bias f4 [4]
00000000: 5cfb 3b3d eba7 a83d 5194 d63c b400 933c
0.04589401 0.08235153 0.02619377 0.017944671

decon5.4.weight f4 [4]
00000000: 75f2 743f ac30 6a3f 041c 783f 83cb 7a3f
0.9568246 0.9148052 0.9691775 0.97966784

decon5.4.bias f4 [4]
00000000: 6e3f b73e 4bd1 1e3f d51d bcbd eda5 a93e
0.3579058 0.62038106 -0.091853775 0.33134404

decon5.4.running_mean f4 [4]
00000000: d861 25c0 082a 0abf fe9f d3bf 4945 48bf
-2.584097 -0.53970385 -1.6533201 -0.7823072

decon5.4.running_var f4 [4]
00000000: b97e 983f d1f2 5e40 4b3a c33f 06fc 473f
1.1913673 3.4835703 1.5252165 0.7811893

RCAB3.body.0.0.weight f4 [8, 1, 3, 3]
00000000: c282 d93d 3bf6 a1bd bbf0 543e 991b 7c3e
00000010: 8ca1 053f 6f18 b93e 59a0 4d3e ac78 a13d
00000020: fb6f e63d db6a 263d 8883 9d3e 0dd1 373d
00000030: 1541 793e 08b6 4ebe d318 b73e 9b4d 713e
00000040: b213 8c3e 1f93 263e 2f8c c9bd 22db 383d
00000050: 10a8 bbbd 664a 40be 77e0 33bf 49b7 5cbd
00000060: ecb9 9abc dde6 0bbd d329 afba 361a 14be
00000070: 077b 03be d653 8bbd 352a 11be 697f 12bf
00000080: 0796 de3d f49b 8ebd 7962 1cbc 95c4 fa3c
00000090: 7dbb f43d 0d6d 31be 08ae 9e3d bec0 7bbe
000000a0: 7bbe 93be ef0d 0dbe 1982 f73d df1f 66be
000000b0: 0ef0 b43d 9818 353e 2224 32be ad11 213e
000000c0: 4402 c0be cb2b 31bf 112e 63be ec88 183e
000000d0: ab46 78be c9dd 043e 0e5d 093d 5a71 2abe
000000e0: 8225 ba3d c806 14be 68fa 373f ced2 29be
000000f0: b49f 483d 2ec4 2fbe 7f59 303d 893e 32be
00000100: b54c 7cbd bf55 8bbd 1cde 6b3e 717c 3e3f
00000110: ec9f 24bd c4b5 28be b695 833d 46c8 b8bd
0.10620643 -0.07908293 0.20794956 0.24619903 0.52199626 0.36151454 0.20080699 0.078843445
0.11251827 0.04062925 0.30764413 0.0448771 0.24341233 -0.20186627 0.35761127 0.2356476
0.27358776 0.1626706 -0.09841191 0.045130856 -0.09162915 -0.18778381 -0.7026438 -0.05388573
-0.018887483 -0.034155715 -0.0013363905 -0.14463124 -0.128399 -0.068031 -0.14176257 -0.5722566
0.10868459 -0.069633394 -0.009544962 0.030611316 0.11949823 -0.17326756 0.077480376 -0.24585244
-0.28856263 -0.13774846 0.12085361 -0.22473095 0.08834849 0.17685163 -0.17396596 0.15729399
-0.3750173 -0.6920745 -0.22185542 0.14895982 -0.24245708 0.1297523 0.03353601 -0.16644803
0.09089185 -0.14455712 0.71866465 -0.16584322 0.04898043 -0.1716468 0.0430541 -0.17406668
-0.06159659 -0.06803464 0.23033947 0.7440863 -0.040191576 -0.16475588 0.064250395 -0.09022574

RCAB3.body.0.0.bias f4 [8]
00000000: 18e9 52bd a08e b63d 5495 1ebd 32d7 dabd
00000010: 1fb8 80bc c526 e5bd 5cf5 593e d473 a23e
-0.051491827 0.08913922 -0.03871663 -0.106855765 -0.015712796 -0.11189035 0.21285003 0.31728995

RCAB3.body.0.1.weight f4 [8]
00000000: 0e1e 4e3f b8b1 8f3f 0eba 7f3f b3e1 773f
00000010: 7c87 963f eed8 7e3f 0f3b 8e3f ad65 813f
0.8051461 1.122611 0.9989327 0.96828765 1.1760097 0.9954976 1.1111773 1.0109154

RCAB3.body.0.1.bias f4 [8]
00000000: 3d87 3d3c 2aa8 d63b f6b5 20bd 9815 3fbc
00000010: 5554 e53b 1d53 9c3b 83d1 583c 4078 1bbc
0.011567888 0.0065508084 -0.03923603 -0.011662863 0.0069985786 0.00477065 0.013233545 -0.009489119

RCAB3.body.0.1.running_mean f4 [8]
00000000: d9fd 753f 896b 953f 8481 ddbe 46cd 2ebf
00000010: 0aeb 06be 4f9d febe 2bc8 663e 1904 d93e
0.96090466 1.1673442 -0.43262875 -0.6828197 -0.13175598 -0.49729392 0.22537296 0.4238594

RCAB3.body.0.1.running_var f4 [8]
00000000: f42d 9d3e c5ed e23e b6d6 0d3e d7d7 dd3d
00000010: cd09 923d e171 e83e 0282 6c3d a6b9 223e
0.30699122 0.4432203 0.13851437 0.10832184 0.071307756 0.45399383 0.057741173 0.15891132

RCAB3.body.0.2.bias f4 [12]
00000000: 24d9 93bd 297f ebbd 8959 853d 44a8 bb3d
00000010: 40f2 43be e4f6 7ebd 9ecb 22be cbf2 0abe
00000020: aad2 69be 8ed6 3b3e feef e7bd 8f24 593e
-0.07219151 -0.11498863 0.06511218 0.091629535 -0.1913538 -0.062247172 -0.15897986 -0.1356918
-0.22834268 0.18343565 -0.11325072 0.21205352

RCAB3.body.1.weight f4 [12]
00000000: 7f12 593f 6dd9 f33e 2390 0a3f fb35 993e
00000010: 6dc7 de3e a6b0 2d3f 3658 783f 8bbd 643e
00000020: 06e0 1e3f fcf0 0f3f 87b5 253f 01c9 403f
0.8479385 0.4762682 0.54126185 0.29923996 0.43511525 0.6784767 0.970096 0.2233793
0.6206058 0.5622709 0.64730114 0.7530671

RCAB3.body.1.bias f4 [12]
00000000: 0af5 793d 47c1 f13e c357 a3be 1a9f 1f3f
00000010: ea1f 053f 7d5e 40be 8c5b d93c 2f1c 1abf
00000020: 420c 59be 56a9 ab3e e813 853e 3530 283e
0.061024703 0.4721777 -0.31902894 0.62352145 0.5200182 -0.18786044 0.02653291 -0.60199255
-0.21196082 0.3352763 0.2599175 0.1642464

RCAB3.body.1.running_mean f4 [12]
00000000: 568f 90bd af21 f7bd 9e9b 753d a90f b83d
00000010: 905f 4ebe 44f7 63bd 348c 35be a361 03be
00000020: cb5f 5ebe cf0e 383e 1a3b fcbd c3ad 573e
-0.07058589 -0.120669715 0.05996286 0.08987362 -0.20153642 -0.055655733 -0.17729264 -0.12830214
-0.2171623 0.17974399 -0.1231596 0.21062379

RCAB3.body.1.running_var f4 [12]
00000000: 3468 763e bb33 063f 3a2a 183e cbef f93e
00000010: 6d73 073f 259a 4d3f 6976 503f f1ef 6b3e
00000020: 68c0 893f 4794 6a3e 5f8d 8a3f 8881 b13e
0.24063188 0.52422684 0.14859858 0.4881576 0.529105 0.8031333 0.8143068 0.23040749
1.0761843 0.22908126 1.0824393 0.34669137

RCAB3.body.3.0.weight f4 [12, 1, 3, 3]
00000000: a671 33bd a891 7abc f472 cabc 3f2a f33c
00000010: 4fe2 eabe a612 51bd acaa 96bd 1386 99bd
00000020: 3880 80bd 3a0d 953d b574 d93e 7080 8a3e
00000030: da8d cc3d 2443 b23e bed3 db3e 1b4c 34bc
00000040: 2b6a ac3e 92fc 043e 94b3 28bc 00c7 773d
00000050: 07b3 963d 4db5 9f3a 3a21 453f 244e 113e
00000060: 591f 1f3d a001 0e3e 1f4b 4c3d 4874 06bd
00000070: 4d96 13be ab0c 2a3c 4726 e4ba e99a 21bf
00000080: aa38 6bbe 6578 753c d356 07be ebef 99bd
00000090: edff 38be 2e2f 2fbe adf1 efbc c2c5 53be
000000a0: 014f 20bf 96fd 63be 488d 56bd 7ded 2dbe
000000b0: 3739 3abe 6d25 c5bb 5e6e 10be 1ba1 c4bc
000000c0: 6076 87bd 016f 08bf 0ae2 44be 0669 a0bd
000000d0: b948 5cbd 076b 4b3c b407 593e 0248 423e
000000e0: 603e 6e3e 9050 3c3d d71b 133f 1833 fc3d
000000f0: cd34 333e daf9 e0bc e9a0 973e 509e 91bb
00000100: 1b4f 533d 6f64 17bb abdc b5bc 7b3d 6b3e
00000110: 2913 2a3b 89b0 31bc 85a2 d13d 5010 ffba
00000120: 55c1 1cbd c55d e33d aa7a a8be e804 5c3d
00000130: 1983 0dbf bd56 7ebe dd9c debd 3415 8fbe
00000140: f499 6cbd 674d 293c 2f6b e93d 20a8 cabb
00000150: ee18 c73d 24c3 29bf 4e7c 9c3d 5f6b 64bd
00000160: 8a9f 7b3e 0017 0ebd 2eeb 25bd eed6 743e
00000170: c298 133e 1898 9b3e 7b44 1e3f 608d 123f
00000180: d55a 97bd 08c4 c43e 8604 a13d c72d b7bc
00000190: 96ea 1b3c 48f9 823d 4fc8 a8bd 82f0 1e3f
000001a0: 142f 01be d8c5 293d 9545 d9bd 60bb 283e
-0.043809555 -0.015293516 -0.024713017 0.02968323 -0.45875785 -0.051043175 -0.07356772 -0.07496276
-0.06274456 0.072779134 0.42471853 0.27051115 0.099879935 0.3481685 0.42934984 -0.011004473
0.3367475 0.12986973 -0.010296721 0.060492516 0.073583655 0.0012184769 0.77003825 0.14189965
0.038848255 0.13867807 0.04987633 -0.03282574 -0.14412804 0.010378997 -0.0017406427 -0.63127
-0.22970834 0.014982318 -0.13216715 -0.07516464 -0.18066378 -0.17107841 -0.029290045 -0.20680907
-0.6262055 -0.22264704 -0.05238083 -0.16985126 -0.18185888 -0.0060164244 -0.14104602 -0.024002602
-0.06614375 -0.5329438 -0.19226852 -0.07832532 -0.05378029 0.012415654 0.21194345 0.18972781
0.23265982 0.045975268 0.57464355 0.12314433 0.1750061 -0.027462889 0.29614952 -0.004443921
0.051589113 -0.0023100635 -0.02219995 0.22972672 0.0025951362 -0.010845312 0.10236076 -0.0019459818
-0.038270313 0.111018695 -0.32906085 0.053715616 -0.55278164 -0.24837776 -0.10869763 -0.27945864
-0.05776401 0.010333396 0.11397397 -0.006184593 0.09721552 -0.66313386 0.07640897 -0.05576646
0.24572578 -0.034689903 -0.040507488 0.23910114 0.14413741 0.30389476 0.6182324 0.5724697
-0.07390372 0.3843081 0.07862191 -0.022360696 0.009516379 0.06395203 -0.08241331 0.62085736
-0.12615615 0.041448444 -0.10608975 0.16477728

RCAB3.body.3.0.bias f4 [12]
00000000: 5734 96be 896a 78be 4956 dd3c 6860 4dbd
00000010: 7be8 2ebe 29d2 893e c2f3 78bc f3a3 31be
00000020: 74ee 5bbd db7a 8b3e f66f 9fbe 2965 41be
-0.29336807 -0.2425939 0.027018683 -0.05014077 -0.17080872 0.26918152 -0.015194835 -0.17347698
-0.053694203 0.2724217 -0.31140107 -0.18886246

RCAB3.body.3.1.weight f4 [12]
00000000: 9545 ac3f 4a63 a13f 7403 813f 9622 aa3f
00000010: 6670 7d3f 2b75 493f 1ced 603f e301 843f
00000020: f472 083f 7bf7 333f 680d 203f 1025 343f
1.3458735 1.2608426 1.0079179 1.3291805 0.9899963 0.7869441 0.878618 1.0313076
0.53300405 0.702995 0.62520456 0.7036905

RCAB3.body.3.1.bias f4 [12]
00000000: 3391 51bc 593c 083c be59 163a 183d 0e3c
00000010: 11b4 23bc f210 63bc ed70 41bc cad7 57bb
00000020: d0c3 143c 9cc2 983b 399b 09bc 1b0d 033b
-0.012790966 0.008315169 0.00057354185 0.008681558 -0.009991662 -0.013859021 -0.011806709 -0.0032935017
0.009079888 0.004661871 -0.008398824 0.0019996825

RCAB3.body.3.1.running_mean f4 [12]
00000000: 308c 0dbf ead8 413f da76 143e 7fd1 4cbf
00000010: 64ef 91bf ad1b ca3d adca 3a3f 566c 31be
00000020: 091f 7fbe fe36 333e 0939 133f f881 b43c
-0.55292034 0.7572161 0.14498463 -0.80007166 -1.1401181 0.0986856 0.7296551 -0.17326483
-0.24914183 0.17501447 0.57508904 0.02203463

RCAB3.body.3.1.running_var f4 [12]
00000000: 0d27 9d3d 9bad 063e 07a2 813d fca3 783d
00000010: 6471 9e3e 6398 4e3d d961 dd3e a86d f336
00000020: f54d 813d 71b7 873d 6444 003f f859 e13d
0.07673464 0.13152163 0.063297324 0.060703263 0.30945885 0.050438296 0.43238714 7.25473e-06
0.06313697 0.066267855 0.50104356 0.11003488

RCAB3.body.3.2.bias f4 [8]
00000000: 71fe 2dbe d6ed 683e 5f63 c0bc a2c2 32be
00000010: 405d 233e 730b b2b9 114e 883d 08ba 41bd
-0.16991593 0.22746977 -0.023484884 -0.17457059 0.15953541 -0.00033959336 0.06655515 -0.047296554

RCAB3.body.4.weight f4 [8]
00000000: f8a0 7b3f 3891 713f efbd b03f ff86 303f
00000010: 64fb 9f3f 8665 813f 154a a13f c30d a03f
0.98292494 0.9436221 1.3807963 0.6895599 1.2498593 1.0109107 1.2600733 1.25042

RCAB3.body.4.bias f4 [8]
00000000: 8ee6 943f c09e a23f 9a98 d43e bd3d 953f
00000010: 6186 4c3f e95d e83c 607a 82be 6fb9 bcbe
1.163286 1.2704697 0.41522676 1.1659466 0.79892546 0.028365092 -0.2548399 -0.36860225

RCAB3.body.4.running_mean f4 [8]
00000000: 464a 30be 7c52 683e 89bd 80bc 8a85 37be
00000010: 7e18 1c3e 040c 32bc 0c64 803d a947 15bd
-0.17215833 0.22687715 -0.015715377 -0.17922035 0.15243718 -0.010867123 0.062690824 -0.036445294

RCAB3.body.4.running_var f4 [8]
00000000: 2cd3 943e 9d0b ab3e 5564 e53e b9b7 4a3e
00000010: aa96 973e 19ce f33e d68e 9e3e 7125 293f
0.2906736 0.33407298 0.4480311 0.19796647 0.29607135 0.47618178 0.3096835 0.66072756

RCAB3.body.5.conv_du.0.bias f4 [16]
00000000: f682 f23e e3d9 36be cbe2 1cbf 6ca4 e4bd
00000010: 499a 043e a0ec a7bd 8c81 513d fec9 84bd
00000020: 5f97 ddbd 334c 02be 22f7 eb3e 9937 473e
00000030: c16e 7abe 7d17 9cbe 2ff5 ae3c ecbf 3f3d
0.4736554 -0.17856555 -0.6128356 -0.111641735 0.1294948 -0.081994295 0.051148936 -0.064838395
-0.10819887 -0.1272438 0.46086985 0.19454803 -0.24456312 -0.3048667 0.021357147 0.04681389
