All_model/Distill-Tea/trained_model/Teacher/100-global_G.ckpt (torch, 679145 bytes, 152 tensors)

con1.1.weight f4 [16, 3, 4, 4]
-0.09947237 0.07203882 -0.17687845 -0.046140846 -0.07083284 0.03317087 -0.14634612 -0.13640574
-0.0220964 -0.090914644 0.0066029867 -0.018713377 -0.04021779 -0.025593193 0.01370336 -0.06767141
-0.0026612794 0.16415465 0.012104367 0.20804137 0.042712577 0.21583454 -0.06295417 0.01654127
0.15327963 0.12428941 0.13954242 0.16892046 0.0070100105 0.16356477 0.07255738 -0.004850684
0.0054551894 0.10905015 -0.12486034 -0.12761027 0.03430983 -0.06396863 0.06743878 -0.035521034
-0.18756004 -0.019899534 -0.111910455 0.06887606 0.047190793 -0.1745878 -0.098328546 -0.023460604
-0.017326318 -0.12933373 0.07507407 -0.08517127 -0.043635715 0.1330295 0.17731678 0.028933138
-0.066466756 0.04264848 0.16849506 0.07225911 0.05072782 -0.17224212 0.00090088433 -0.22041178
0.003448581 -0.056784082 0.11724616 -0.10112932 -0.11106302 -0.06981794 0.31413543 0.021922786
-0.10333141 -0.12150753 0.104230374 0.0820982 -0.012733327 -0.1269636 0.15816437 -0.09689809
-0.040792834 -0.016060663 -0.083123416 0.010642556 0.017316286 -0.0064198123 0.2112339 -0.111477464
-0.07936961 0.015826024 0.006588818 0.09973918 0.030151758 -0.01996944 -0.09249722 0.064951345
-0.058676273 -0.040999692 0.052286975 0.07021877 0.07262315 0.19761777 0.024436492 -0.12468045
0.06577044 0.15784189 0.022642424 -0.07054365 0.011551561 -0.09413929 0.16306713 0.069894925
-0.09729017 0.06262596 -0.097880796 -0.08889657 0.17501596 0.049173806 0.11951281 -0.1023734
-0.017735047 0.13036434 -0.08640941 -0.030694727 0.050134882 0.16059732 0.20049714 0.15282026
0.1067101 -0.103319675 -0.0611945 -0.0025704328 -0.035395917 -0.098352745 -0.15800364 -0.19178726
0.03625779 -0.098074436 -0.08051413 -0.048595823 -0.12666298 0.08475698 -0.05332165 0.026615927
-0.30304772 -0.065791436 0.0815885 -0.27925766 -0.14287044 0.72700965 0.70591974 -0.20101225
0.08888254 1.0108593 0.4424095 -0.18960811 -0.088248596 0.1977931 -0.08165313 0.013780215
-0.090207316 0.07662112 0.04264525 0.05090445 0.039329425 -0.09041424 -0.062764995 0.06680668
-0.037528522 0.18193193 0.06453459 0.010360763 -0.026557446 0.018013518 -0.17877297 -0.10213402
0.13957736 0.010632046 -0.116121575 -0.0068191667 -0.10914376 -0.034820896 0.08469863 0.035530135
-0.06822941 0.047927998 -0.104024805 -0.009103448 0.11344563 0.037714936 0.0047232658 -0.021729523
-0.017805327 -0.0048806677 -0.21835145 -0.19600996 -0.1358899 -0.055345595 -0.0053781564 -0.20408142
-0.041446775 0.1368702 0.048374426 0.12724887 -0.093264185 0.11696228 0.040712938 0.12094614
-0.038964912 -0.14628048 -0.1466831 -0.16062944 -0.11734352 -0.10333183 -0.0011559015 -0.18380165
0.053165182 -0.12938033 0.12087417 0.14903858 0.07759903 0.04120917 0.016225405 0.1468574
0.003938546 0.07231983 -0.0025267487 0.037258007 -0.055612095 -0.11648247 -0.0022152008 -0.1447489
0.023129055 0.103103556 0.052211452 -0.05108709 0.012734091 0.009294285 0.12503819 -0.0035520105
0.016313683 0.12236395 -0.08988847 -0.006515069 -0.01877331 0.09056353 -0.044410095 -0.019665739
0.08623275 0.07049792 -0.00016593467 -0.09299528 0.064441964 -0.031741925 -0.07451981 0.035345577
00000000: 2cb8 cbbd 1789 933d a01f 35be 2ffe 3cbd
00000010: cf10 91bd 2ede 073d c2db 15be f2ad 0bbe
00000020: 8203 b5bc 7531 babd de5d d83b cc4c 99bc
00000030: 69bb 24bd d1a8 d1bc 0f84 603c 4f97 8abd
00000040: dc68 2ebb 2818 283e 6551 463c cc08 553e
00000050: 62f3 2e3d bb03 5d3e 1eee 80bd 8f81 873c
00000060: 56f5 1c3e 728b fe3d 35e4 0e3e 7cf9 2c3e
00000070: 3bb4 e53b 867d 273e f798 943d 7df2 9ebb
00000080: 72c1 b23b af55 df3d c7b6 ffbd 44ac 02be
00000090: 7788 0c3d fc01 83bd 581d 8a3d 817e 11bd
000000a0: bd0f 40be 5904 a3bc 4f31 e5bd e40e 8d3d
000000b0: 224b 413d 25c7 32be 7a60 c9bd 7430 c0bc
000000c0: ecef 8dbc 1070 04be 6fc0 993d 466e aebd
000000d0: 5dbb 32bd e338 083e 8892 353e 3005 ed3c
000000e0: b91f 88bd 2cb0 2e3d f889 2c3e 96fc 933d
000000f0: f9c7 4f3d 3d60 30be 5329 6c3a a0b3 61be
00000100: 9701 623b 6d96 68bd c11e f03d e41c cfbd
00000110: 0275 e3bd b5fc 8ebd 5cd6 a03e 6a97 b33c
00000120: 6b9f d3bd f1d8 f8bd bc76 d53d 1a23 a83d
00000130: 729f 50bc bf02 02be d7f5 213e 8172 c6bd
00000140: 6316 27bd a791 83bc 9c3c aabd 1d5e 2e3c
00000150: e2da 8d3c 4a5d d2bb b34d 583e 4c4e e4bd
00000160: 898c a2bd 94a5 813c 03e7 d73b 0e44 cc3d
00000170: d200 f73c f396 a3bc 2f6f bdbd 3605 853d
00000180: 8856 70bd 4bef 27bd de2a 563d dcce 8f3d
00000190: 72bb 943d 505c 4a3e 0a2f c83c 7758 ffbd
000001a0: a7b2 863d 4ea1 213e 9b7c b93c 3079 90bd
000001b0: c242 3d3c 1acc c0bd 12fb 263e 1225 8f3d
000001c0: 1240 c7bd 0a42 803d ba75 c8bd 680f b6bd
000001d0: 6237 333e 796a 493d 22c3 f43d 25a9 d1bd
000001e0: 1749 91bc 3b7e 053e 6bf7 b0bd 8273 fbbc
000001f0: 3c5a 4d3d a073 243e 1f4f 4d3e ea7c 1c3e
00000200: d38a da3d 4499 d3bd 16a7 7abd b574 28bb
00000210: 4ffb 10bd 2a6d c9bd b5cb 21be e163 44be
00000220: 0c83 143d 40db c8bd 98e4 a4bd 6a0c 47bd
00000230: f1b3 01be 1195 ad3d cd67 5abd a509 da3c
00000240: 1229 9bbe a9bd 86bd df17 a73d dcfa 8ebe
00000250: a14c 12be 4e1d 3a3f 28b7 343f 28d6 4dbe
00000260: 0d08 b63d d663 813f 7f83 e23e a128 42be
00000270: aebb b4bd 468a 4a3e c239 a7bd 69c6 613c
00000280: 9dbe b8bd 89eb 9c3d c9ac 2e3d 2f81 503d
00000290: e417 213d 1a2b b9bd ef8a 80bd f1d1 883d
000002a0: 82b7 19bd 5d4c 3a3e b62a 843d 31c0 293c
000002b0: 008f d9bc 1691 933c 4310 37be a42b d1bd
000002c0: 5eed 0e3e 0832 2e3c 26d1 edbd 5173 dfbb
000002d0: c386 dfbd 5ba0 0ebd 7a76 ad3d 0c88 113d
000002e0: dcbb 8bbd 2650 443d f50a d5bd a126 15bc
000002f0: 2f56 e83d fa7a 1a3d a0c5 9a3b 1d02 b2bc
00000300: 7adc 91bc 02ee 9fbb 8697 5fbe d6b6 48be
00000310: b926 0bbe 10b2 62bd 3f3b b0bb b8fa 50be
00000320: 18c4 29bd b427 0c3e 4324 463d 874d 023e
00000330: 4b01 bfbd eb89 ef3d 9cc2 263d 9cb2 f73d
00000340: ac99 1fbd 8dca 15be 1834 16be 0b7c 24be
00000350: cd51 f0bd a39f d3bd 9e81 97ba 8036 3cbe
00000360: bcc3 593d 477c 04be e08c f73d 929d 183e
00000370: 3eec 9e3d f2ca 283d 24eb 843c c961 163e
00000380: eb0e 813b 6b1c 943d cf97 25bb da9b 183d
00000390: 82c9 63bd 5c8e eebd e72c 11bb 0e39 14be
000003a0: 2579 bd3c f527 d33d addb 553d b240 51bd
000003b0: a6a2 503c 0f47 183c 030a 003e d9c8 68bb
000003c0: 46a4 853c f399 fa3d 7217 b8bd 5c7c d5bb
000003d0: 7cca 99bc 5f79 b93d 5ce7 35bd 0b1a a1bc
000003e0: cc9a b03d 3761 903d c0fe 2db9 4f74 bebd
000003f0: 26fa 833d d203 02bd d89d 98bd 86c6 103d

con1.1.bias f4 [16]
-0.019193353 -0.100115515 -0.09542146 0.05675933 -0.0059346254 -0.12191711 0.09760122 -0.075213216
-0.009987324 -0.12623295 -0.04187618 -0.11631497 0.14057644 -0.02655786 -0.062277704 0.12418619
00000000: 613b 9dbc 5d09 cdbd 546c c3bd 797c 683d
00000010: 3f77 c2bb aeaf f9bd 26e3 c73d 6309 9abd
00000020: dfa1 23bc 3643 01be 5b86 2bbd 8b36 eebd
00000030: 45f3 0f3e df8f d9bc e816 7fbd 5455 fe3d

con1.2.weight f4 [16]
0.86082935 0.87810135 0.8618017 1.0947033 1.0128689 1.1458728 0.99796796 1.1103245
0.87253547 1.0495443 0.9912569 0.9202634 0.906566 1.2215245 1.0621618 0.9372502
00000000: 505f 5c3f 40cb 603f 099f 5c3f 3d1f 8c3f
00000010: b0a5 813f f6ab 923f d47a 7f3f 1d1f 8e3f
00000020: 7c5e 5f3f 7857 863f 03c3 7d3f 6296 6b3f
00000030: b614 683f ea5a 9c3f ebf4 873f a1ef 6f3f

con1.2.bias f4 [16]
0.18568595 0.0009221199 0.056427 0.079683974 -0.04067076 0.02386332 -0.040208917 -0.0002227515
0.031489447 0.013044164 0.046725318 0.23903255 -0.05548763 -0.08959963 -0.2883748 -0.0733443
00000000: 7524 3e3e 6bba 713a ff1f 673d 5a31 a33d
00000010: 6296 26bd 027d c33c 1bb2 24bd 6792 69b9
00000020: 14fb 003d 30b7 553c 0c63 3f3d f3c4 743e
00000030: ff46 63bd 0380 b7bd dda5 93be 8935 96bd

con1.2.running_mean f4 [16]
0.4722809 -0.10781128 -0.25225317 -0.860042 0.15679358 -0.19505796 -0.12506391 -0.11432944
-0.1250317 -0.07375321 0.2604158 -0.56757426 0.13374765 0.75868607 0.03414982 0.13366252
00000000: cdce f13e 29cc dcbd 5427 81be b62b 5cbf
00000010: 7f8e 203e 46bd 47be c110 00be 8e25 eabd
00000020: 4f08 00be ec0b 97bd 3855 853e 8c4c 11bf
00000030: 25f5 083e 4039 423f afe0 0b3d d4de 083e

con1.2.running_var f4 [16]
0.09833125 0.011338402 0.12683734 0.6578704 0.117997915 1.0438606 0.095732585 1.5959027
0.07828868 0.06505205 0.12013906 0.2789422 0.013906203 0.60867554 0.21411052 0.081687145
00000000: e561 c93d b4c4 393c a6e1 013e 326a 283f
00000010: e4a8 f13d 399d 853f 720f c43d 8a46 cc3f
00000020: d155 a03d 023a 853d 780b f63d 83d1 8e3e
00000030: d8d6 633c 29d2 1b3f ca3f 5b3e 974b a73d

con2.1.weight f4 [16, 16, 4, 4]
0.07736771 0.011780254 -0.019440675 0.070680656 0.029620176 0.04322137 0.029348461 0.07399042
0.04804862 0.024182655 0.02691176 -0.01134285 0.06834606 0.04692158 0.0730403 0.08815217
0.03862582 0.040203158 -0.024219003 -0.044411674 0.052278303 0.028956717 0.002230922 -0.04360184
0.050450392 0.035092503 -0.035792343 0.014426437 -0.015754333 -0.0039330027 -0.022512168 0.0075031025
0.0044347728 0.059489436 0.0570081 0.06658495 0.029458156 0.01815221 0.0849299 0.055075902
0.05559033 0.047823686 0.0028716107 0.10388702 0.03502091 0.0992386 -0.020222392 0.05262011
0.094562545 0.12623554 0.112499654 0.13662292 0.10071295 0.11138026 0.19490065 0.06835381
0.06679517 0.1254469 0.15285426 0.109623745 0.15869652 0.06303837 0.1413938 0.043074466
-0.013461706 0.02982235 0.05157397 -0.013424586 0.017840175 0.09584008 0.054609668 0.10974218
-0.000991965 0.12013941 0.13829243 0.12088576 0.08740715 0.038197152 0.033718295 0.06884952
-0.016936459 -0.016948266 0.02874933 0.05567994 0.0396777 0.014097954 0.009054149 0.06800789
0.050249174 0.04749838 0.003899302 -0.009166433 -0.0442062 -0.045898218 0.038909975 -0.03327101
-0.091555275 -0.05830277 -0.025514686 -0.04610844 -0.012296641 0.015622999 0.056500856 -0.00496092
0.011009292 -0.022168232 0.057173427 0.0065771225 -0.022072513 -0.057334416 -0.0067289528 -0.003908594
0.09626249 0.02436309 0.09040066 0.0019519792 0.03613583 0.10640836 0.13221918 0.11803531
0.017980441 0.010822387 0.08786193 0.10855427 0.05872406 0.10844149 0.050350983 0.043292075
-0.020373976 -0.059234537 0.05357697 0.01371751 -0.024734337 0.010762287 0.051292565 0.08536911
0.09277878 0.058197584 0.13107678 0.07195747 0.08563463 0.036478885 0.043805923 0.02487124
-0.031514883 0.012437919 0.056082312 0.018784253 0.07361891 0.07787116 0.013650086 0.08044562
0.06221035 0.028145557 0.017305266 0.06333084 -0.022917002 0.045864377 0.071579 -0.028486397
0.02577969 0.008848897 -0.03836881 -0.052497 -0.049205735 -0.023844654 -0.0056083337 -0.0016848145
-0.014798664 0.02487529 -0.031113317 0.013182801 0.018449666 -0.050662216 -0.0055315946 0.012305351
-0.11994327 -0.08197007 -0.054152668 -0.103308566 -0.16938977 -0.13335694 -0.07757243 -0.06374442
-0.09403304 -0.028568903 -0.08948059 -0.12668768 -0.13922031 -0.044755418 -0.04434946 -0.030245217
0.010964708 -0.06852699 -0.009696068 0.04408871 0.056680787 0.008953782 0.0038628946 -0.022869393
0.017521335 0.00992683 -0.0014529851 -0.027958507 -0.009383782 -0.014889386 -0.025070747 0.02404123
0.08224079 0.12125819 0.06377593 0.107672006 0.014155386 0.03838849 0.15992634 0.09502131
0.05695423 0.053659067 0.11543183 0.04249581 0.03546802 0.0014707794 0.027627215 0.08577961
-0.0026738518 -0.007855532 -0.043087613 0.010367852 0.025977803 0.0020173988 0.02498271 -0.023782719
0.016857276 0.00385969 -0.011362488 0.053746738 -0.0080339555 0.05185538 -0.02326516 -0.015862228
-0.015261952 0.03963902 -0.04277203 0.0069373418 0.03477639 -0.015251648 -0.006614715 0.05330096
0.01002129 0.09269931 0.07175321 0.044682372 -0.012605449 0.022025123 -0.031641394 -0.025122868
00000000: f672 9e3d f701 413c 0d42 9fbc 05c1 903d
00000010: 03a6 f23c e408 313d 2f6c f03c 4a88 973d
00000020: a1ce 443d b41a c63c 0d76 dc3c 5cd7 39bc
00000030: 05f9 8b3d d830 403d 2796 953d 2089 b43d
00000040: 1c36 1e3d 11ac 243d ee66 c6bc 04e9 35bd
00000050: c621 563d a336 ed3c a934 123b d897 32bd
00000060: 12a5 4e3d 28bd 0f3d fe9a 12bd dd5c 6c3c
00000070: 3b0f 81bc 6be0 80bb 706b b8bc 96dc f53b
00000080: 9251 913b 32ab 733d 5381 693d b15d 883d
00000090: 3b52 f13c f2b3 943c baef ad3d 4597 613d
000000a0: b0b2 633d c5e2 433d a231 3c3b b8c2 d43d
000000b0: 1672 0f3d 9b3d cb3d 6ea9 a5bc 2f88 573d
000000c0: 02aa c13d e443 013e 3866 e63d e1e6 0b3e
000000d0: 9742 ce3d 551b e43d 0994 473e 15fd 8b3d
000000e0: e8cb 883d 2775 003e d485 1c3e 6a82 e03d
000000f0: 5781 223e 431a 813d 89c9 103e da6e 303d
00000100: 7d8e 5cbc 004e f43c 3a3f 533d cbf2 5bbc
00000110: 8f25 923c ce47 c43d 63ae 5f3d 82c0 e03d
00000120: d204 82ba a70b f63d 889c 0d3e f492 f73d
00000130: 8502 b33d 9e74 1c3d 321c 0a3d fa00 8d3d
00000140: 54be 8abc 17d7 8abc b783 eb3c a610 643d
00000150: 1585 223d 1bfb 663c da57 143c b847 8b3d
00000160: 14d2 4d3d a98d 423d 6f8b 7f3b ce2e 16bc
00000170: 8f11 35bd c5ff 3bbd 1160 1f3d 2f47 08bd
00000180: 5581 bbbd e3ce 6ebd 2d04 d1bc 34dc 3cbd
00000190: da77 49bc 9bf7 7f3c 716d 673d 378f a2bb
000001a0: 5160 343c 279a b5bc af2e 6a3d e784 d73b
000001b0: 6ad1 b4bc 7ed7 6abd 8c7e dcbb aa13 80bb
000001c0: 4525 c53d 1a95 c73c fb23 b93d 8ed9 ff3a
000001d0: 2a03 143d a0ec d93d 7764 073e 7fbc f13d
000001e0: b84b 933c 6250 313c f5f0 b33d b351 de3d
000001f0: a488 703d 9216 de3d d53c 4e3d 0853 313d
00000200: 53e7 a6bc ea9f 72bd 8673 5b3d 68bf 603c
00000210: aa9f cabc 4e54 303c 2718 523d 00d6 ae3d
00000220: cd02 be3d 9760 6e3d fe38 063e 705e 933d
00000230: 3561 af3d e26a 153d d76d 333d c5be cb3c
00000240: c015 01bd 6ac8 4b3c 91b6 653d 6fe1 993c
00000250: 83c5 963d ea7a 9f3d 9ca4 5f3c acc0 a43d
00000260: 48d0 7e3d 8391 e63c c6c3 8d3c 99b3 813d
00000270: 70bc bbbc 49dc 3b3d 0398 923d 4e5c e9bc
00000280: ee2f d33c f7fa 103c 9d28 1dbd 1807 57bd
00000290: f48b 49bd dd55 c3bc 1dc6 b7bb fed4 dcba
000002a0: 1876 72bc 44c7 cb3c 5be1 febc adfc 573c
000002b0: c123 973c 2f83 4fbd 6142 b5bb 629c 493c
000002c0: d1a4 f5bd eddf a7bd 30cf 5dbd 7193 d3bd
000002d0: 8374 2dbe b98e 08be 4bde 9ebd 6f8c 82bd
000002e0: 6594 c0bd 5509 eabc 9941 b7bd 6aba 01be
000002f0: c58f 0ebe 7551 37bd c8a7 35bd d1c4 f7bc
00000300: 52a5 333c e157 8cbd 42dc 1ebc 5d96 343d
00000310: 1d2a 683d e2b2 123c 9e28 7d3b 9858 bbbc
00000320: e788 8f3c 25a4 223c 1772 beba 3d09 e5bc
00000330: 6fbe 19bc 9cf2 73bc 2b61 cdbc 1df2 c43c
00000340: dc6d a83d 3756 f83d f49c 823d 2483 dc3d
00000350: feeb 673c 403d 1d3d bbc3 233e 889a c23d
00000360: d748 693d 9cc9 5b3d 8667 ec3d 1610 2e3d
00000370: ea46 113d 2bc7 c03a 7852 e23c 38ad af3d
00000380: ca3b 2fbb 7db4 00bc a37c 30bd ecdd 293c
00000390: 67cf d43c 5636 043b 8aa8 cc3c fad3 c2bc
000003a0: 4518 8a3c daf2 7c3b bb29 3abc 8a25 5c3d
000003b0: daa0 03bc 4f66 543d 9496 bebc 81f1 81bc
000003c0: 440d 7abc 865c 223d b931 2fbd a452 e33b
000003d0: b071 0e3d 0ce2 79bc 40c0 d8bb 1c52 5a3d
000003e0: 5630 243c 23d9 bd3d 59f3 923d dd04 373d
000003f0: 1687 4ebc 086e b43c 689a 01bd 79ce cdbc

con2.1.bias f4 [16]
0.018529322 -0.009864796 -0.013232897 -0.03550172 -0.0034693915 0.01741552 0.0008925399 -0.003003972
0.018619353 0.041128967 -0.038729332 0.06899232 0.015291456 -0.0062983013 -0.035736594 0.03196968
00000000: ceca 973c f49f 21bc cbce 58bc 406a 11bd
00000010: bb5e 63bb feaa 8e3c 57f9 693a 49de 44bb
00000020: 9d87 983c d976 283d a6a2 1ebd d84b 8d3d
00000030: 0489 7a3c fb61 cebb 8960 12bd a4f2 023d

con2.2.weight f4 [16]
1.0084219 0.9622178 0.9101413 0.93150544 0.9802671 0.9863777 1.0445249 1.0282288
0.9206105 0.97905403 0.95141387 0.99587655 1.0328184 1.066639 1.0689737 1.0060172
00000000: f813 813f e853 763f 05ff 683f 2477 6e3f
00000010: c9f2 7a3f 4083 7c3f feb2 853f 009d 833f
00000020: 21ad 6b3f 49a3 7a3f dc8f 733f c4f1 7e3f
00000030: 6533 843f a087 883f 21d4 883f 2cc5 803f

con2.2.bias f4 [16]
-0.5084795 0.073255435 0.04388413 0.007418684 0.13222991 -0.31607667 -0.15337546 -0.4960293
-0.33931753 0.022998614 -0.3754639 -0.12667365 0.02226181 0.1597185 -0.22146077 0.0023345037
00000000: b62b 02bf f206 963d d8bf 333d 6f18 f33b
00000010: 4767 073e cdd4 a1be 750e 1dbe 8df7 fdbe
00000020: 07bb adbe 9767 bc3c ce3c c0be bdb6 01be
00000030: 665e b63c 3f8d 233e 9dc6 62be 79fe 183b

con2.2.running_mean f4 [16]
2.0836694 -0.17629452 0.3962229 -1.6214037 0.41652638 1.926368 0.11672372 2.7125037
1.643047 1.136756 2.966381 0.32726136 -0.8476515 -0.20805922 1.2897811 -1.32345
00000000: d75a 0540 8d86 34be badd ca3e 288a cfbf
00000010: f242 d53e 3a93 f63f d90c ef3d a999 2d40
00000020: 5d4f d23f 3881 913f 30d9 3d40 cd8e a73e
00000030: b0ff 58bf 7a0d 55be 8c17 a53f cf66 a9bf

con2.2.running_var f4 [16]
1.175735 5.2642756 4.0821185 2.5780685 0.86249477 1.4687113 3.2128685 2.396531
4.855787 1.9781518 4.9416313 5.1806693 12.260966 3.5039525 4.857456 2.9911344
00000000: 7c7e 963f f274 a840 b7a0 8240 13ff 2440
00000010: 75cc 5c3f bbfe bb3f a39f 4d40 c460 1940
00000020: 9b62 9b40 1434 fd3f d821 9e40 0bc8 a540
00000030: eb2c 4441 c240 6040 4870 9b40 bf6e 3f40

con3.1.weight f4 [16, 16, 4, 4]
0.124826655 -0.0109311445 -0.026990985 0.04428056 0.038974456 0.06382873 -0.024438193 0.055349812
-0.030302338 -0.08661977 -0.03284924 -0.012247848 -0.08978233 0.006530148 -0.09790374 0.013470268
0.08297041 0.05058912 0.0964065 0.017270966 0.07423957 0.017260466 0.0858587 -0.0004626284
0.045198362 0.0076072263 -0.0594132 0.02401456 0.006383527 -0.052879393 0.007296694 -0.0400198
-0.07463733 -0.0020204883 -0.0051664757 0.0113261305 0.014061119 0.030784868 0.062462125 0.07095513
-0.028786203 0.08295811 0.017495193 0.016114045 0.03655535 -0.03202644 -0.03592978 -0.026895529
-0.07266412 0.055908956 0.03127732 -0.02004538 0.0007267924 -0.06401423 -0.024871029 -0.010925363
-0.08479098 0.0024310371 0.028032208 0.011531417 -0.056817397 -0.04356589 -0.010789854 -0.058254577
0.113313094 0.13706371 0.11958077 0.11580531 0.022498626 0.17404515 0.10281911 0.038441803
-0.009230499 0.019249821 -0.013991267 -0.008650697 -0.06712832 -0.014955376 0.018463295 -0.020622255
0.037129615 -0.055675477 -0.073063925 -0.082327746 0.03597149 -0.025525786 -0.081056334 -0.1138542
0.050656814 -0.065514654 -0.030202886 -0.13870122 0.014888627 0.0370758 -0.03929642 -0.08540308
-0.10727818 -0.08864643 0.02922731 0.06674244 0.024678094 0.023325399 0.05506011 -0.0213903
0.030254541 0.09812192 0.048466925 0.03381227 -0.042909272 0.009502375 0.030958371 0.09329413
0.013048657 0.0563551 0.063615195 0.051080354 0.08020589 0.015587981 0.023527231 0.017413745
-0.05841662 -0.05334529 0.083838046 -0.034402013 0.034493785 0.06771016 0.06477771 0.07305114
-0.0132474 -0.114225775 -0.05593888 0.023757044 -0.07598945 -0.112111285 0.019303376 0.04095988
-0.042432547 -0.049164575 0.07413304 0.08724166 -0.009047396 0.0067957994 0.026174545 0.07422802
0.06424064 0.019611923 -0.037394773 -0.03640417 0.06305625 -0.007579627 -0.055033874 0.05386076
-0.008549172 -0.0025219286 -0.020885438 -0.111516565 -0.062274177 -0.056582313 -0.052487757 -0.07684336
-0.09806015 -0.0816109 0.054643337 -0.035601396 -0.083263874 -0.07540113 0.061824918 0.05551767
-0.09952952 0.009362808 0.08490534 0.07659298 -0.027643608 -0.07175075 0.06394494 0.038039327
0.04020869 0.06956461 0.039345667 0.00323903 0.08543943 0.07700347 -0.025695402 -0.0049933908
-0.026654603 0.0014913029 -0.109986946 -0.07837495 -0.049902897 -0.009147216 -0.124287196 -0.068629645
0.095194496 0.0128038665 -0.015432948 0.0021276514 0.056755353 0.05937567 -0.068078846 -0.079221055
-0.034990564 -0.07447845 -0.03195803 -0.09708272 -0.044603754 -0.08068358 -0.1182923 -0.099858955
-0.024111459 -0.06455162 -0.00845901 0.05515402 -0.004412216 -0.070126705 0.001733068 0.115295276
0.004030253 -0.06361844 0.05492453 0.08797045 -0.054387316 0.035797574 0.008197713 0.08013986
0.1709021 0.08414416 0.10752505 0.011016619 0.13488862 0.011944557 0.014760248 -0.022570144
0.03627566 -0.04014529 -0.011763116 -0.045980424 -0.07668088 0.01877496 -0.07942727 -0.030485764
-0.037790284 -0.08348833 0.0012328116 0.052978758 0.019023443 -0.052205615 -0.01515044 -0.01746517
-0.05140348 -0.08028749 -0.012589371 -0.018806236 -0.028248265 -0.0981617 0.05939969 -0.019538172
00000000: 1ea5 ff3d 8b18 33bc 331c ddbc 885f 353d
00000010: aea3 1f3d a3b8 823d 9b32 c8bc 7cb6 623d
00000020: 9c3c f8bc b565 b1bd ed8c 06bd 33ab 48bc
00000030: ccdf b7bd dafa d53b c281 c8bd 66b2 5c3c
00000040: 64ec a93d 8936 4f3d c570 c53d d77b 8d3c
00000050: ea0a 983d d265 8d3c b0d6 af3d ef8c f2b9
00000060: eb21 393d 0a46 f93b 415b 73bd 2fba c43c
00000070: e82c d13b 1098 58bd 1b19 ef3b cdeb 23bd
00000080: 75db 98bd 2b6a 04bb 8a4b a9bb 3c91 393c
00000090: 9c60 663c 8c30 fc3c 49d8 7f3d ec50 913d
000000a0: 0bd1 ebbc f1e5 a93d 1452 8f3c 9a01 843c
000000b0: 10bb 153d 282e 03bd 1b2b 13bd 0354 dcbc
000000c0: edd0 94bd ca00 653d a61c 003d 3536 a4bc
000000d0: 3686 3e3a e519 83bd 54be cbbc 4b00 33bc
000000e0: e5a6 adbd 0952 1f3b cda3 e53c 45ee 3c3c
000000f0: 5cb9 68bd 2672 32bd eec7 30bc 5a9c 6ebd
00000100: b210 e83d 6e5a 0c3e c3e6 f43d 562b ed3d
00000110: 0a4f b83c e438 323e d392 d23d 2775 1d3d
00000120: 853b 17bc cdb1 9d3c a13b 65bc a7bb 0dbc
00000130: 937a 89bd 6507 75bc 5640 973c 01f0 a8bc
00000140: 3915 183d f80b 64bd 8aa2 95bd 739b a8bd
00000150: d756 133d 741b d1bc dd00 a6bd 642c e9bd
00000160: 857d 4f3d 8c2c 86bd 0b6c f7bc b107 0ebe
00000170: 6eef 733c cbdc 173d 48f5 20bd cfe7 aebd
00000180: aab4 dbbd 428c b5bd 1d6e ef3c 43b0 883d
00000190: b729 ca3c e814 bf3c b686 613d b63a afbc
000001a0: 5fd8 f73c 25f4 c83d 4185 463d bc7e 0a3d
000001b0: a2c1 2fbd d9af 1b3c 699c fd3c fe10 bf3d
000001c0: 09ca 553c 9bd4 663d af48 823d a239 513d
000001d0: fc42 a43d bb64 7f3c 2ebc c03c 45a7 8e3c
000001e0: 4446 6fbd 9780 5abd 48b3 ab3d 20e9 0cbd
000001f0: 5b49 0d3d a0ab 8a3d 2daa 843d d69b 953d
00000200: 9f0b 59bc 34ef e9bd 2b20 65bd 229e c23c
00000210: 5ba0 9bbd 9a9a e5bd 1d22 9e3c 8cc5 273d
00000220: c0cd 2dbd cb60 49bd 10d3 973d c1ab b23d
00000230: 873b 14bc 4caf de3b 006c d63c dc04 983d
00000240: 9990 833d 2fa9 a03c 432b 19bd 8a1c 15bd
00000250: a323 813d 855e f8bb 336b 61bd 1a9d 5c3d
00000260: d411 0cbc f146 25bb f017 abbc cc62 e4bd
00000270: 3513 7fbd dbc2 67bd 67fd 56bd 0d60 9dbd
00000280: c3d3 c8bd 9e23 a7bd b1d1 5f3d c5d2 11bd
00000290: 4086 aabd e86b 9abd 203c 7d3d 7f66 633d
000002a0: 22d6 cbbd 7766 193c dae2 ad3d c8dc 9c3d
000002b0: d974 e2bc 0ff2 92bd 91f5 823d 20cf 1b3d
000002c0: deb1 243d e477 8e3d ec28 213d e845 543b
000002d0: defa ae3d ffb3 9d3d 2a7f d2bc 999f a3bb
000002e0: c15a dabc d277 c33a d640 e1bd 0c83 a0bd
000002f0: fb66 4cbd 34de 15bc 498a febd b38d 8cbd
00000300: 55f5 c23d 4fc7 513c 7ada 7cbc 1170 0b3b
00000310: 4d78 683d e733 733d ec6c 8bbd a63e a2bd
00000320: 4452 0fbd 2888 98bd 6ce6 02bd 4ed3 c6bd
00000330: 6db2 36bd 6f3d a5bd 3c43 f2bd da82 ccbd
00000340: 6585 c5bc a433 84bd a997 0abc 2fe9 613d
00000350: 5a94 90bb 979e 8fbd 1d28 e33a ee1f ec3d
00000360: 3610 843b 624a 82bd 8bf8 603d da29 b43d
00000370: 3cc5 5ebd 7aa0 123d b34f 063c 5e20 a43d
00000380: f600 2f3e c653 ac3d 1836 dc3d 0d7f 343c
00000390: 3e20 0a3e 1ab3 433c f8d4 713c 06e5 b8bc
000003a0: c995 143d 636f 24bd 16ba 40bc f855 3cbd
000003b0: dd0a 9dbd f2cd 993c c4aa a2bd 48bd f9bc
000003c0: fcc9 1abd eefb aabd 4b96 a13a 4100 593d
000003d0: 0dd7 9b3c 8ed5 55bd 8d39 78bc 1e13 8fbc
000003e0: 758c 52bd c46d a4bd a643 4ebc 890f 9abc
000003f0: e868 e7bc 0009 c9bd 174d 733d 840e a0bc

con3.1.bias f4 [16]
0.025204867 -0.077811144 0.0282823 0.01381775 -0.054642305 -0.029352559 0.063365825 0.010135135
8.764503e-05 0.024287691 -0.0009416997 0.032589167 0.05182578 0.05775085 -0.011605674 0.024468686
00000000: 707a ce3c 735b 9fbd 48b0 e73c d863 623c
00000010: 9cd0 5fbd c774 f0bc f1c5 813d d60d 263c
00000020: 11ce b738 fbf6 c63c 66dc 76ba 387c 053d
00000030: 4547 543d 288c 6c3d ba25 3ebc 8e72 c83c

con3.2.weight f4 [16]
1.037537 1.070121 0.99573725 1.0070057 0.8868899 1.106521 1.0656986 1.0387948
0.9977277 0.8466672 0.93181485 0.9750481 1.0192178 1.02191 1.0080172 0.98635703
00000000: 03ce 843f baf9 883f a3e8 7e3f 90e5 803f
00000010: 370b 633f 7ba2 8d3f d068 883f 3af7 843f
00000020: 156b 7f3f 2ebf 583f 6b8b 6e3f c19c 793f
00000030: bb75 823f f2cd 823f b506 813f e581 7c3f

con3.2.bias f4 [16]
0.050831676 0.16851933 -0.063698635 -0.123374626 -0.06974162 0.11349856 -0.050905943 0.07720726
-0.06563678 -0.1986834 -0.3359626 -0.2363563 -0.22357872 0.029023914 -0.06012338 0.02639082
00000000: e034 503d 5590 2c3e 6e74 82bd d6ab fcbd
00000010: b2d4 8ebd ef71 e83d c082 50bd d71e 9e3d
00000020: 936c 86bd a973 4bbe 4a03 acbe 6307 72be
00000030: d2f1 64be 8fc3 ed3c ef43 76bd 9031 d83c

con3.2.running_mean f4 [16]
0.009340743 -1.2234324 -0.5407044 0.33532518 -0.40852317 0.45647758 -0.49235195 0.9280142
0.6835924 2.0701041 0.6881551 0.62887174 0.5388448 -2.1314332 -0.32506528 0.16471206
00000000: ea09 193c 6f99 9cbf 9b6b 0abf beaf ab3e
00000010: f329 d1be 6eb7 e93e 8e15 fcbe 5792 6d3f
00000020: e9ff 2e3f 967c 0440 ef2a 303f bdfd 203f
00000030: bcf1 093f 6769 08c0 f56e a6be 47aa 283e

con3.2.running_var f4 [16]
0.61582386 4.8167953 8.868736 8.6199 11.567518 5.101322 2.0245786 9.884711
6.619577 11.348674 4.4236636 1.5431969 1.6762439 4.6122584 8.688454 1.7874981
00000000: a2a6 1d3f 3023 9a40 58e6 0d41 1ceb 0941
00000010: 8e14 3941 083e a340 b292 0140 c727 1e41
00000020: 93d3 d340 2b94 3541 a78e 8d40 7a87 c53f
00000030: 298f d63f 9f97 9340 e803 0b41 bdcc e43f

con4.1.weight f4 [16, 16, 4, 4]
-0.14710866 0.041390985 0.0709216 0.08106176 0.054585867 0.17838924 0.03269333 0.027613657
-0.109480515 0.032468464 -0.035037152 -0.04841818 0.041004192 0.08956879 0.04444228 -0.1187197
-0.034423392 -0.04637739 0.025878686 -0.014687507 -0.0075719855 0.059045736 0.12675223 0.0034554598
-0.0031123494 0.040492043 0.16218428 0.13583733 -0.074305855 -0.0029143062 0.05682559 -0.0009765084
0.034014724 0.061709113 -0.037252083 0.05746903 0.0015713827 -0.058801863 -0.12489189 -0.006429251
0.005922515 -0.027479202 -0.08528204 0.007575652 0.05476905 0.029239992 0.00613942 -0.007430849
0.028598493 -0.053537697 -0.037763707 -0.06020353 -0.0072831376 -0.027067326 -0.09561706 -0.07748967
-0.017871547 -0.07934815 -0.03824334 -0.05629827 0.016606227 0.0064607337 -0.017164197 0.05578813
0.09406652 0.05902896 0.08674495 0.049345337 -0.022295061 -0.004234477 0.04085447 -0.031535547
0.04199569 -0.06908635 -0.035443168 -0.0033175338 0.00086558925 -0.0031989622 -0.037993435 -0.0078895055
-0.023090273 -0.03563738 0.0051375246 0.037518743 -0.05158732 -0.038935103 -0.03979772 -0.028802434
-0.0005150587 -0.028071592 -0.043870445 0.046326704 0.011495319 -0.056514718 0.055663917 0.043404564
-0.11624366 -0.02637502 -0.0732685 -0.020678703 -0.0008299114 -0.039224118 0.10558488 -0.023929326
-0.046480767 -0.025647461 0.092780106 0.10519271 0.023491792 0.04128539 0.063130066 0.08921227
0.016694315 0.0026394639 0.025043922 -0.023771653 0.009806254 0.001070289 0.07836174 0.048572693
0.053986184 0.010572877 0.08429387 0.08269079 -0.01012095 0.01899401 0.009981687 -0.011025968
0.060656868 -0.0042950483 0.09105388 0.060231533 0.07054466 0.011104964 0.06415907 0.1574072
-0.0534566 0.026119428 0.11861347 0.14653242 0.008136933 0.0836905 0.11225761 0.11180093
-0.009010761 0.039983977 0.07990106 0.004170314 -0.013481481 0.023791455 0.0838854 0.07597042
0.02238922 0.009513406 0.024146065 0.06469391 0.007512351 0.048700154 -0.010667214 0.08868907
0.016273618 -0.061172992 -0.048795003 -0.016795233 -0.009573172 -0.07569927 -0.06600659 0.020714965
-0.018848734 -0.066117756 -0.0651171 0.03164979 -0.012770444 -0.044338834 0.012811945 0.027186101
0.06733762 0.052155506 0.0151358 0.011648593 0.028320735 0.027964935 0.04436212 0.018264227
0.019460702 -0.00705867 -0.00082148635 0.021619087 0.039076075 0.053004634 0.05447519 0.07090424
0.17657448 0.061125156 -0.02083302 0.049006715 0.08570242 0.018683348 -0.018868122 0.017808525
0.05825949 0.031053722 -0.0425446 0.05951277 0.08138317 0.09162664 0.101214215 0.062976666
-0.09231396 -0.06865827 0.022846444 -0.00032737275 0.06740028 0.12522447 0.10999473 -0.035038337
-0.060899213 0.03316247 0.029505242 0.008983964 0.014240473 0.041307893 0.0050898064 -0.014121885
0.055723365 0.08422553 0.023434194 -0.06758135 0.017364861 -0.015793858 -0.12351926 -0.030335378
-0.012329389 -0.12493395 -0.11293437 -0.14194569 0.04571004 -0.099608816 0.0037531396 -0.032239582
-0.055405058 0.017412944 -0.10080444 -0.020609776 0.09078639 0.007908894 -0.09407947 0.007094107
-0.018657144 -0.05928302 -0.0686754 -0.08654594 0.09081527 0.07156526 -0.0051920726 -0.06111577
00000000: a7a3 16be 9889 293d 583f 913d b503 a63d
00000010: 6e95 5f3d abab 363e 71e9 053d 0936 e23c
00000020: 5237 e0bd a7fd 043d 1e83 0fbd 2452 46bd
00000030: 03f4 273d d76f b73d 1c09 363d 5023 f3bd
00000040: 8bff 0cbd 38f6 3dbd 8aff d33c dfa3 70bc
00000050: 6b1e f8bb f1d9 713d 56cb 013e ff74 623b
00000060: 8ff8 4bbb fcda 253d a313 263e f118 0b3e
00000070: ab2d 98bd f2fd 3ebb f3c1 683d 5ffc 7fba
00000080: 0653 0b3d b2c2 7c3d a495 18bd a564 6b3d
00000090: dbf6 cd3a 39da 70bd 52c7 ffbd 77ac d2bb
000000a0: a811 c23b 101c e1bc 5aa8 aebd 2d3d f83b
000000b0: 8355 603d b588 ef3c 302d c93b 7b7e f3bb
000000c0: 6347 ea3c 584a 5bbd 1eae 1abd fa97 76bd
000000d0: 63a7 eebb 4cbc ddbc e1d2 c3bd e7b2 9ebd
000000e0: 5a67 92bc 4881 a2bd 0ca5 1cbd 0499 66bd
000000f0: c809 883c 90b4 d33b ee9b 8cbc 1882 643d
00000100: f3a5 c03d 5ac8 713d 56a7 b13d 561e 4a3d
00000110: 22a4 b6bc 5ec1 8abb 0457 273d 6b2b 01bd
00000120: ac03 2c3d 257d 8dbd db2c 11bd fb6a 59bb
00000130: b6e8 623a aea5 51bb 019f 1bbd fc42 01bc
00000140: d027 bdbc 80f8 11bd ae58 a83b 41ad 193d
00000150: 3a4d 53bd 6a7a 1fbd ef02 23bd 15f3 ebbc
00000160: 0105 07ba 65f6 e5bc 7fb1 33bd 12c1 3d3d
00000170: dd56 3c3c fa7b 67bd d9ff 633d fcc8 313d
00000180: 2811 eebd 6d10 d8bc cc0d 96bd 6266 a9bc
00000190: 698e 59ba 78a9 20bd e33c d83d 6f07 c4bc
000001a0: 9e62 3ebd a01a d2bc 7f03 be3d 476f d73d
000001b0: dc71 c03c de1a 293d 564a 813d ecb4 b63d
000001c0: 84c2 883c dbfa 2c3b e928 cd3c c5bc c2bc
000001d0: 69aa 203c f148 8c3a 1f7c a03d 29f4 463d
000001e0: 9e20 5d3d dc39 2d3c 44a2 ac3d ca59 a93d
000001f0: 57d2 25bc 5399 9b3c 3b8a 233c 43a6 34bc
00000200: 5673 783d 7abd 8cbb 757a ba3d 57b5 763d
00000210: b879 903d 98f1 353c d565 833d 5a2f 213e
00000220: 4ff5 5abd 69f8 d53c 9eeb f23d 980c 163e
00000230: c550 053c ed65 ab3d 51e7 e53d e3f7 e43d
00000240: dfa1 13bc 3dc6 233d 2ba3 a33d 21a7 883b
00000250: 6ee1 5cbc 4ce6 c23c 1ccc ab3d 6196 9b3d
00000260: 9969 b73c 1ede 1b3c f8cd c53c 3e7e 843d
00000270: 2b2a f63b d079 473d 8ac5 2ebc 9da2 b53d
00000280: 4050 853c 8890 7abd 45dd 47bd 2896 89bc
00000290: cbd8 1cbc 3808 9bbd 772e 87bd 6eb2 a93c
000002a0: a968 9abc bf68 87bd 1d5c 85bd 36a3 013d
000002b0: 203b 51bc a39c 35bd 31e9 513c 63b5 de3c
000002c0: 4ee8 893d 03a1 553d 25fc 773c bdd9 3e3c
000002d0: e300 e83c b816 e53c 0eb5 353d dc9e 953c
000002e0: 0d6c 9f3c 6a4c e7bb 0459 57ba 831a b13c
000002f0: 3c0e 203d 631b 593d 6021 5f3d 3e36 913d
00000300: f1cf 343e 5f5e 7a3d 02aa aabc 44bb 483d
00000310: c084 af3d d20d 993c 5291 9abc 2fe3 913c
00000320: 81a1 6e3d 6064 fe3c 3f43 2ebd aac3 733d
00000330: 38ac a63d bfa6 bb3d 6649 cf3d e9f9 803d
00000340: 1a0f bdbd b59c 8cbd 7728 bb3c 3aa3 abb9
00000350: 2809 8a3d d83a 003e eb44 e13d 5c84 0fbd
00000360: 7471 79bd 5fd5 073d fab4 f13c 7a31 133c
00000370: df50 693c 7732 293d 64c8 a63b 7b5f 67bc
00000380: 2f3e 643d 6f7e ac3d 11f9 bf3c 1768 8abd
00000390: c140 8e3c 1f62 81bc aaf7 fcbd e681 f8bc
000003a0: 3501 4abc 5fdd ffbd 234a e7bd 365a 11be
000003b0: 733a 3b3d b5ff cbbd 3cf7 753b a70d 04bd
000003c0: 6af0 62bd 97a5 8e3c 8f72 cebd d5d5 a8bc
000003d0: 37ee b93d 4e94 013c bdac c0bd af75 e83b
000003e0: ded6 98bc c1d2 72bd b0a5 8cbd ff3e b1bd
000003f0: 5bfd b93d cf90 923d 4322 aabb 8854 7abd

con4.1.bias f4 [16]
-0.037374802 0.043384887 -0.056355815 -0.013804689 -0.023322785 -0.024600523 -0.04105695 -0.040232703
0.04858298 -0.011187023 0.06947315 -0.058234088 0.021982342 0.026960555 0.043738727 0.024453789
00000000: 5216 19bd 5ab4 313d 5bd5 66bd 102d 62bc
00000010: 6d0f bfbc 0987 c9bc 552b 28bd 0ccb 24bd
00000020: f2fe 463d c649 37bc f047 8e3d de86 6ebd
00000030: 5014 b43c 62dc dc3c 6127 333d 5053 c83c

con4.2.weight f4 [16]
1.0442038 1.0148509 0.99756026 0.9472219 0.91651213 1.0824264 0.9804218 0.9487976
0.9758692 1.1618061 1.0643095 1.0181429 1.122739 1.0413153 1.0782562 1.0159522
00000000: 78a8 853f a2e6 813f 1c60 7f3f 227d 723f
00000010: 8aa0 6a3f f38c 8a3f ecfc 7a3f 66e4 723f
00000020: 90d2 793f 10b6 943f 4b3b 883f 8252 823f
00000030: e9b5 8f3f d249 853f 4d04 8a3f b90a 823f

con4.2.bias f4 [16]
0.02637862 0.0136783635 -0.0010923852 -0.03471502 -0.15000506 0.043801695 -0.00021621563 -0.035405353
-0.06186965 0.012216267 0.00434613 -0.037107404 0.024316048 0.032034688 0.09367835 0.06290237
00000000: fa17 d83c 371b 603c 5d2e 8fba 5631 0ebd
00000010: ed9a 19be 6869 333d f1b7 62b9 3405 11bd
00000020: 086b 7dbd bd26 483c fb69 8e3b effd 17bd
00000030: 7332 c73c ce36 033d 6fda bf3d f5d2 803d

con4.2.running_mean f4 [16]
0.66035086 -1.0377816 1.8375634 -0.5411794 0.7064299 0.17662376 -0.7723722 0.30913958
-1.3122685 0.8814046 1.9816644 -0.6877705 0.7578516 0.3949783 0.090972394 -1.6721122
00000000: c10c 293f 07d6 84bf 4735 eb3f bc8a 0abf
00000010: 97d8 343f dcdc 343e 2fba 45bf 8b47 9e3e
00000020: 6af8 a7bf bba3 613f 2ea7 fd3f ba11 30bf
00000030: 9002 423f 993a ca3e bc4f ba3d c607 d6bf

con4.2.running_var f4 [16]
4.270641 2.9540672 3.028674 3.528391 7.3741026 1.9947926 2.2325354 7.1159234
8.345006 1.0430996 3.1234324 4.822794 2.0178943 6.481355 1.1657238 2.5969744
00000000: 17a9 8840 700f 3d40 cbd5 4140 28d1 6140
00000010: a6f8 eb40 5d55 ff3f dce1 0e40 a5b5 e340
00000020: 2585 0541 4a84 853f 51e6 4740 5454 9a40
00000030: 2e25 0140 4367 cf40 7036 953f d434 2640

con5.1.weight f4 [16, 16, 4, 4]
-0.00803365 0.040892716 -0.030711386 0.064145304 -0.08884279 -0.062569626 0.017539538 0.14364183
-0.1148329 -0.06234463 -0.053226955 0.055098888 -0.058491223 -0.11627458 -0.11149044 -0.038785633
0.0058172843 0.03542563 0.016095938 -0.03487705 -0.053522676 0.0018400846 0.0569867 -0.00742756
0.041897118 -0.031063767 0.030011026 -0.06439534 -0.045878217 -0.021506505 0.017120669 0.017757457
0.014091041 -0.013403514 -0.06922602 -0.05861495 -0.02330945 -0.07725892 -0.062579215 -0.084861316
-0.052169573 -0.03796993 0.017465707 0.012291111 -0.0936327 -0.005451067 -0.048382197 -0.02130667
-0.03469762 -0.036769982 -0.010691256 -0.019791722 -0.024338314 -0.032689035 -0.031692572 -0.018931678
-0.12677462 -0.114937805 0.015537736 0.024479056 -0.011279697 -0.1481053 -0.0363836 -0.06522806
0.09422112 0.03124166 0.029224517 0.052902173 0.050761614 0.067636356 -0.039986026 -0.062137682
0.04152128 0.033431694 -0.015396932 -0.06791784 0.057104357 0.0122302575 0.003774837 0.0075763245
0.016159141 -0.09384292 0.007503609 -0.06551012 -0.0806584 -0.060812164 0.019388214 -0.09050575
0.016163679 -0.118528 0.031436153 -0.05301562 -0.020290295 -0.0414357 -0.029887635 -0.029109953
0.013561422 0.0021758054 0.046777375 0.09406973 -0.033292644 -0.0036804066 0.0967409 0.07850629
-0.01979922 -0.086777486 -0.06376278 -0.027423292 -0.0452008 -0.04725348 -0.03885093 -0.054159954
-0.026040614 0.014662286 -0.07701908 -0.006653406 0.054580625 -0.009141966 -0.0020509185 0.049728997
-0.02652946 -0.099095136 -0.06263946 0.028617987 0.07186305 -0.0155463675 0.011095753 0.05005158
0.012513017 0.05703319 -0.109503284 -0.093513116 0.025856342 0.098243505 -0.01602738 -0.08416062
0.047302395 0.08863135 -0.08730625 -0.066942886 0.12879483 -0.009439306 -0.004459114 -0.002493106
0.060430665 -0.0015976313 -0.06495526 -0.028605914 -0.016929718 -0.01803721 -0.035727415 0.07068837
0.059799097 -0.044213694 -0.023673173 -0.0052922326 0.014877491 -0.085256495 -0.062354665 0.101458885
-0.028420579 -0.016718943 0.13075764 0.12629448 -0.085670345 -0.054241206 0.082154244 0.11216009
-0.03302109 -0.025280157 0.05134674 0.04727581 -0.0859296 -0.023241663 0.0033132154 -0.0043648877
0.072047785 -0.035347898 -0.012183969 -0.11830254 0.022081649 0.042448346 -0.07254672 -0.09199629
-0.00055780297 0.002715187 0.07382642 0.02456503 0.05971311 0.08747447 0.010172454 -0.04663753
-0.11298978 -0.04562837 0.044865835 -0.008724213 -0.18448721 -0.07282008 -0.11965234 0.04332539
-0.13002744 -0.13458905 -0.050939824 0.0037618228 -0.12049087 -0.1348007 -0.10623453 -0.055433456
0.07364288 -0.008808273 0.11061807 0.07464734 0.04153401 0.10135543 0.11983962 0.017639076
-0.04526213 -0.038909268 0.04499385 -0.06523106 0.019808391 0.05031233 -0.06801085 -0.051175382
-0.021198155 0.035995662 -0.011380596 0.13405162 -0.08824437 0.0073791896 -0.10151933 -0.051827773
-0.049559996 0.020118335 -0.0785104 -0.037959028 -0.06331368 -0.06209527 -0.14342836 -0.024608608
-0.03575763 -0.008547989 -0.03267681 -0.016598927 0.012539272 -0.058550917 -0.051115613 0.022563126
0.04161012 0.010427137 -0.03312463 0.0046200613 -0.091316074 -0.051930252 -0.061197706 -0.032854386
00000000: 929f 03bc 1f7f 273d 7296 fbbc 9d5e 833d
00000010: 35f3 b5bd 8124 80bd 14af 8f3c d816 133e
00000020: 832d ebbd 155d 7fbd 8204 5abd 5faf 613d
00000030: 7e94 6fbd 5e21 eebd 1a55 e4bd afdd 1ebd
00000040: eb9e be3b 771a 113d a1db 833c 3ddb 0ebd
00000050: 983a 5bbd fe2e f13a e36a 693d e462 f3bb
00000060: 509c 2b3d 7179 febc afd9 f53c b4e1 83bd
00000070: ccea 3bbd 692e b0bc a540 8c3c 1678 913c
00000080: 1cde 663c 6a9a 5bbc 5fc6 8dbd 3b16 70bd
00000090: 76f3 bebc ed39 9ebd 8829 80bd c5cb adbd
000000a0: c3af 55bd 5b86 1bbd 3e14 8f3c a860 493c
000000b0: 80c2 bfbd dd9e b2bb 692c 46bd 538b aebc
000000c0: 171f 0ebd 1f9c 16bd 612a 2fbc 4022 a2bc
000000d0: 2561 c7bc f0e4 05bd 12d0 01bd 9b16 9bbc
000000e0: 35d1 01be 8364 ebbd fd91 7e3c 4d88 c83c
000000f0: 7ace 38bc eaa8 17be f806 15bd 4a96 85bd
00000100: 01f7 c03d 82ee ff3c 4168 ef3c f3af 583d
00000110: 69eb 4f3d ee84 8a3d 63c8 23bd 1584 7ebd
00000120: 3812 2a3d acef 083d 6a43 7cbc 8218 8bbd
00000130: 42e6 693d 6b61 483c 4163 773b d142 f83b
00000140: 2d60 843c b830 c0bd d6e0 f53b 2b2a 86bd
00000150: 3b30 a5bd 2d16 79bd 08d4 9e3c 145b b9bd
00000160: b169 843c cfbe f2bd 32c3 003d e826 59bd
00000170: d537 a6bc 7bb8 29bd ead6 f4bc ff77 eebc
00000180: ba30 5e3c f597 0e3b a299 3f3d a1a7 c03d
00000190: de5d 08bd fa32 71bb 1820 c63d e8c7 a03d
000001a0: f931 a2bc 65b8 b1bd 0f96 82bd d0a6 e0bc
000001b0: 7924 39bd dd8c 41bd 2722 1fbd d4d6 5dbd
000001c0: 2053 d5bc 163a 703c 2ebc 9dbd d104 dabb
000001d0: ef8f 5f3d 2fc8 15bc b468 06bb a2b0 4b3d
000001e0: 4f54 d9bc 64f2 cabd 1e49 80bd 4570 ea3c
000001f0: ef2c 933d 31b6 7ebc f6ca 353c e302 4d3d
00000200: 6603 4d3c a29b 693d 4243 e0bd ce83 bfbd
00000210: aed0 d33c e433 c93d da4b 83bc 675c acbd
00000220: 28c0 413d 5a84 b53d 9fcd b2bd 5a19 89bd
00000230: cbe2 033e 52a7 1abc c21d 92bb 6163 23bb
00000240: 2586 773d 9c67 d1ba 4307 85bd f356 eabc
00000250: 31b0 8abc c5c2 93bc e956 12bd 10c5 903d
00000260: e6ef 743d 6b19 35bd 3eee c1bc 776a adbb
00000270: b8c0 733c f59a aebd 9b67 7fbd adc9 cf3d
00000280: 46d2 e8bc 2af6 88bc 55e5 053e 5753 013e
00000290: ef73 afbd 072c 5ebd 7c40 a83d 30b4 e53d
000002a0: 1f41 07bd 5518 cfbc f650 523d 48a4 413d
000002b0: dcfb afbd 4d65 bebc 8822 593b 5507 8fbb
000002c0: ca8d 933d f5c8 10bd 459f 47bc 9a48 f2bd
000002d0: 93e4 b43c 51de 2d3d 6093 94bd 8d68 bcbd
000002e0: 8639 12ba 47f1 313b 4e32 973d 9a3c c93c
000002f0: bc95 743d d125 b33d 5daa 263c ff06 3fbd
00000300: 3067 e7bd d0e4 3abd 3dc5 373d 00f0 0ebc
00000310: 37ea 3cbe b222 95bd 490c f5bd f775 313d
00000320: ea25 05be b6d1 09be 47a6 50bd ea88 763b
00000330: ebc3 f6bd 3209 0abe 7d91 d9bd 310e 63bd
00000340: 14d2 963d 9350 10bc ba8b e23d b4e0 983d
00000350: 911f 2a3d 7093 cf3d 7a6e f53d d37f 903c
00000360: c964 39bd 535f 1fbd 794b 383d dd97 85bd
00000370: 3545 a23c 4d14 4e3d 4649 8bbd 479d 51bd
00000380: c1a7 adbc 3070 133d ae75 3abc d444 093e
00000390: 77b9 b4bd 21cd f13b 5ee9 cfbd 5c49 54bd
000003a0: 6cff 4abd 35cf a43c 10ca a0bd ed7a 1bbd
000003b0: 9aaa 81bd 9c57 7ebd e2de 12be fe97 c9bc
000003c0: 9876 12bd dd0c 0cbc 1ed8 05bd 79fa 87bc
000003d0: 8571 4d3c 16d3 6fbd 9b5e 51bd 4ed6 b83c
000003e0: 606f 2a3d 95d6 2a3c b1ad 07bd e263 973b
000003f0: ec03 bbbd d1b4 54bd 72aa 7abd 5292 06bd

con5.1.bias f4 [16]
0.06272934 0.006678943 0.030538913 -0.00018128139 0.02192628 0.03385674 -0.057474624 0.03251722
-0.046290003 -0.033564486 0.015842786 -0.008722887 0.010667018 0.00951079 0.04280908 -0.060269576
00000000: 3d78 803d 09db da3b be2c fa3c 5a16 3eb9
00000010: be9e b33c 5dad 0a3d 836a 6bbd c730 053d
00000020: 969a 3dbd ea7a 09bd bbc8 813c 71ea 0ebc
00000030: b7c4 2e3c 25d3 1b3c 9358 2f3d 3bdd 76bd

con5.2.weight f4 [16]
0.9742037 0.95682925 1.0161788 1.0109683 0.9867623 0.9866434 0.9468782 0.91776943
0.9535133 0.98197156 0.93100584 1.022149 1.1222366 1.0368142 1.0541295 1.0674201
00000000: 6a65 793f c3f2 743f 2612 823f 6967 813f
00000010: 749c 7c3f a994 7c3f 9c66 723f f0f2 6a3f
00000020: 7319 743f 7d62 7b3f 6656 6e3f c7d5 823f
00000030: 73a5 8f3f 54b6 843f b7ed 863f 39a1 883f

con5.2.bias f4 [16]
-0.017844716 -0.06723656 -0.04434976 -0.024448058 -0.051429003 -0.03366773 -0.050141353 -0.077335104
-0.0075326706 -0.042557873 -0.019255843 -0.023170931 0.04407298 -0.006397734 -0.042874087 -0.009599113
00000000: 152f 92bc 52b3 89bd 18a8 35bd 4b47 c8bc
00000010: 38a7 52bd 2ce7 09bd 0561 4dbd de61 9ebd
00000020: 9fd4 f6bb 2a51 2ebd 6ebe 9dbc f7d0 bdbc
00000030: de85 343d 15a4 d1bb bd9c 2fbd 9945 1dbc

con5.2.running_mean f4 [16]
-1.312211 1.8003709 -1.0666615 0.54076564 -0.15539259 0.3801828 -0.28867024 0.06464083
0.095038906 -1.03972 -0.6544042 -0.271799 0.2820292 -0.031868707 0.40218627 0.045740943
00000000: 88f6 a7bf 8e72 e63f 5d88 88bf 9e6f 0a3f
00000010: 3c1f 1fbe 52a7 c23e 96cc 93be 6962 843d
00000020: c2a3 c23d 8c15 85bf 0987 27bf 3d29 8bbe
00000030: 2266 903e c388 02bd 5ceb cd3e db5a 3b3d

con5.2.running_var f4 [16]
4.695324 8.224489 4.3304796 1.6180325 1.0956129 3.052729 2.1551464 1.6626111
8.427431 3.464306 2.8387058 0.849595 1.0300927 1.1358229 1.0193851 0.7501358
00000000: 1840 9640 8297 0341 4a93 8a40 b01b cf3f
00000010: 0b3d 8c3f e95f 4340 ebed 0940 71d0 d43f
00000020: c2d6 0641 31b7 5d40 5bad 3540 0f7f 593f
00000030: 14da 833f a562 913f 367b 823f e608 403f

RCAB1.body.0.weight f4 [16, 16, 3, 3]
-0.08116313 -0.051827013 0.07019726 -0.12707992 -0.03708723 0.0037459305 -0.07239714 0.034989312
-0.03869481 0.013889874 -0.014943342 -0.062628515 -0.048038 -0.017367078 0.061811566 -0.034291416
0.009048668 -0.04693007 -0.03735208 0.03957836 0.03269149 -0.11731018 -0.016112259 0.022356365
-0.029047642 -0.00425752 -0.012764301 0.14119075 0.08822209 0.0590294 0.14094599 0.025615487
0.024426272 0.027966615 -0.04715865 -0.056371734 0.103526376 -0.042270288 -0.10452527 -0.06529863
-0.014154869 -0.07657069 -0.09745304 -0.11843383 -0.04587971 0.005694685 -0.017896347 -0.010777748
0.14693561 -0.03334898 -0.07959288 -0.048443075 -0.11370305 -0.14172858 0.07105453 -0.07580061
0.025116466 -0.0035730407 -0.061781574 0.0031475094 0.039159015 -0.08484086 0.023807583 -0.07503069
-0.026126685 -0.06688696 0.023827553 0.057711534 -0.019912947 0.05681334 0.052992158 -0.063891366
-0.06718073 -0.06410106 0.015907614 -0.03673092 0.039079122 -0.06133106 0.003520685 0.013160615
-0.06752932 0.005908631 -0.050942305 0.07325636 0.01917747 -0.05117962 -0.019374475 0.017761923
-0.030196292 0.04428664 0.04969666 -0.013827439 -0.08915593 0.06480208 -0.049390297 0.027250577
0.116026215 0.06817454 0.053892873 -0.052865997 -0.046192605 0.054454118 0.12738517 -0.008916818
-0.06053514 0.11061658 0.01444516 -0.033381086 0.11407263 0.10209534 -0.013071182 0.17298098
0.07398084 -0.12995373 0.24130104 -0.023548665 -0.09115317 0.14601533 0.015604514 -0.10344998
-0.022868522 0.045994755 -0.08868771 0.007621213 -0.040372036 -0.00591614 -0.07225689 -0.034495745
-0.06633475 -0.06354848 0.06119032 -0.035091113 0.08617141 0.07247474 0.017600236 -0.0032257072
0.07578654 0.021458726 0.08629889 -0.0075711627 -0.06474426 0.002226087 -0.07209768 -0.05360428
-0.08242589 0.049937833 0.012409888 -0.018694984 -0.022820603 0.051143873 -0.10700498 -0.0114184255
-0.07885083 -0.084536195 -0.038172804 -0.11732858 -0.10611514 -0.054835085 0.016307715 -0.13968208
-0.07445194 0.036833175 0.06529134 0.11850917 0.123662405 0.09973305 0.019464083 -0.03717813
0.06053442 0.00444254 -0.032830607 -0.0871333 0.042282656 -0.06643836 -0.1253377 -0.016737409
-0.044065207 -0.0044752047 0.08858423 0.11520811 0.020518566 0.005393903 -0.12819488 -0.032697763
0.007214022 -0.04822469 0.054216847 0.04763895 -0.0064672353 0.10830179 0.090477474 0.0070769237
0.001983014 -0.016191637 -0.047856115 -0.040310346 0.05156466 -0.0844525 0.13734043 -0.011881861
-0.031436242 -0.021740073 0.015075975 0.02605423 0.011935645 0.050025545 -0.034298234 -0.08244128
-0.040874377 -0.086247124 0.071967475 0.04907009 -0.00039505985 0.0074013993 0.04914484 -0.020335972
-0.022907948 -0.052661236 -0.10015914 -0.04276638 0.0314032 -0.04466395 0.038195062 -0.01592767
0.12601702 0.06200026 -0.071625695 -0.03464134 0.09924995 -0.030677723 -0.12424884 0.11577977
-0.032258753 -0.03946297 -0.10739976 0.0031607084 0.0280628 0.05082308 -0.08319015 0.0076751593
0.028030256 -0.09450551 -0.08959314 0.050938036 0.04097379 -0.049416244 0.06726169 0.007567735
-0.057139162 -0.031963367 0.010023439 -0.022018671 0.051912278 0.021353025 -0.017761834 0.046354104
00000000: db38 a6bd 9048 54bd 95c3 8f3d 3d21 02be
00000010: c7e8 17bd 497e 753b f444 94bd f450 0f3d
00000020: 737e 1ebd 5b92 633c ebd4 74bc 6143 80bd
00000030: 7ec3 44bd 6745 8ebc 202e 7d3d 2875 0cbd
00000040: dd40 143c bf39 40bd 7ffe 18bd eb1c 223d
00000050: 83e7 053d 5240 f0bd dbfd 83bc b224 b73c
00000060: 52f5 edbc ab82 8bbb 5c21 51bc 4f94 103e
00000070: c8ad b43d d0c8 713d 2554 103e 92d7 d13c
00000080: 9b19 c83c 3e1a e53c 6e29 41bd 0ce6 66bd
00000090: a305 d43d 9c23 2dbd 5811 d6bd 4abb 85bd
000000a0: d3e9 67bc 18d1 9cbd 7695 c7bd 708d f2bd
000000b0: 5dec 3bbd 7b9a ba3b 5c9b 92bc 2795 30bc
000000c0: 4a76 163e f198 08bd 9801 a3bd 3f6c 46bd
000000d0: 25dd e8bd 4c21 11be 0a85 913d 5a3d 9bbd
000000e0: 0cc1 cd3c ad29 6abb ad0e 7dbd 7246 4e3b
000000f0: 3465 203d 0bc1 adbd 1f08 c33c b1a9 99bd
00000100: a107 d6bc 08fc 88bd 0032 c33c ee62 6c3d
00000110: 7a20 a3bc 1bb5 683d 4e0e 593d 7ad9 82bd
00000120: 0d96 89bd 6b47 83bd af50 823c 2973 16bd
00000130: 6e11 203d 4736 7bbd 4bbb 663b 9f9f 573c
00000140: d04c 8abd 309d c13b e1a8 50bd 6e07 963d
00000150: 121a 9d3c b9a1 51bd 38b7 9ebc 7481 913c
00000160: 375e f7bc e865 353d ba8e 4b3d 7c8c 62bc
00000170: 6297 b6bd f4b6 843d 7b4d 4abd 9a3c df3c
00000180: 279f ed3d 189f 8b3d c6be 5c3d 048a 58bd
00000190: 7534 3dbd 480b 5f3d 4271 023e d817 12bc
000001a0: b2f3 77bd f28a e23d 64ab 6c3c 9bba 08bd
000001b0: e99e e93d 5d17 d13d 8328 56bc ed21 313e
000001c0: 4483 973d 9712 05be 9f17 773e 21e9 c0bc
000001d0: 83ae babd 0b85 153e 13aa 7f3c 95dd d3bd
000001e0: c456 bbbc ff64 3c3d e7a1 b5bd 5ebb f93b
000001f0: 265d 25bd 2edc c1bb 6cfb 93bd 694b 0dbd
00000200: 83da 87bd b525 82bd b3a2 7a3d b3bb 0fbd
00000210: a37a b03d a36d 943d 5f2e 903c 6366 53bb
00000220: f935 9b3d 36ca af3c 79bd b03d 8417 f8bb
00000230: a398 84bd 8be3 113b f3a7 93bd 2990 5bbd
00000240: e8ce a8bd 9d8b 4c3d d852 4b3c 3926 99bc
00000250: 46f2 babc 3d7c 513d 6d25 dbbd 5914 3bbc
00000260: 8b7c a1bd 5021 adbd 165b 1cbd f749 f0bd
00000270: e552 d9bd c19a 60bd c297 853c d208 0fbe
00000280: 427a 98bd 62de 163d 77b7 853d f0b4 f23d
00000290: b742 fd3d d740 cc3d 2473 9f3c 1848 18bd
000002a0: f1f2 773d ba92 913b 6379 06bd f272 b2bd
000002b0: 9430 2d3d d610 88bd 8758 00be e41c 89bc
000002c0: b87d 34bd bda4 92bb a66b b53d 3bf2 eb3d
000002d0: 8d16 a83c 56bf b03b 8545 03be 17ee 05bd
000002e0: 9a63 ec3b 4187 45bd 7c12 5e3d 0f21 433d
000002f0: 1aeb d3bb 54cd dd3d 414c b93d 8ae5 e73b
00000300: 74f5 013b 53a4 84bc c604 44bd 761c 25bd
00000310: 7735 533d 6ff5 acbd f8a2 0c3e 23ac 42bc
00000320: 4ac3 00bd 3d18 b2bc 3901 773c ae6f d53c
00000330: b98d 433c 96e7 4c3d 4e7c 0cbd f9d6 a8bd
00000340: e46b 27bd 55a2 b0bd af63 933d b8fd 483d
00000350: 0920 cfb9 7087 f23b 1a4c 493d a097 a6bc
00000360: 73a9 bbbc 4fb3 57bd 3c20 cdbd cd2b 2fbd
00000370: a4a0 003d 8cf1 36bd 6d72 1c3d bf7a 82bc
00000380: 9b0a 013e fcf3 7d3d 7eb0 92bd 14e4 0dbd
00000390: 8f43 cb3d d94f fbbc 2d76 febd f21d ed3d
000003a0: c121 04bd eca3 21bd 68f4 dbbd e323 4f3b
000003b0: f5e3 e53c dd2b 503d 995f aabd e77f fb3b
000003c0: b59f e53c 1b8c c1bd 9c7c b7bd 67a4 503d
000003d0: 22d4 273d b068 4abd 7fc0 893d c3fa f73b
000003e0: c10a 6abd 05ec 02bd 5a39 243c 8060 b4bc
000003f0: f8a1 543d 8aec ae3c 4481 91bc cddd 3d3d

RCAB1.body.0.bias f4 [16]
-0.056393106 0.08787885 0.048666105 0.02431635 -0.061056376 0.047836512 0.07311905 0.07285417
-0.0825968 -0.008197125 -0.03800486 -0.05787386 0.014310102 0.03214707 -0.07136418 0.07523608
00000000: 75fc 66bd d4f9 b33d 1c56 473d 1533 c73c
00000010: 4016 7abd 38f0 433d 71bf 953d 9134 953d
00000020: 8328 a9bd 3c4d 06bc fcaa 1bbd 240d 6dbd
00000030: eb74 6a3c a5ac 033d 6227 92bd 6015 9a3d

RCAB1.body.1.weight f4 [16]
1.0501331 0.9420797 1.020444 1.0010953 1.093169 1.0071675 1.038656 1.0218554
1.0298282 1.1034076 1.0388647 0.9874963 1.009991 1.036465 0.99451417 0.9935844
00000000: c36a 863f 232c 713f e99d 823f e423 803f
00000010: f6ec 8b3f ddea 803f aef2 843f 28cc 823f
00000020: 69d1 833f 763c 8d3f 85f9 843f 8fcc 7c3f
00000030: 6347 813f e3aa 843f 7b98 7e3f 8c5b 7e3f

RCAB1.body.1.bias f4 [16]
-0.06418292 0.030160554 -0.030135134 -0.06638536 0.038495403 0.01474604 -0.06855789 -0.04607221
-0.024543107 0.00034543048 0.0050894953 -0.01693909 0.04878018 -0.03194615 -0.057981133 -0.018148808
00000000: 5672 83bd 4413 f73c f5dd f6bc 0cf5 87bd
00000010: 5bad 1d3d 6099 713c 1468 8cbd 37b6 3cbd
00000020: a00e c9bc e51a b539 c8c5 a63b d9c3 8abc
00000030: bacd 473d f7d9 02bd a07d 6dbd cfac 94bc

RCAB1.body.1.running_mean f4 [16]
-0.16227359 -0.017264972 -1.0057021 0.042718243 -0.2733307 0.019165747 -0.51336807 -0.08450408
-0.1094113 -0.83378756 -0.46190748 -0.53548104 0.11927864 -0.16385551 0.13633323 -0.0817469
00000000: 0c2b 26be 456f 8dbc d9ba 80bf 53f9 2e3d
00000010: 00f2 8bbe 7c01 9d3c 176c 03bf 7a10 adbd
00000020: 0813 e0bd 1a73 55bf 237f ecbe 4915 09bf
00000030: 5c48 f43d bdc9 27be f09a 0b3e eb6a a7bd

RCAB1.body.1.running_var f4 [16]
0.76854765 0.3698152 1.1572219 0.90626156 0.5586357 0.68282616 1.0022836 0.52096117
0.70007914 1.3285697 0.61705536 1.0035468 1.1654563 0.7013672 0.92490387 1.7328509
00000000: 8abf 443f 6b58 bd3e d91f 943f c200 683f
00000010: c002 0f3f b2cd 2e3f d44a 803f b65d 053f
00000020: 6338 333f 920e aa3f 57f7 1d3f 3974 803f
00000030: ac2d 953f cd8c 333f 80c6 6c3f 0fce dd3f
