All_model/Super+Finute/33-global_G.ckpt (torch, 110877 bytes, 184 tensors)

con1.1.weight f4 [8, 3, 4, 4]
-0.10498991 -0.13808519 -0.091775656 -0.17231052 0.19449617 0.27199265 0.031722784 -0.044282366
0.13438708 0.1947106 -0.018756129 0.14981444 -0.21340932 -0.064698346 -0.17670272 0.027670577
-0.050047185 0.05162688 0.029739473 -0.15289369 0.19646882 0.10720809 0.26645282 -0.06704038
0.04985113 0.10717222 0.0761565 0.018117553 -0.032050516 -0.0001388537 0.09742698 -0.16144788
-0.18203385 0.0198203 -0.049821235 -0.25014728 0.28208846 1.0652324 0.62198675 0.05441982
0.2090138 0.3517184 0.2658595 -0.22087228 -0.34091133 -0.11167035 -0.022917632 -0.07029342
-0.057313442 0.017174337 -0.060908098 0.0032888923 -0.106852956 0.04685701 -0.020588275 -0.14074668
0.30489925 0.4673874 0.085807405 0.006345906 -0.07924532 0.38361105 0.012407527 -0.09221887
0.032591607 -0.1721966 0.101963095 0.16526334 0.099329546 0.020597078 -0.09513306 -0.023005674
0.28673646 0.3008048 0.09260159 0.05393619 0.17307846 0.22234987 0.005883263 -0.20296068
-0.031315785 0.002095557 -0.14348005 0.113283634 -0.00819683 -0.026860239 -0.041517816 0.026091645
-0.06836401 0.01393493 -0.016561784 -0.06879989 -0.1237828 0.034107108 -0.14150073 -0.064062625
-0.20134538 -0.38215828 -0.027057765 0.070204794 -0.27236772 -0.43519872 -0.23662809 0.053394295
0.10353045 -0.2970853 0.0027968427 0.16882777 0.0686479 0.022613164 0.043530215 -0.0030207124
-0.18489313 -0.0409638 -0.18417536 0.1645504 -0.26413128 -0.32064843 -0.073387645 0.013943471
-0.16053392 0.0015619722 -0.06894515 0.039026912 0.056210894 0.08374739 0.031558096 -0.022731032
0.055451598 0.06457202 -0.08576918 0.03893595 -0.01895967 0.073501796 0.10270094 0.007248672
0.004429011 0.052613005 0.012463023 0.07115321 0.098401584 0.030774856 0.030172836 -0.1126434
0.05424331 -0.06785644 -0.06063358 0.08623081 0.019806748 0.011871596 -0.005565989 0.14739369
-0.084459804 -0.028686723 -0.11296327 -0.12533318 0.124087326 0.005067719 0.012042893 0.024512988
-0.0030828258 0.00041028907 0.14856249 0.06251274 -0.1713387 -0.101708665 -0.18793419 0.029206827
0.040869426 -0.276313 -0.034677047 0.07191963 -0.00444302 -0.07707959 -0.055481646 0.17353123
0.09014746 -0.22217254 -0.17011978 0.28904703 -0.3769758 -0.7606725 -0.4408907 -0.19512452
-0.18505323 -0.65862477 -0.6814717 -0.04129729 0.4885902 0.05140533 -0.039652906 0.24644522
0.021454483 0.16665319 0.026715467 0.14450039 -0.019310795 -0.09971001 0.08712122 -0.10355559
-0.11382935 -0.0638469 -0.11340787 0.026852913 0.16574895 0.0020293517 0.06258106 -0.07720707
-0.14248489 0.06525809 0.41100594 -0.26508495 -0.078827284 0.32178387 0.607676 -0.14650235
-0.05216054 -0.08468224 -0.0246243 0.024116823 0.0577693 -0.100725085 -0.08295572 0.10488248
-0.25420654 -0.0069240537 0.22084737 -0.01981063 -0.010222702 0.25278488 0.3271578 -0.027237762
-0.10144752 -0.0040578414 -0.09013611 -0.0822912 -0.0152435005 -0.021495301 0.025423015 0.03366537
0.08490386 0.07350915 -0.061362606 0.35156956 0.04097005 -0.017111788 -0.21003468 -0.0014637642
-0.18120119 0.113401495 -0.25050053 -0.04140726 -0.027109569 0.19843762 -0.13102116 0.18288866
00000000: f304 d7bd 3466 0dbe e0f4 bbbd 2b72 30be
00000010: 012a 473e 9f42 8b3e c0ef 013d 6d61 35bd
00000020: c49c 093e 3762 473e 74a6 99bc f568 193e
00000030: f987 5abe 9180 84bd 8ff1 34be 68ad e23c
00000040: 47fe 4cbd b576 533d 32a0 f33c 2a90 1cbe
00000050: 1f2f 493e ea8f db3d 816c 883e 774c 89bd
00000060: b330 4c3d 1c7d db3d f0f7 9b3d 436b 943c
00000070: 6747 03bd 4299 11b9 cc87 c73d 9852 25be
00000080: 1567 3abe 2f5e a23c 5a11 4cbd 4e13 80be
00000090: e66d 903e 8959 883f 863a 1f3f 51e7 5e3d
000000a0: b707 563e 6f14 b43e bd1e 883e 582c 62be
000000b0: ee8b aebe 6db3 e4bd c2bd bbbc fff5 8fbd
000000c0: 80c1 6abd 32b1 8c3c c57a 79bd 758a 573b
000000d0: b9d5 dabd 23ed 3f3d bea8 a8bc e61f 10be
000000e0: c11b 9c3e 674d ef3e cbbb af3d 51f1 cf3b
000000f0: 5f4b a2bd ab68 c43e f148 4b3c 3fdd bcbd
00000100: c77e 053d 4e54 30be 07d2 d03d cb3a 293e
00000110: 4a6d cb3d 34bb a83c 1fd5 c2bd 6576 bcbc
00000120: 1fcf 923e 1603 9a3e e7a5 bd3d 32ec 5c3d
00000130: 7b3b 313e afaf 633e 63c8 c03b edd4 4fbe
00000140: fb44 00bd 9d55 093b 6fec 12be 4001 e83d
00000150: ff4b 06bc 010a dcbc 960e 2abd 25be d53c
00000160: 6e02 8cbd 554f 643c 94ac 87bc f5e6 8cbd
00000170: d681 fdbd e5b3 0b3d 91e5 10be 4433 83bd
00000180: 7c2d 4ebe 40aa c3be 3fa8 ddbc 88c7 8f3d
00000190: c873 8bbe 5ed2 debe a24e 72be fab3 5a3d
000001a0: c607 d43d 901b 98be 3c4b 373b 30e1 2c3e
000001b0: 4597 8c3d 3e3f b93c bd4c 323d 25f7 45bb
000001c0: a054 3dbe a8c9 27bd 7798 3cbe e67f 283e
000001d0: 373c 87be 082c a4be 434c 96bd 2873 643c
000001e0: 0163 24be 17bb cc3a 1d33 8dbd afda 1f3d
000001f0: 653d 663d c083 ab3d 1043 013d 6e36 babc
00000200: 3721 633d 563e 843d c0a7 afbd 4d7b 1f3d
00000210: 4f51 9bbc 1c88 963d df54 d23d 4586 ed3b
00000220: 3d21 913b bc80 573d b531 4c3c c6b8 913d
00000230: c586 c93d 8d1b fc3c 062d f73c 95b1 e6bd
00000240: 3c2e 5e3d 51f8 8abd eb5a 78bd c799 b03d
00000250: c341 a23c 1581 423c e662 b6bb 5fee 163e
00000260: 43f9 acbd 6b00 ebbc 4959 e7bd 5757 00be
00000270: 7f21 fe3d 1c0f a63b 8e4f 453c 76cf c83c
00000280: 3c09 4abb 111c d739 c420 183e ae06 803d
00000290: 6a73 2fbe a24c d0bd d271 40be 2843 ef3c
000002a0: b366 273d e678 8dbe 8509 0ebd 994a 933d
000002b0: c196 91bb e7db 9dbd b940 63bd 2cb2 313e
000002c0: 3b9f b83d 3381 63be e133 2ebe f9fd 933e
000002d0: f902 c1be 6fbb 42bf 6dbc e1be b9ce 47be
000002e0: 987e 3dbe a29b 28bf ee74 2ebf 5927 29bd
000002f0: 7f28 fa3e 658e 523d 166b 22bd 235c 7c3e
00000300: 50c1 af3c 22a7 2a3e 65da da3c e9f7 133e
00000310: ac31 9ebc c334 ccbd 9c6c b23d f414 d4bd
00000320: 5d1f e9bd 2ac2 82bd 6342 e8bd a4fa db3c
00000330: 18ba 293e dffe 043b 802a 803d be1e 9ebd
00000340: 8fe7 11be 09a6 853d 5f6f d23e 37b9 87be
00000350: 3370 a1bd dbc0 a43e a890 1b3f b604 16be
00000360: 4aa6 55bd e26d adbd e6b8 c9bc a590 c53c
00000370: 809f 6c3d f448 cebd b0e4 a9bd a0cc d63d
00000380: 5c27 82be 2ce3 e2bb d025 623e e749 a2bc
00000390: 1f7d 27bc 056d 813e 3a81 a73e ba21 dfbc
000003a0: b8c3 cfbd a4f7 84bb 4899 b8bd 4a88 a8bd
000003b0: e0bf 79bc ea16 b0bc ed43 d03c b3e4 093d
000003c0: 13e2 ad3d f78b 963d 5b57 7bbd ed00 b43e
000003d0: 36d0 273d 052e 8cbc 5513 57be c7db bfba
000003e0: ce8c 39be 0b3f e83d 9b41 80be a99a 29bd
000003f0: e314 debc 3b33 4b3e 692a 06be 2a47 3b3e

con1.1.bias f4 [8]
0.028495817 0.068140015 -0.12357256 0.027253121 -0.1297295 0.04836346 -0.07103296 -0.09609064
00000000: 0f70 e93c fe8c 8b3d 9c13 fdbd f041 df3c
00000010: cfd7 04be c318 463d bb79 91bd 2bcb c4bd

con1.2.weight f4 [8]
0.95662844 0.93675125 1.1098878 1.1717037 0.527185 0.56843543 0.4734939 0.19371977
00000000: 9ae5 743f eece 6f3f ce10 8e3f 63fa 953f
00000010: 99f5 063f fc84 113f cb6d f23e 7a5e 463e

con1.2.bias f4 [8]
0.26483342 0.3322899 -0.46453074 -0.40712515 -0.3675127 -0.35105184 0.327663 0.42951962
00000000: 3f98 873e e721 aa3e f9d6 edbe b572 d0be
00000010: a02a bcbe 11bd b3be 72c3 a73e ffe9 db3e

con1.2.running_mean f4 [8]
-0.27858686 -0.026123315 0.060346305 0.49479055 -0.2253283 0.07858716 0.106345505 -0.189035
00000000: f0a2 8ebe 9000 d6bc b02d 773d 3055 fd3e
00000010: 76bc 66be 4ef2 a03d accb d93d 6492 41be

con1.2.running_var f4 [8]
1.16427 0.46813133 0.87813765 2.2570312 0.21690403 0.12038369 0.44181103 0.07696885
00000000: cd06 953f e9ae ef3e a1cd 603f 3373 1040
00000010: 171c 5e3e b98b f63d 0e35 e23e d8a1 9d3d

con2.1.weight f4 [4, 8, 4, 4]
-0.09596213 0.004299225 -0.11623646 -0.10695212 -0.065563366 0.108787805 0.23272061 0.0051439186
-0.11627117 0.054474205 0.2227232 0.017735174 -0.09085265 0.019743443 0.11543912 -0.06423636
0.14983451 0.08187704 0.13032645 0.046807975 0.16185175 -0.14322682 0.20845547 0.081210755
0.08905674 -0.11540629 0.082470335 0.07526841 0.08921197 0.043730732 0.09263773 0.019915394
-0.020857241 -0.032289844 0.066543706 -0.10032091 -0.014820713 0.13350442 0.27847677 0.1134589
0.040331505 0.5131812 0.47845858 0.1843659 0.0059334277 0.26562756 0.24285874 0.018842889
-0.026538499 -0.042488612 0.02347631 0.040268105 0.041811045 -0.060401 0.15226094 -0.02274817
0.06376983 0.11042729 0.13722394 0.030378865 0.06343 0.035634913 0.11418268 0.062461756
0.06357046 0.005166078 -0.023662262 0.13498446 -0.070804715 0.08028997 0.07353556 -0.042302094
-0.04545884 0.1584876 0.11281047 -0.020281121 0.045244973 0.17981762 0.046649426 -0.050726376
0.04256198 0.016684655 -0.10889515 -0.1097845 0.07102046 0.117982194 0.066840455 -0.06507604
-0.044145726 0.022804512 0.05145621 -0.11066543 -0.08267566 -0.007410209 -0.038371794 -0.0005404711
0.058552466 0.096542954 0.12751581 0.025194494 -0.026667392 0.0018886948 0.07152752 0.066567324
0.020768177 0.06082931 -0.00057642144 0.033743195 0.049474858 0.22541624 0.13099852 -0.09183138
-0.045971368 -0.006672478 -0.035867255 0.10139861 -0.13498852 -0.11965883 -0.047268208 0.031755295
-0.040847305 -0.012545016 -0.029503692 0.09359538 0.04192751 0.010277412 -0.03954361 0.029256422
-0.06685336 -0.027971374 0.028014254 -0.03395293 -0.038248505 -0.08090002 -0.00092717184 0.049010325
-0.00045066595 -0.16718815 -0.06882194 0.08180118 0.033745755 -0.03597386 0.14189763 0.024117235
0.07976898 -0.027127812 -0.09630473 0.08873606 0.0015039218 -0.40337297 -0.2920943 -0.09478926
-0.025465878 -0.26922712 -0.24387386 -0.07099294 0.07589413 0.17255197 0.05622107 0.0830657
0.0026873332 -0.05489792 -0.02752727 0.05058619 -0.07371518 0.0159661 0.049907904 -0.12629522
-0.070345245 0.54939336 0.53958493 0.011605035 -0.03726248 0.28196734 0.21988699 -0.022658648
0.14080268 -0.010172264 0.0234878 0.114123374 0.008660218 0.017854018 -0.03758014 -0.025207682
0.032213412 0.13405237 -0.038218647 -0.05414726 0.028723964 -0.026433319 -0.14021194 0.028044442
0.027847035 -0.032295078 0.009555137 0.011531927 0.01707886 -0.004998466 0.037594903 0.011560538
-0.0499658 -0.14548968 -0.17253345 -0.057906713 -0.021243682 -0.02329143 -0.09172885 -0.080824405
-0.1904371 -0.06905126 -0.07815784 -0.029113365 0.043303285 0.09789901 -0.00012039003 -0.03130379
0.07284907 0.20053628 -0.019184258 -0.042140484 -0.2547666 -0.1327127 -0.13497351 -0.023205886
0.061472233 0.0779671 0.020871814 0.062650934 0.002793083 -0.06553118 0.09785646 0.13825555
-0.050182275 0.001407201 0.09511051 0.13887413 0.05354568 0.018560447 0.087056 0.06997171
-0.17653875 -0.048309725 -0.12884131 -0.17715454 -0.06553098 -0.3955679 -0.34142134 -0.15742558
-0.04679359 -0.31995106 -0.39784896 -0.108034454 -0.21157137 -0.10390995 -0.09798465 -0.1788487
00000000: cb87 c4bd 83e0 8c3b 620d eebd b709 dbbd
00000010: 1646 86bd 24cc de3d 504e 6e3e 518e a83b
00000020: 941f eebd 5820 5f3d 8d11 643e 5b49 913c
00000030: f410 babd 00bd a13c 586b ec3d 5a8e 83bd
00000040: 386e 193e 26af a73d 4c74 053e b8b9 3f3d
00000050: 77bc 253e 0daa 12be 5a75 553e d351 a63d
00000060: 6163 b63d 225a ecbd 35e6 a83d 5326 9a3d
00000070: c4b4 b63d ff1e 333d dab8 bd3d 9c25 a33c
00000080: cedc aabc 5b42 04bd 1148 883d 0d75 cdbd
00000090: 93d2 72bc 62b5 083e 8294 8e3e 245d e83d
000000a0: a632 253d d85f 033f 86f8 f43e 6aca 3c3e
000000b0: 336d c23b 5600 883e f6af 783e 675c 9a3c
000000c0: 4467 d9bc 8a08 2ebd 6451 c03c 2bf0 243d
000000d0: 0f42 2b3d 0a67 77bd 4bea 1b3e 5f5a babc
000000e0: c299 823d b427 e23d 6f84 0c3e 19dd f83c
000000f0: 96e7 813d eaf5 113d 9cd8 e93d e6d7 7f3d
00000100: 3b31 823d 3448 a93b 5cd7 c1bc 5e39 0a3e
00000110: 1002 91bd 116f a43d d099 963d f644 2dbd
00000120: 0c33 3abd 934a 223e 2d09 e73d 9824 a6bc
00000130: cb52 393d 1c22 383e 7813 3f3d 76c6 4fbd
00000140: 7955 2e3d 42ae 883c 6c04 dfbd b2d6 e0bd
00000150: 2d73 913d a6a0 f13d a6e3 883d 9646 85bd
00000160: 26d2 34bd 87d0 ba3c bfc3 523d 8fa4 e2bd
00000170: db51 a9bd 57d1 f2bb be2b 1dbd 67ae 0dba
00000180: b6d4 6f3d 50b8 c53d 8193 023e af64 ce3c
00000190: 9375 dabc 158e f73a 057d 923d 7354 883d
000001a0: 0622 aa3c 2828 793d fd1a 17ba 4e36 0a3d
000001b0: 26a6 4a3d 84d3 663e 7a24 063e 1712 bcbd
000001c0: 794c 3cbd cda4 dabb 8be9 12bd 13aa cf3d
000001d0: 6e3a 0abe b00f f5bd 4f9c 41bd d711 023d
000001e0: 814f 27bd 9c89 4dbc bab1 f1bc efae bf3d
000001f0: 2ebc 2b3d 9762 283c 7bf8 21bd 2aab ef3c
00000200: 6aea 88bd 3924 e5bc 267e e53c 3a12 0bbd
00000210: 77aa 1cbd e9ae a5bd 730d 73ba 0dbf 483d
00000220: 5c47 ecb9 5f33 2bbe 84f2 8cbd 6187 a73d
00000230: fd38 0a3d 5459 13bd 9d4d 113e 8291 c53c
00000240: eb5d a33d 253b debc 6a3b c5bd 40bb b53d
00000250: 3e1f c53a e786 cebe 628d 95be df20 c2bd
00000260: d19d d0bc 23d8 89be 12ba 79be bf64 91bd
00000270: 626e 9b3d 77b1 303e 1148 663d 5a1e aa3d
00000280: f81d 303b a4dc 60bd df80 e1bc 7733 4f3d
00000290: fcf7 96bd 57cb 823c 3b6c 4c3d 8953 01be
000002a0: 2b11 90bd 0ba5 0c3f 3d22 0a3f 0b23 3e3c
000002b0: 8ba0 18bd 065e 903e 0e2a 613e a19e b9bc
000002c0: 942e 103e 91a9 26bc 7d69 c03c 84b9 e93d
000002d0: 96e3 0d3c 9742 923c a2ed 19bd 5780 cebc
000002e0: 36f2 033d 0645 093e 288b 1cbd 84c9 5dbd
000002f0: 854e eb3c b08a d8bc b893 0fbe 75bd e53c
00000300: 771f e43c d847 04bd 268d 1c3c 68f0 3c3c
00000310: f7e8 8b3c 2cca a3bb 1dfd 193d 6968 3d3c
00000320: f0a8 4cbd 3ffb 14be 9cac 30be 972f 6dbd
00000330: 3b07 aebc abcd bebc 56dc bbbd 4487 a5bd
00000340: f101 43be bf6a 8dbd 3811 a0bd 277f eebc
00000350: c95e 313d 477f c83d e879 fcb8 6738 00bd
00000360: e531 953d 6259 4d3e 4e28 9dbc 809b 2cbd
00000370: c570 82be d7e5 07be 7f36 0abe 451a bebc
00000380: 4fca 7b3d 37ad 9f3d 5efb aa3c 224f 803d
00000390: 280c 373b 3635 86bd f868 c83d dd92 0d3e
000003a0: ee8b 4dbd d571 b83a 4dc9 c23d 0535 0e3e
000003b0: b752 5b3d 140c 983c 6b4a b23d 544d 8f3d
000003c0: 93c6 34be 6be0 45bd faee 03be 0068 35be
000003d0: 1b35 86bd e087 cabe c7ce aebe 2c34 21be
000003e0: a3aa 3fbd a0d0 a3be dcb2 cbbe 2b41 ddbd
000003f0: 2aa6 58be bdce d4bd 2dac c8bd 1d24 37be

con2.1.bias f4 [4]
-0.1003194 0.15462892 0.044351734 0.13237418
00000000: 4274 cdbd 0b57 1e3e 2aaa 353d 198d 073e

con2.2.weight f4 [4]
0.94788766 0.626726 0.935718 0.4423264
00000000: c4a8 723f 1d71 203f 378b 6f3f 9b78 e23e

con2.2.bias f4 [4]
-0.9789761 1.6559346 1.875356 0.9952911
00000000: 2d9e 7abf aaf5 d33f aa0b f03f 66cb 7e3f

con2.2.running_mean f4 [4]
1.1769737 -1.2065405 0.5051815 0.21418224
00000000: 13a7 963f eb6f 9abf 9353 013f 9752 5b3e

con2.2.running_var f4 [4]
1.0761124 2.1648526 7.6803155 0.6985263
00000000: 0dbe 893f f28c 0a40 25c5 f540 9fd2 323f

con3.1.weight f4 [4, 4, 4, 4]
0.030536674 0.12930074 0.13278516 0.17344514 0.07919697 0.1590153 0.12452927 0.2026913
0.030059636 0.15904476 0.13847758 0.15869607 0.02514952 0.151586 0.15902342 0.11764377
-0.015404317 -0.10277693 -0.16482078 -0.002344209 0.012890597 -0.30797476 -0.34014848 -0.12493699
0.11864723 -0.12593664 -0.22125533 -0.09028631 0.07686688 0.05598858 0.03003613 0.06855782
0.06119524 0.08123392 0.10071781 -0.07170406 0.05621586 0.2399361 0.3326935 -0.0019642557
0.04534247 0.15880755 0.23919849 0.054271005 0.04868295 0.027850246 0.08130268 -0.04445352
-0.033970673 0.0033955784 -0.011928647 0.02970954 0.053039268 0.07533916 0.042029604 0.029884337
0.022893976 0.061333437 0.07950582 -0.02058203 -0.0013990821 0.0020441092 0.026603157 0.0073175286
-0.034430638 0.16937396 0.23473562 0.13302502 0.07912933 0.20669405 0.30201048 0.23877546
0.055820856 0.20230508 0.27046436 0.21605438 0.009400499 0.11346841 0.21307904 0.12719132
-0.068215184 -0.07621594 -0.048760273 -0.10176435 -0.07175099 0.021934105 -0.02487213 0.03601017
-0.04232345 -0.037856784 0.11369868 0.090046205 -0.080230474 0.0029622703 0.07810455 0.07931675
-0.0925008 -0.09281711 -0.11925501 0.018415878 -0.1365414 -0.2472933 -0.14591691 -0.03561931
-0.16290686 -0.118484035 -0.064109445 -0.07166682 -0.08808746 -0.07878349 -0.05968706 -0.0070493445
-0.09005843 -0.05098833 -0.016409274 -0.0611261 -0.11792708 -0.050684042 -0.029733945 -0.08818333
-0.095244765 -0.060742486 -0.06475598 -0.112836145 -0.08969993 -0.058562987 -0.087286584 -0.13610947
0.004532101 0.06689036 0.096052356 0.027112996 0.032101747 0.1532517 0.19941838 0.13341135
-0.0028103373 0.07969542 0.11517967 0.08482786 0.020632526 0.013663324 0.0072022113 0.009251239
0.0026314785 -0.09982376 -0.016729558 0.0178378 -0.13570608 -0.2468958 -0.29372743 -0.13353853
-0.05872297 -0.25954756 -0.3751565 -0.16865468 0.04367372 -0.18969858 -0.21707574 -0.06577503
-0.027313147 -0.10990867 -0.037557855 0.045981135 -0.07177919 -0.2023334 -0.19141482 0.043666232
-0.025517173 -0.13067523 -0.068528354 -0.018429179 -0.018888991 0.009863582 0.055107348 0.054467943
0.053824276 0.16554949 0.09998987 -0.06271976 0.098754086 0.29903772 0.22033706 0.010990846
0.06617236 0.2755606 0.28657758 0.12716115 0.047455244 0.13666761 0.20357229 0.0780184
-0.017021148 0.03821539 0.069862835 0.007513491 0.031592984 0.09004127 0.10698803 0.058971647
-0.0042568515 0.038300864 0.13663521 0.054685377 -0.029631853 0.0365369 0.073044166 0.03406728
0.10060885 0.22063866 0.23734611 0.1032654 0.13611877 0.19779126 0.31503955 0.13987926
0.12707242 0.22429411 0.28771544 0.14713912 0.07812028 0.12553236 0.13858621 0.11983786
0.113514915 0.16044436 0.10201705 0.045530654 0.14254388 0.17844246 0.18109761 0.048080586
0.1323702 0.18304002 0.18547039 0.00745867 0.06698636 0.09150405 0.06207467 0.032275703
-0.05153442 -0.086137645 -0.05436657 -0.031276215 -0.0155069055 -0.07763091 -0.08837865 -0.03771804
0.02345893 -0.064350665 -0.101412 -0.0020709594 0.025134468 -0.010265041 -0.033476688 0.0044433866
00000000: 0c28 fa3c 6a67 043e d5f8 073e 9a9b 313e
00000010: 0532 a23d e8d4 223e 3409 ff3d 4f8e 4f3e
00000020: a03f f63c a1dc 223e 11cd 0d3e 3981 223e
00000030: 5e06 ce3c 5c39 1b3e 09d7 223e 38ef f03d
00000040: 6362 7cbc b67c d2bd c7c6 28be 4da1 19bb
00000050: 1533 533c deae 9dbe f127 aebe f7de ffbd
00000060: 52fd f23d 89f5 00be c290 62be 07e8 b8bd
00000070: 626c 9d3d 4854 653d 550e f63c 0b68 8c3d
00000080: dca7 7a3d f85d a63d 2445 ce3d 94d9 92bd
00000090: 9a42 663d cfb1 753e cd56 aa3e beba 00bb
000000a0: 07b9 393d 729e 223e 73f0 743e 464b 5e3d
000000b0: c667 473d 3326 e43c 0582 a63d e514 36bd
000000c0: d524 0bbd 5a88 5e3b 5f70 43bc 6c61 f33c
000000d0: b43f 593d 6b4b 9a3d 3c27 2c3d ffcf f43c
000000e0: 268c bb3c c538 7b3d f3d3 a23d a59b a8bc
000000f0: 6861 b7ba 76f6 053b ddee d93c e1c7 ef3b
00000100: 2407 0dbd 5e70 2d3e 895e 703e b637 083e
00000110: 8f0e a23d 9ba7 533e 1ea1 9a3e 8e81 743e
00000120: 69a4 643d 1029 4f3e 4e7a 8a3e 5c3d 5d3e
00000130: 8d04 1a3c 2062 e83d 6431 5a3e 713e 023e
00000140: 67b4 8bbd 1a17 9cbd dab8 47bd d469 d0bd
00000150: 2ff2 92bd 27af b33c a3c0 cbbc 667f 133d
00000160: 5b5b 2dbd b70f 1bbd dbda e83d 256a b83d
00000170: e04f a4bd a622 423b 47f5 9f3d d270 a23d
00000180: 0f71 bdbd e616 bebd f83b f4bd e5dc 963c
00000190: 82d1 0bbe 743a 7dbe 3e6b 15be 8ee5 11bd
000001a0: 0ed1 26be c2a7 f2bd d04b 83bd 0ec6 92bd
000001b0: 3367 b4bd 3d59 a1bd 6b7a 74bd 30fe e6bb
000001c0: 8e70 b8bd 24d9 50bd be6c 86bc 5d5f 7abd
000001d0: c183 f1bd 129a 4fbd 9a94 f3bc 7699 b4bd
000001e0: b00f c3bd 1dcd 78bd c99e 84bd a316 e7bd
000001f0: 99b4 b7bd bedf 6fbd 4fc3 b2bd 4860 0bbe
00000200: 0582 943b d0fd 883d 19b7 c43d 131c de3c
00000210: 1f7d 033d 03ee 1c3e 5534 4c3e fc9c 083e
00000220: a32d 38bb 5a37 a33d 52e3 eb3d 3bba ad3d
00000230: 8b05 a93c 22dc 5f3c 8700 ec3b 8292 173c
00000240: e274 2c3b 6670 ccbd 6d0c 89bc 9420 923c
00000250: 89f6 0abe 41d2 7cbe 7163 96be 53be 08be
00000260: 7f87 70bd 6be3 84be 8314 c0be d0b3 2cbe
00000270: 37e3 323d 5840 42be 1a49 5ebe 0fb5 86bd
00000280: d2bf dfbc cc17 e1bd 44d6 19bd b756 3c3d
00000290: f800 93bd 7d30 4fbe 3f02 44be 5ddb 323d
000002a0: 6409 d1bc bacf 05be 9858 8cbd caf8 96bc
000002b0: 16bd 9abc dd9a 213c 3eb8 613d c719 5f3d
000002c0: d876 5c3d ce85 293e 7dc7 cc3d 3873 80bd
000002d0: 953f ca3d 791b 993e 0aa0 613e f312 343c
000002e0: 6085 873d 4716 8d3e 4cba 923e 8836 023e
000002f0: 6e60 423d 98f2 0b3e 4175 503e 1cc8 9f3d
00000300: ef6f 8bbc be87 1c3d 3f14 8f3d bb33 f63b
00000310: a567 013d 8f67 b83d 8a1c db3d 418c 713d
00000320: 0f7d 8bbb 5ee1 1c3d 1aea 0b3e c6fd 5f3d
00000330: 80be f2bc b7a7 153d 2e98 953d 228a 0b3d
00000340: 030c ce3d 1aef 613e dc0a 733e cf7c d33d
00000350: b862 0b3e cb89 4a3e dd4c a13e 823c 0f3e
00000360: 461f 023e 5bad 653e 704f 933e a3ab 163e
00000370: 86fd 9f3d 8e8b 003e 8be9 0d3e 8d6d f53d
00000380: 827a e83d 874b 243e 51ee d03d 5a7e 3a3d
00000390: 06f7 113e 9fb9 363e a771 393e 26f0 443d
000003a0: 0e8c 073e d86e 3b3e f3eb 3d3e dc67 f43b
000003b0: 2530 893d 7a66 bb3d 0242 7e3d 8733 043d
000003c0: c215 53bd ef68 b0bd 7baf 5ebd 7d1b 00bd
000003d0: ad10 7ebc f4fc 9ebd deff b4bd 3b7e 1abd
000003e0: f12c c03c 48ca 83bd 18b1 cfbd efb8 07bb
000003f0: cde6 cd3c b42e 28bc da1e 09bd d499 913b

con3.1.bias f4 [4]
0.081609435 0.090840295 -0.04604334 -0.03322938
00000000: d922 a73d 7a0a ba3d f197 3cbd 881b 08bd

con3.2.weight f4 [4]
1.483454 1.826869 1.6785078 1.5424072
00000000: d2e1 bd3f d8d6 e93f 58d9 d63f 996d c53f

con3.2.bias f4 [4]
-0.6357305 0.30909637 -0.46824428 0.7502812
00000000: 3cbf 22bf e141 9e3e b7bd efbe 6e12 403f

con3.2.running_mean f4 [4]
1.0404407 -4.3706913 -2.970141 7.020704
00000000: 292d 853f b4dc 8bc0 ca16 3ec0 9ba9 e040

con3.2.running_var f4 [4]
2.003463 3.9393692 1.8335896 1.243986
00000000: bd38 0040 a01e 7c40 10b3 ea3f ef3a 9f3f

con4.1.weight f4 [4, 4, 4, 4]
0.1006031 0.027726287 0.03588575 0.08145534 0.13808548 -0.15678859 -0.099056765 0.04349651
0.0869253 -0.13839045 -0.08525645 0.100178115 0.13283572 0.02579848 0.029362172 0.13339405
0.12532178 0.06704673 0.063181505 0.139368 0.03440685 -0.026386881 -0.1345815 -0.038884316
0.040710565 -0.11663836 -0.104404785 0.045915637 0.09213893 0.0076930425 -0.018194214 0.109523594
0.053893548 0.036349546 0.08853371 0.112271674 0.016991518 -0.35943228 -0.26202896 0.056178045
0.10159255 -0.2137006 -0.24063012 0.066569164 0.06543092 0.07064554 0.041366328 0.053920273
0.22029443 -0.003939119 0.021621821 0.3189492 -0.18594325 -0.546047 -0.46293807 0.006178481
-0.18191592 -0.5894829 -0.5427213 -0.056337923 0.2574135 -0.17373034 -0.12791015 0.27729744
0.04924092 0.016330542 0.013217276 -0.004716604 -8.64811e-05 0.0026669544 0.045727782 -0.0041803643
0.05124721 0.11091904 0.053283792 0.018424394 0.05437208 0.14217773 0.10578016 0.017938927
-0.06845352 -0.0030867613 0.007822241 -0.015712708 0.007098224 0.104172416 0.12962343 0.09527644
0.056983784 0.2129624 0.2795368 0.18524478 0.049752932 0.2013865 0.2658408 0.16057917
-0.049097247 0.062074456 0.10253935 -0.0018549095 0.026157647 0.27470678 0.25447607 0.0527864
0.14616978 0.368498 0.3340295 0.114152454 0.004965718 0.13747975 0.14248356 -0.0398655
0.025715573 -0.01761976 -0.02904075 0.027265497 -0.13102098 -0.07312924 0.012486961 0.016507372
-0.11921348 -0.07506093 -0.042217452 -0.021105727 -0.068225466 -0.07838114 -0.06572866 -0.04445044
-0.087775335 -0.09235429 -0.15163139 -0.10350381 -0.0769179 -0.043209758 -0.08248113 -0.07050335
-0.07004773 -0.034524634 0.015609974 -0.0395318 -0.085555635 -0.12808529 -0.06952408 -0.04575398
-0.020058366 0.06971727 0.026448518 0.010711682 0.06971017 0.1631699 0.15431613 0.08654877
0.019619785 0.15371874 0.11895045 0.08903722 -0.040362384 0.079144515 0.06763849 0.011965061
-0.10367318 -0.16616574 -0.15048996 0.033697795 -0.10905229 -0.15682252 -0.11069086 -0.045897745
-0.042403515 -0.078424774 -0.087140806 -0.02782282 -0.08274995 -0.0889244 -0.0062281517 0.029559975
-0.01992175 0.17868628 0.12038935 -0.099245444 0.10643346 0.41613036 0.22996712 -0.07495067
0.0473504 0.31891733 0.15302858 -0.073298916 -0.092283934 0.061483897 0.018270347 -0.09068911
0.022049572 0.13263218 0.086865716 -0.06156406 0.18448907 0.37720558 0.28043866 0.035447706
0.1328004 0.2933927 0.31584033 0.12086758 0.0277845 0.08760739 0.10995454 0.017076746
0.1339614 0.06406306 0.05052743 0.12520596 0.050249074 0.03247248 0.046478733 0.025621423
0.032555725 0.055265274 0.10943045 0.073478706 0.08970433 0.07152846 0.095428295 0.115494125
-0.06314869 -0.024701705 -0.030099299 -0.05110896 -0.018980192 0.028379913 -0.010584956 -0.041295204
-0.01694542 0.07573549 0.038913094 -0.056641817 -0.03313523 0.019929644 -0.037196953 -0.076235875
-0.10722531 -0.12072695 -0.10903733 -0.10362686 -0.031906553 -0.10370468 -0.1075345 -0.08455282
-0.061506204 -0.1254787 -0.123562016 -0.11145786 -0.10242899 -0.15795235 -0.11712082 -0.117649436
00000000: 0009 ce3d 3d22 e33c f0fc 123d 0fd2 a63d
00000010: 4866 0d3e 308d 20be 46de cabd 6529 323d
00000020: e405 b23d 3ab6 0dbe ef9a aebd 2f2a cd3d
00000030: 1606 083e 5557 d33c f088 f03c 7398 083e
00000040: 5a54 003e cc4f 893d 4e65 813d 7cb6 0e3e
00000050: 32ee 0c3d 4d29 d8bc bccf 09be 2945 1fbd
00000060: 1fc0 263d 18e0 eebd 2dd2 d5bd 0912 3c3d
00000070: 56b3 bc3d eb15 fc3b 080c 95bc e84d e03d
00000080: 7bbf 5c3d 43e3 143d 2951 b53d b1ee e53d
00000090: cc31 8b3c 8207 b8be a928 86be f31a 663d
000000a0: c10f d03d 55d4 5abe be67 76be 6a55 883d
000000b0: a500 863d 9cae 903d bd6f 293d 81db 5c3d
000000c0: dd94 613e ba13 81bb 3f20 b13c 4f4d a33e
000000d0: e867 3ebe bcc9 0bbf 3806 edbe db74 ca3b
000000e0: 2b48 3abe 5ae8 16bf c8ef 0abf 98c2 66bd
000000f0: b4cb 833e 5ee6 31be e1fa 02be eef9 8d3e
00000100: d9b0 493d a1c7 853c 468d 583c be8d 9abb
00000110: 305d b5b8 12c8 2e3b 0e4d 3b3d 70fb 88bb
00000120: 98e8 513d 8629 e33d 1b40 5a3d c1ee 963c
00000130: 42b5 5e3d 0a97 113e 45a3 d83d a8f4 923c
00000140: 5c31 8cbd 434b 4abb db28 003c f0b7 80bc
00000150: 3898 e83b 5958 d53d 01bc 043e 4b20 c33d
00000160: d467 693d d112 5a3e 731f 8f3e cfb0 3d3e
00000170: bbc9 4b3d 4338 4e3e 491c 883e de6e 243e
00000180: 321a 49bd c941 7e3d 2700 d23d 6f20 f3ba
00000190: 9048 d63c 5ea6 8c3e b04a 823e 8d36 583d
000001a0: 88ad 153e c5ab bc3e ea05 ab3e c3c8 e93d
000001b0: 76b7 a23b 7ec7 0c3e 36e7 113e 024a 23bd
000001c0: 77a9 d23c 5157 90bc dee6 edbc e45b df3c
000001d0: 5d2a 06be c8c4 95bd 1c96 4c3c 783a 873c
000001e0: 3226 f4bd 8bb9 99bd 35ec 2cbd ebe5 acbc
000001f0: cbb9 8bbd 4b86 a0bd bf9c 86bd aa11 36bd
00000200: 8ec3 b3bd 3f24 bdbd 4245 1bbe cef9 d3bd
00000210: 2287 9dbd b7fc 30bd deeb a8bd 0f64 90bd
00000220: 2f75 8fbd b469 0dbd fac0 7f3c 19ec 21bd
00000230: cb37 afbd ca28 03be a462 8ebd 8668 3bbd
00000240: 7151 a4bc eec7 8e3d 90aa d83c 0d80 2f3c
00000250: 35c4 8e3d 0316 273e 0c05 1e3e 7b40 b13d
00000260: acb9 a03c 7268 1d3e 4b9c f33d 2559 b63d
00000270: 0753 25bd 8516 a23d 0c86 8a3d 1a09 443c
00000280: 9b52 d4bd 5a27 2abe 0a1a 1abe b306 0a3d
00000290: cf56 dfbd 1596 20be e4b1 e2bd 46ff 3bbd
000002a0: 4faf 2dbd 2b9d a0bd e176 b2bd afec e3bc
000002b0: ce78 a9bd ff1d b6bd 8615 ccbb c327 f23c
000002c0: f032 a3bc 89f9 363e b18e f63d 3241 cbbd
000002d0: c9f9 d93d 0a0f d53e 807c 6b3e bd7f 99bd
000002e0: 7ef2 413d 2249 a33e 86b3 1c3e be1d 96bd
000002f0: 5cff bcbd 8ad6 7b3d b2ab 953c 36bb b9bd
00000300: 4ea1 b43c bbd0 073e a7e6 b13d 992a 7cbd
00000310: b4ea 3c3e 1721 c13e a895 8f3e 9d31 113d
00000320: d4fc 073e 9137 963e d3b5 a13e 6c89 f73d
00000330: 529c e33c 816b b33d d92f e13d 88e4 8b3c
00000340: 2d2d 093e 7e33 833d daf5 4e3d fe35 003e
00000350: f9d1 4d3d dd01 053d 7c60 3e3d 05e4 d13c
00000360: 2759 053d d75d 623d 121d e03d 017c 963d
00000370: e7b6 b73d 837d 923d e96f c33d 2f88 ec3d
00000380: 1a54 81bd 3b5b cabc ce92 f6bc a157 51bd
00000390: 597c 9bbc fe7c e83c 866c 2dbc 2925 29bd
000003a0: 1fd1 8abc 351b 9b3d 5663 1f3d 4001 68bd
000003b0: cfb8 07bd 7e43 a33c d55b 18bd 8e21 9cbd
000003c0: f198 dbbd b13f f7bd f74e dfbd 523a d4bd
000003d0: 72b0 02bd 1f63 d4bd 0c3b dcbd 072a adbd
000003e0: eeed 7bbd 7d7d 00be 150e fdbd 0544 e4bd
000003f0: 4ac6 d1bd 43be 21be 0add efbd 30f2 f0bd

con4.1.bias f4 [4]
-0.02013897 0.009821581 -0.09250856 0.017030178
00000000: 7bfa a4bc b2ea 203c 2175 bdbd df82 8b3c

con4.2.weight f4 [4]
1.3500468 0.9252338 1.145839 1.1784552
00000000: 55ce ac3f 1fdc 6c3f daaa 923f 9fd7 963f

con4.2.bias f4 [4]
0.53019917 0.93960005 0.549789 -0.3340515
00000000: 22bb 073f a189 703f f9be 0c3f cc08 abbe

con4.2.running_mean f4 [4]
-1.5522374 1.0855229 1.365258 -0.48980236
00000000: b7af c6bf 6af2 8a3f c6c0 ae3f 60c7 fabe

con4.2.running_var f4 [4]
3.9036615 10.066556 10.471111 4.925572
00000000: 97d5 7940 9d10 2141 ac89 2741 499e 9d40

con5.1.weight f4 [4, 4, 4, 4]
-0.0011419244 0.040288765 0.067752704 0.11837607 0.13328014 0.25241944 0.17436178 0.17638347
0.085995495 0.14488208 0.12574987 0.10144151 -0.014676417 -0.0272819 0.073437 -0.008807435
0.035977058 0.13742001 0.1288049 0.067201875 0.1901704 0.22203386 0.18046138 0.025385207
0.15637526 0.30910417 0.20360026 0.026227195 0.015279826 0.16032316 0.099741936 0.0052346285
-0.02792228 -0.050320376 -0.063352466 -0.046010923 -0.010973207 -0.15732335 -0.04437325 -0.007020117
-0.07506146 -0.18216656 -0.07105142 -0.013814608 0.02856477 -0.049101103 -0.06567667 -0.014962149
-0.19831459 -0.0049564186 -0.060854312 -0.14362478 -0.14722511 0.053773437 0.0896624 -0.07888368
-0.20837612 -0.062414017 0.043309856 -0.13835552 -0.21424675 -0.22288561 -0.11335638 -0.28593248
0.0696372 -0.060743 -0.23293339 -0.07716803 -0.016277824 -0.2853884 -0.29771742 -0.077130355
-0.10932956 -0.30020043 -0.29565343 0.003715015 -0.12431067 -0.2708833 -0.1920354 -0.015507402
0.11126745 0.0015339082 -0.11529983 0.10706976 -0.01917837 0.046208825 -0.111922264 0.047660515
0.12908518 0.028373243 -0.033642318 0.028415568 0.171552 0.042118993 0.014569493 0.0944046
-0.080773525 0.08196852 0.19830748 -0.018997846 -0.22971678 0.14733903 0.21272027 -0.087578036
-0.11203545 0.20343952 0.24222785 -0.0061489465 -0.18052964 0.13074422 0.18325312 -0.026159754
-0.08136852 -0.15771015 -0.117558554 -0.11544329 0.015634688 -0.15677771 -0.15068983 0.032783784
-0.060007043 -0.21300916 -0.16900063 -0.087316394 0.050615415 -0.046232633 -0.18826112 -0.118238054
-0.09318815 -0.07504769 -0.09884764 -0.053071193 0.002014671 0.037004028 0.10687471 0.054363254
0.055883195 0.15664807 0.103077106 0.08021935 0.09893918 0.05546663 0.09416389 0.11208053
0.15953678 -0.07375178 -0.13983232 0.013624404 0.067423925 -0.340364 -0.39861903 -0.049411885
-0.14533718 -0.4482157 -0.39691788 -0.17238699 -0.038382903 -0.27733767 -0.3574404 -0.17565937
0.03519095 0.24176688 0.21497382 0.08546642 0.043091297 0.09001728 0.18228832 0.030819846
-0.0075777317 0.092693284 0.1135868 -0.014237176 -0.042755757 0.040584974 0.004328224 -0.017577734
0.117026515 0.05557879 0.0070739347 0.09234441 0.05286718 -0.099230744 -0.11167509 -0.026914107
0.067472555 -0.0066000163 -0.060419206 0.03920532 0.019543359 -0.033347894 -0.052751858 0.01778
0.10364926 -0.0028015168 -0.08322439 0.038390346 -0.0671029 -0.13834591 -0.17748198 -0.06475733
-0.021874864 -0.11697577 -0.09239243 -0.0696802 0.10141143 0.037165966 0.031158831 0.01647325
-0.012400358 -0.02305175 -0.08299714 -0.008767707 -0.14366011 -0.29141977 -0.29281205 -0.21329103
0.018003317 -0.09510396 -0.055896636 -0.023730421 0.06510106 0.0474476 0.016906625 0.08358658
-0.025765201 0.052465186 -0.004384521 -0.054868814 0.010990882 0.15313505 0.18665293 0.10039967
0.04794212 0.12965757 0.12046485 0.016315538 0.061759032 0.06410216 0.025898922 0.03128649
0.035929203 -0.12567395 -0.02299344 0.069181666 -0.20236924 -0.4334583 -0.34303167 -0.20554143
-0.20481767 -0.27769527 -0.26254418 -0.18004104 0.093013465 0.018661277 0.03432375 0.037969794
00000000: a0ac 95ba d505 253d eec1 8a3d 276f f23d
00000010: 977a 083e 1f3d 813e e58b 323e de9d 343e
00000020: 681e b03d f85b 143e 93c4 003e 91c0 cf3d
00000030: 5b75 70bc 4b7e dfbc 2366 963d 0f4d 10bc
00000040: ae5c 133d d5b7 0c3e 6fe5 033e 23a1 893d
00000050: 08bc 423e d85c 633e deca 383e a3f4 cf3c
00000060: d620 203e e742 9e3e 967c 503e 6ada d63c
00000070: 3c58 7a3c c12b 243e 8045 cc3d 3f87 ab3b
00000080: 44bd e4bc bd1c 4ebd f0be 81bd f375 3cbd
00000090: f7c8 33bc 5f19 21be bac0 35bd 0209 e6bb
000000a0: d3b9 99bd df89 3abe 6883 91bd aa56 62bc
000000b0: aa00 ea3c 3d1e 49bd 7d81 86bd cd23 75bc
000000c0: fb12 4bbe 7469 a2bb 5f42 79bd 6012 13be
000000d0: 2ec2 16be 8941 5c3d eca0 b73d c48d a1bd
000000e0: 8d60 55be d7a5 7fbd ad65 313d 12ad 0dbe
000000f0: 8063 5bbe 203c 64be 6427 e8bd be65 92be
00000100: f39d 8e3d a7cd 78bd 1786 6ebe 460a 9ebd
00000110: 1259 85bc 6e1e 92be 6b6e 98be 85f6 9dbd
00000120: 2de8 dfbd dfb3 99be e35f 97be 9c77 733b
00000130: 9896 febd 37b1 8abe eea4 44be c212 7ebc
00000140: 30e0 e33d 6b0d c93a 5122 ecbd 6447 db3d
00000150: f51b 9dbc 7745 3d3d 8037 e5bd ac37 433d
00000160: e82e 043e 016f e83c 87cc 09bd c4c7 e83c
00000170: 54ab 2f3e f784 2c3d e2b4 6e3c 3357 c13d
00000180: 976c a5bd 1ddf a73d 1e11 4b3e 5fa1 9bbc
00000190: e03a 6bbe 0be0 163e 58d3 593e 1d5c b3bd
000001a0: d872 e5bd 7352 503e 940a 783e 1a7d c9bb
000001b0: c3dc 38be d0e1 053e b5a6 3b3e fb4c d6bc
000001c0: 8aa4 a6bd c57e 21be 8ac2 f0bd 886d ecbd
000001d0: 5114 803c 568a 20be 6f4e 1abe 4a48 063d
000001e0: f2c9 75bd 131f 5abe 800e 2dbe f0d2 b2bd
000001f0: 1c52 4f3d 6e5e 3dbd 86c7 40be cb26 f2bd
00000200: 6ed9 bebd 9ab2 99bd a270 cabd 2e61 59bd
00000210: 9208 043b 8991 173d 21e1 da3d 01ac 5e3d
00000220: c7e5 643d 5a68 203e 171a d33d 0b4a a43d
00000230: a0a0 ca3d fa30 633d ffd8 c03d 7a8a e53d
00000240: 9c5d 233e 2c0b 97bd 3430 0fbe e438 5f3c
00000250: 8e15 8a3d 3144 aebe cb17 ccbe 1e64 4abd
00000260: 45d3 14be 877c e5be d238 cbbe 3786 30be
00000270: 6437 1dbd 34ff 8dbe 6e02 b7be 0de0 33be
00000280: 6324 103d bd91 773e 1922 5c3e 0509 af3d
00000290: 8080 303d fb5a b83d caa9 3a3e e779 fc3c
000002a0: 9f4e f8bb fad5 bd3d 32a0 e83d 0b43 69bc
000002b0: a920 2fbd 6e3c 263d c6d3 8d3b 2eff 8fbc
000002c0: 99ab ef3d 96a6 633d 77cc e73b 111f bd3d
000002d0: 428b 583d 7d39 cbbd e9b5 e4bd f97a dcbc
000002e0: 0d2f 8a3d f344 d8bb 217a 77bd c295 203d
000002f0: 6519 a03c cd97 08bd 5512 58bd 5da7 913c
00000300: 1046 d43d a799 37bb 8d71 aabd 323f 1d3d
00000310: 3f6d 89bd 8daa 0dbe d6bd 35be 7e9f 84bd
00000320: ea32 b3bc fe90 efbd 3e38 bdbd 7eb4 8ebd
00000330: ccb0 cf3d 573b 183d ce40 ff3c e9f2 863c
00000340: df2a 4bbc 06d7 bcbc 68fa a9bd 6ea6 0fbc
00000350: a31b 13be f934 95be 76eb 95be f768 5abe
00000360: b17b 933c ddc5 c2bd dff3 64bd 4d66 c2bc
00000370: b453 853d 6a58 423d c37f 8a3c 712f ab3d
00000380: 8b11 d3bc bce5 563d 07ac 8fbb 1fbe 60bd
00000390: 1a13 343c 6fcf 1c3e f221 3f3e 589e cd3d
000003a0: f55e 443d f4c4 043e 46b6 f63d 2aa8 853c
000003b0: 0af7 7c3d fe47 833d fa29 d43c 4326 003d
000003c0: 802a 133d acb0 00be bd5c bcbc 1eaf 8d3d
000003d0: e239 4fbe 3fee ddbe d9a1 afbe 7479 52be
000003e0: b9bb 51be 132e 8ebe 316c 86be ae5c 38be
000003f0: d87d be3d 89df 983c 0f97 0c3d 3786 1b3d

con5.1.bias f4 [4]
0.05730308 -0.071105905 -0.06441178 0.09458752
00000000: a2b6 6a3d f99f 91bd 53ea 83bd 1ab7 c13d

con5.2.weight f4 [4]
0.8357472 1.0009292 0.94439757 1.157724
00000000: 87f3 553f 731e 803f 0ac4 713f 4d30 943f

con5.2.bias f4 [4]
0.026688565 -0.07736128 -0.09636478 0.08106365
00000000: faa1 da3c 976f 9ebd e65a c5bd b304 a63d

con5.2.running_mean f4 [4]
2.2579517 -1.0828191 -1.4453992 -0.8994324
00000000: 4882 1040 d199 8abf d702 b9bf 3441 66bf

con5.2.running_var f4 [4]
4.472924 5.537653 4.7774363 4.9346485
00000000: 3222 8f40 7434 b140 c2e0 9840 a4e8 9d40

RCAB1.body.0.0.weight f4 [4, 1, 3, 3]
0.09049798 0.52070594 0.34186065 -0.057761848 0.42660627 0.13092086 0.21631894 0.108172596
0.21314238 -0.24641347 0.3899626 -0.13961805 0.057547227 0.1446077 -0.36768213 -0.3028169
-0.11033416 -0.28592443 -0.54220384 -0.21815448 -0.30801052 0.11581145 -0.07454708 0.0027065985
-0.11747767 0.31430382 -0.067519985 -0.34759316 -0.06995591 -0.31684598 -0.10010285 0.1404142
-0.32610574 -0.30302575 -0.054539192 -0.3423653
00000000: 0157 b93d fc4c 053f 5c08 af3e b097 6cbd
00000010: 236c da3e 1e10 063e b682 5d3e 9889 dd3d
00000020: ff41 5a3e d053 7cbe 2ea9 c73e 09f8 0ebe
00000030: a4b6 6b3d 0a14 143e d540 bcbe d10a 9bbe
00000040: e0f6 e1bd b064 92be dfcd 0abf e363 5fbe
00000050: 8eb3 9dbe 8e2e ed3d 24ac 98bd 3061 313b
00000060: 2298 f0bd 6eec a03e eb47 8abd bbf7 b1be
00000070: 0b45 8fbd a339 a2be b902 cdbd bdc8 0f3e
00000080: 55f7 a6be 3126 9bbe 7d64 5fbd 814a afbe

RCAB1.body.0.0.bias f4 [4]
-0.08551999 -0.17701223 -0.13480076 -0.066245385
00000000: 1b25 afbd b242 35be 3609 0abe a9ab 87bd

RCAB1.body.0.1.weight f4 [4]
1.2671334 1.0227604 1.024669 0.96874166
00000000: 6d31 a23f d0e9 823f 5b28 833f 74ff 773f

RCAB1.body.0.1.bias f4 [4]
-0.023561897 -0.05198365 -0.058740865 0.037224516
00000000: e104 c1bc cfec 54bd 439a 70bd bc78 183d

RCAB1.body.0.1.running_mean f4 [4]
0.41182974 -0.3453015 -0.27736562 -0.5989714
00000000: 59db d23e 5ccb b0be de02 8ebe 3156 19bf

RCAB1.body.0.1.running_var f4 [4]
0.88374937 0.22609727 0.14496097 0.99556905
00000000: 663d 623f 0b86 673e a670 143e 9ddd 7e3f

RCAB1.body.0.2.weight f4 [8, 4, 1, 1]
-0.29813537 -0.16074964 -0.04905686 -0.02190877 -0.3797935 -0.32977965 -0.2580684 0.50501627
-0.36307433 0.06563093 -0.50250775 0.11584334 0.49905038 0.017923728 0.036847696 -0.22636834
0.19637357 0.11781772 -0.28094953 -0.028264934 0.25961193 0.21781984 0.04848502 -0.025210809
0.45611694 0.116374895 0.3918573 -0.16951814 0.12642774 0.17984802 -0.19407542 -0.0059786914
00000000: 33a5 98be 8e9b 24be d9ef 48bd 057a b3bc
00000010: 4b74 c2be e1d8 a8be 8b21 84be bf48 013f
00000020: e1e4 b9be 8269 863d 59a4 00bf 463f ed3d
00000030: 8883 ff3e c8d4 923c 9ced 163d 1acd 67be
00000040: 2716 493e 6b4a f13d 9ed8 8fbe dd8b e7bc
00000050: dbeb 843e 2a0c 5f3e 3a98 463d e686 cebc
00000060: 2988 e93e f655 ee3d 85a1 c83e 2a96 2dbe
00000070: 4676 013e 142a 383e b5bb 46be e6e8 c3bb

RCAB1.body.0.2.bias f4 [8]
0.040757686 -0.32156524 0.11323371 0.17195095 -0.22317436 -0.300913 -0.22118613 0.13417
00000000: 88f1 263d 33a4 a4be 13e7 e73d e913 303e
00000010: d287 64be 4511 9abe 9e7e 62be dc63 093e

RCAB1.body.1.weight f4 [8]
0.62829185 0.5117175 0.43200636 0.35741663 0.3568087 0.38145626 0.2662417 0.6679991
00000000: bcd7 203f ebff 023f f02f dd3e 50ff b63e
00000010: a1af b63e 3c4e c33e d550 883e fd01 2b3f

RCAB1.body.1.bias f4 [8]
0.27681318 0.39510047 0.46016732 0.52013165 -0.53294736 0.51815623 0.62308925 0.19958426
00000000: 75ba 8d3e 9c4a ca3e 0d9b eb3e 5927 053f
00000010: 3d6f 08bf e3a5 043f c782 1f3f d15f 4c3e

RCAB1.body.1.running_mean f4 [8]
0.058144994 -0.2613376 0.1522828 0.14864369 -0.21844248 -0.32217973 -0.26738563 0.13303035
00000000: 7229 6e3d 0bce 85be 06f0 1b3e 0d36 183e
00000010: 63af 5fbe bef4 a4be c5e6 88be 1c39 083e

RCAB1.body.1.running_var f4 [8]
0.26120928 0.26084784 0.57382125 0.30627796 0.08147793 0.22124971 0.635523 0.062374413
00000000: 39bd 853e d98d 853e f3e5 123f 77d0 9c3e
00000010: e7dd a63d 498f 623e a3b1 223f 507c 7f3d

RCAB1.body.3.0.weight f4 [8, 1, 3, 3]
0.24380092 0.30768198 0.21636827 0.13589673 0.048588175 0.006344331 0.45082557 -0.08789467
0.21485722 -0.06157392 -0.23567714 -0.13469051 -0.12551095 -0.45773017 -0.06923428 -0.19674368
-0.4684522 -0.07970681 -0.47663882 0.2867316 -0.26791424 -0.19932535 0.15939969 -0.035556726
-0.154641 0.20372394 -0.115570426 -0.103418775 -0.054321807 -0.23925214 -0.09910422 -0.11348782
-0.08938753 -0.40682235 -0.13265927 -0.28134602 0.35690662 0.47792023 0.37809435 0.06371216
-0.2115227 0.07327861 0.11645037 0.100980684 0.1630884 -0.40227503 -0.09999683 -0.5202244
-0.025443953 0.041489836 -0.023618449 -0.050540026 0.053199723 -0.10329741 0.5003593 0.061417438
0.5434866 -0.083059795 0.24609765 -0.06744701 0.064449936 -0.13249166 0.24483027 0.1375218
-0.04605544 0.26806012 -0.024918292 -0.25732517 -0.15767504 0.1947089 0.010704652 0.120494895
00000000: f3a6 793e 7e88 9d3e a58f 5d3e 8328 0b3e
00000010: 6504 473d 1be4 cf3b 9cd2 e63e 1f02 b4bd
00000020: 8803 5c3e ef34 7cbd 5955 71be 4fec 09be
00000030: f185 00be 9c5b eabe b4ca 8dbd 2d77 49be
00000040: f7d8 efbe 533d a3bd 010a f4be 7cce 923e
00000050: 0e2c 89be f21b 4cbe ac39 233e eea3 11bd
00000060: 365a 1ebe 029d 503e 30b0 ecbd 39cd d3bd
00000070: 8b80 5ebd 83fe 74be 27f7 cabd 4d6c e8bd
00000080: cf10 b7bd 054b d0be d5d7 07be 960c 90be
00000090: 77bc b63e f6b1 f43e 9595 c13e 857b 823d
000000a0: 6899 58be 1913 963d 887d ee3d f6ce ce3d
000000b0: a500 273e fef6 cdbe 23cb ccbd 6d2d 05bf
000000c0: d66f d0bc 3ff1 293d 7a7b c1bc 0f03 4fbd
000000d0: f4e7 593d 988d d3bd 8c17 003f da90 7b3d
000000e0: f021 0b3f 411b aabd 0601 7c3e a821 8abd
000000f0: 54fe 833d e5ab 07be c9b4 7a3e 84d2 0c3e
00000100: a1a4 3cbd 2d3f 893e 7221 ccbc 20c0 83be
00000110: 9175 21be c561 473e 9162 2f3c 07c6 f63d

RCAB1.body.3.0.bias f4 [8]
0.16713119 0.32604116 0.022914678 0.03494005 -0.28957424 0.1762317 0.15291293 0.24446718
00000000: 7024 2b3e deee a63e 90b7 bb3c 4c1d 0f3d
00000010: 1343 94be 1576 343e 3595 1c3e 9b55 7a3e

RCAB1.body.3.1.weight f4 [8]
0.9861437 1.1349082 1.0623314 1.2151568 1.0177003 1.0409408 0.7612188 0.66907495
00000000: ea73 7c3f ac44 913f 7afa 873f 428a 9b3f
00000010: 0144 823f 8c3d 853f 3cdf 423f 7f48 2b3f

RCAB1.body.3.1.bias f4 [8]
-0.04779289 0.014367373 0.057009563 0.014734649 0.0019044045 0.0071957298 0.0013637018 -0.00033275387
00000000: 7ac2 43bd 2165 6b3c dc82 693d 9969 713c
00000010: 369d f93a 28ca eb3b 3dbe b23a 7875 aeb9

RCAB1.body.3.1.running_mean f4 [8]
0.694907 -0.44004405 -0.16837065 -0.6352494 -0.27371967 -0.2920471 0.84090215 0.29370883
00000000: 6de5 313f 744d e1be 5b69 2cbe b49f 22bf
00000010: fc24 8cbe 3387 95be 5d45 573f 0161 963e

RCAB1.body.3.1.running_var f4 [8]
0.2873729 0.2562456 0.045357417 0.24766846 0.0057424926 0.1590601 0.15962426 0.020846961
00000000: 8a22 933e a032 833e b3c8 393d cd9c 7d3e
00000010: 852b bc3b a7e0 223e 8b74 233e 3fc7 aa3c

RCAB1.body.3.2.weight f4 [4, 8, 1, 1]
-0.2297328 -0.6276618 -0.003928219 0.11567702 -0.07107477 -0.14445797 -0.2681612 -0.11109149
0.24103282 -0.3314804 -0.2443002 0.6208669 -0.32360968 -0.07649616 -0.07709065 -0.16717456
0.14926438 0.2156215 -0.4612014 0.30089092 -0.15626055 -0.2191998 -0.21060911 0.12802207
-0.3225394 0.21700874 0.15696898 -0.15070051 -0.018470077 0.10359002 0.14510734 0.104151085
00000000: 133f 6bbe 72ae 20bf 4ab8 80bb 13e8 ec3d
00000010: a68f 91bd caec 13be 6d4c 89be ef83 e3bd
00000020: 4fd1 763e cdb7 a9be d529 7abe 22f1 1e3f
00000030: 2bb0 a5be 05aa 9cbd b4e1 9dbd cf2f 2bbe
00000040: c3d8 183e e2cb 5c3e 9722 ecbe 600e 9a3e
00000050: c402 20be ea75 60be eaa9 57be 3818 033e
00000060: e223 a5be 8a37 5e3e 7abc 203e 3c51 1abe
00000070: 8f4e 97bc 0127 d43d 0597 143e 2a4d d53d

RCAB1.body.3.2.bias f4 [4]
-0.09074418 0.2958419 0.0373367 -0.13757017
00000000: 16d8 b9bd 9778 973e 5eee 183d 32df 0cbe

RCAB1.body.4.weight f4 [4]
1.2960305 0.9349564 0.96741307 1.0916375
00000000: 54e4 a53f 4d59 6f3f 62a8 773f c7ba 8b3f

RCAB1.body.4.bias f4 [4]
0.47699076 -0.030895181 0.20419854 0.52640694
00000000: 2238 f43e e417 fdbc 6c19 513e 9bc2 063f

RCAB1.body.4.running_mean f4 [4]
-0.08893721 0.27358195 0.009301641 -0.11139822
00000000: b624 b6bd ef12 8c3e e965 183c c024 e4bd

RCAB1.body.4.running_var f4 [4]
0.5007996 1.8687963 0.29960027 0.58475405
00000000: 6734 003f b834 ef3f 3565 993e 71b2 153f

RCAB1.body.5.conv_du.0.weight f4 [8, 4, 1, 1]
-0.279335 -0.10988636 0.17047344 -0.15040454 0.48707336 0.045029677 -0.5931486 0.32125476
0.20052692 -0.33734193 -0.66545284 0.2165948 0.8587411 0.42287186 -0.20154694 -0.5706558
-0.07280814 0.14913654 -0.109707214 0.4792037 -0.5513058 0.25307402 -0.07225006 0.40519753
-0.2195627 -0.08366185 -0.6411509 0.016402395 0.08024642 -0.029124461 0.01709242 -0.09441091
00000000: ff04 8fbe 1a0c e1bd 9790 2e3e a603 1abe
00000010: ae61 f93e 0a71 383d 96d8 17bf 817b a43e
00000020: ee56 4d3e 15b8 acbe 1e5b 2abf 07cb 5d3e
00000030: 75d6 5b3f a982 d83e 5262 4ebe 8016 12bf
00000040: 6f1c 95bd 40b7 183e 2dae e0bd 305a f53e
00000050: 6022 0dbf eb92 813e d7f7 93bd 0d76 cf3e
00000060: 0bd5 60be e756 abbd 7722 24bf 515e 863c
00000070: 3c58 a43d 6c96 eebc 6705 8c3c 825a c1bd

RCAB1.body.5.conv_du.0.bias f4 [8]
0.44319302 0.3654355 0.33716226 0.101032026 0.09314262 -0.16473883 -0.47675604 -0.5842282
00000000: 32ea e23e 5d1a bb3e 88a0 ac3e e1e9 ce3d
00000010: 8fc1 be3d 4cb1 28be 5e19 f4be fb8f 15bf

RCAB1.body.5.conv_du.2.weight f4 [4, 8, 1, 1]
-0.39389074 -0.090079725 -0.37751988 0.6569639 0.18575655 -0.33878464 -0.37298605 0.15222964
-0.21706475 -0.76938367 -0.19083329 0.53139937 0.074986935 -0.33719948 -0.2945709 0.31395805
0.037341457 -0.6203827 0.31147337 -0.7035566 -0.40286887 -0.35908794 0.35026228 0.041386675
0.22903927 0.008881558 -0.29613695 0.38763127 0.15098181 -0.36229715 -0.16097583 -0.033389874
00000000: 0cac c9be b87b b8bd 494a c1be c92e 283f
00000010: f736 3e3e 2e75 adbe 07f8 bebe 16e2 1b3e
00000020: 3946 5ebe 54f6 44bf cd69 43be ca09 083f
00000030: c092 993d 69a5 acbe ffd1 96be 1cbf a03e
00000040: 5bf3 183d 67d1 1ebf 7079 9f3e 491c 34bf
00000050: d444 cebe 60da b7be 9455 b33e 1385 293d
00000060: 4589 6a3e f483 113c 439f 97be 9b77 c63e
00000070: fa9a 1a3e 037f b9be d9d6 24be d2c3 08bd

RCAB1.body.5.conv_du.2.bias f4 [4]
0.10821379 -0.30908152 -0.23980805 -0.20280454
00000000: 319f dd3d ef3f 9ebe 3e90 75be feab 4fbe

decon4.0.weight f4 [4, 4, 4, 4]
-0.0873398 0.0012775179 -0.11454201 0.12648144 0.049276225 0.04922386 0.07528137 0.0049098358
-0.015995113 -0.042374365 -0.039219502 0.074076146 -0.019473132 -0.0322289 -0.06644508 0.04473132
-0.37471506 -0.0971301 -0.3635787 -0.08892075 -0.29845485 -0.17185807 -0.54851204 -0.04862724
-0.6218762 -0.06937033 -0.4729091 0.032376938 -0.32600573 -0.40979528 -0.4635194 -0.20256284
0.14158596 0.008515377 0.028200634 -0.07574975 0.10429042 -0.09405396 -0.10514103 -0.058397286
0.029274981 -0.012100186 -0.07761809 -0.045288946 0.25152707 -0.044713248 -0.07172502 0.040471658
-0.036501225 0.19769257 -0.01885722 0.014359195 -0.033575907 0.42891273 0.035985902 0.20551464
0.022180576 0.23807937 0.021671193 0.028365478 0.01874218 0.2808973 0.06297317 0.13067548
-0.055066157 0.04169414 -0.0077467263 -0.039285827 -0.16749242 0.023288807 -0.16560839 -0.020948494
0.002231376 0.16785717 -0.052227844 0.031941894 -0.15480386 -0.055070147 -0.12514542 0.060974315
0.029241264 -0.06739053 0.070907384 0.0069455775 -0.05923925 0.10600391 0.20047191 -0.07233028
0.18699676 -0.009858183 0.062629126 -0.012126938 -0.06400221 0.08038224 0.10748794 -0.1617988
-0.016209196 -0.04581844 0.08442391 0.10463558 0.0019631851 0.049329992 0.26190588 0.047696866
-0.023370013 -0.105882324 0.1302198 0.09192753 -0.10032174 -0.0012678185 0.101887226 -0.12998688
0.11027219 -0.20975234 0.10209112 -0.11652355 0.017014679 0.11234946 -0.027271876 0.17117181
0.08976276 -0.14342047 0.113788396 -0.16951098 0.13447933 0.10850787 0.038010612 0.1394931
-0.037205376 0.019008776 -0.074164964 -0.074444234 0.11058648 -0.091918804 0.04482375 -0.18131849
-0.18274087 0.29486817 -0.24129376 0.044871826 0.023354694 -0.260155 0.02254136 -0.06348582
0.25823632 0.029390803 0.18007787 0.21044698 0.107964545 0.17022713 0.14138502 0.07702986
-0.00059074856 -0.050149076 -0.07465787 0.020568186 0.025546005 0.13695566 0.11109252 -0.034895513
-0.07735604 0.01007623 -0.0025835596 -0.10953425 -0.07844465 0.112438664 0.17937495 -0.057133973
-0.026083134 0.14925785 0.076574765 -0.091481104 -0.021776574 0.11783793 -0.024599822 -0.18630166
-0.1630981 -0.00071396894 -0.1768138 0.030394074 0.09406975 0.08951623 0.016055875 0.12557761
-0.10145945 0.012607163 -0.16620168 0.110667564 0.05711976 -0.043261517 0.068865314 -0.0064934124
0.04677772 0.038535178 -0.043948814 0.007942864 0.17924778 -0.11324164 0.040065512 -0.09978904
0.005945595 0.3237937 -0.116101 0.03034472 0.07786809 -0.00088343857 -0.010379768 0.09751707
0.20726746 -0.05044893 0.1658878 0.06721894 0.062426835 -0.00821728 0.1750462 -0.019986928
0.1243357 0.09154502 0.043037236 -0.021233667 0.08691597 -0.07378392 0.1617753 -0.0629184
0.04439292 -0.023584675 -0.06985689 -0.045825448 0.1043384 -0.003177933 0.38818663 -0.18316905
0.20390774 0.054999944 0.27603516 0.08155801 0.06311175 -0.43246084 -0.20202328 -0.57974553
-0.041407354 0.15735999 -0.100001454 0.113592125 0.10153848 0.25783515 0.027522516 0.026394201
0.06440464 0.16787627 -0.00150008 0.13529694 0.17726617 0.16896266 0.24374072 -0.06724643
00000000: 36df b2bd 6372 a73a 0095 eabd 5a84 013e
00000010: ded5 493d f59e 493d 1e2d 9a3d b0e2 a03b
00000020: 2f08 83bc be90 2dbd a1a4 20bd 3cb5 973d
00000030: 1e86 9fbc 7302 04bd 5c14 88bd 3038 373d
00000040: a7da bfbe 25ec c6bd fd26 babe 151c b6bd
00000050: 13cf 98be 90fb 2fbe 496b 0cbf 5b2d 47bd
00000060: 4733 1fbf 0812 8ebd 2421 f2be ae9d 043d
00000070: 39ea a6be b0d0 d1be 6a52 edbe a26c 4fbe
00000080: e9fb 103e 1484 0b3c 0405 e73c af22 9bbd
00000090: 3796 d53d 5d9f c0bd 2e54 d7bd fe31 6fbd
000000a0: 16d2 ef3c dc3f 46bc 3cf6 9ebd e780 39bd
000000b0: 28c8 803e 3d25 37bd 91e4 92bd 9cc5 253d
000000c0: 4f82 15bd ec6f 4a3e 757a 9abc d442 6b3c
000000d0: e486 09bd 739a db3e f465 133d 6e72 523e
000000e0: 0ab4 b53c 14cb 733e c987 b13c b85e e83c
000000f0: 3389 993c c5d1 8f3e 14f8 803d cbcf 053e
00000100: 0d8d 61bd 79c7 2a3d 40d8 fdbb 2dea 20bd
00000110: 2283 2bbe 2bc8 be3c 3f95 29be 2d9c abbc
00000120: 473c 123b c0e2 2b3e ddec 55bd 81d5 023d
00000130: e784 1ebe 3c91 61bd 1f26 00be 34c0 793d
00000140: 608b ef3c 0c04 8abd e437 913d ba97 e33b
00000150: dba4 72bd 9418 d93d 8248 4d3e e621 94bd
00000160: 147c 3f3e 3784 21bc b343 803d 11b0 46bc
00000170: 9713 83bd 729f a43d a322 dc3d 96ae 25be
00000180: 26c9 84bc 1eac 3bbd 71e6 ac3d 2e4b d63d
00000190: c8a8 003b 3f0e 4a3d 8718 863e ca5d 433d
000001a0: 7872 bfbc d5d8 d8bd 5758 053e 8044 bc3d
000001b0: 7c75 cdbd ee2c a6ba 40aa d03d 481b 05be
000001c0: 63d6 e13d 51c9 56be 2615 d13d e6a3 eebd
000001d0: 5e62 8b3c 7917 e63d 4569 dfbc aa47 2f3e
000001e0: 8ad5 b73d d1dc 12be e409 e93d 4994 2dbe
000001f0: f3b4 093e 6039 de3d 04b1 1b3d 47d7 0e3e
00000200: aa64 18bd 4bb8 9b3c cde3 97bd 3876 98bd
00000210: 2a7b e23d ed3f bcbd 1c99 373d 8eab 39be
00000220: 6c20 3bbe f6f8 963e b615 77be 85cb 373d
00000230: 5852 bf3c 0933 85be a9a8 b83c db04 82bd
00000240: 8d37 843e fbc4 f03c 5566 383e 6a7f 573e
00000250: 841c dd3d 0550 2e3e 3cc7 103e d5c1 9d3d
00000260: 77dc 1aba 1e69 4dbd 3ae6 98bd 9d7e a83c
00000270: db45 d13c 1b3e 0c3e 7a84 e33d 99ee 0ebd
00000280: d86c 9ebd c616 253c f050 29bb 7e53 e0bd
00000290: 97a7 a0bd 3e46 e63d 11ae 373e 5005 6abd
000002a0: 4cac d5bc 0dd7 183e 3bd3 9c3d 725a bbbd
000002b0: c964 b2bc 0355 f13d 9185 c9bc ddc5 3ebe
000002c0: 3003 27be a529 3bba ad0e 35be fefc f83c
000002d0: a4a7 c03d 4954 b73d 9c87 833c 6b97 003e
000002e0: f9c9 cfbd 468e 4e3c c630 2abe ada5 e23d
000002f0: 69f6 693d fd32 31bd 4209 8d3d b1c6 d4bb
00000300: ff99 3f3d 10d7 1d3d ac03 34bd c922 023c
00000310: bb8c 373e 3ceb e7bd bc1b 243d 325e ccbd
00000320: 44d3 c23b 4ac8 a53e 5cc6 edbd 7e95 f83c
00000330: 4e79 9f3d 8f96 67ba e70f 2abc 08b7 c73d
00000340: ec3d 543e 8aa3 4ebd 7ede 293e 15aa 893d
00000350: 48b3 7f3d c5a1 06bc 503f 333e a0bb a3bc
00000360: b7a3 fe3d f57b bb3d d047 303d 3af2 adbc
00000370: 0001 b23d 061c 97bd 6da8 253e 5ddb 80bd
00000380: 5ad5 353d a634 c1bc 2111 8fbd 77b3 3bbd
00000390: 5faf d53d de44 50bb 66c0 c63e ab90 3bbe
000003a0: 31cd 503e 9f47 613d 7b54 8d3e e307 a73d
000003b0: bc40 813d 826b ddbe 31df 4ebe 346a 14bf
000003c0: c29a 29bd fa22 213e 90cd ccbd fda2 e83d
000003d0: 68f3 cf3d f802 843e e676 e13c a738 d83c
000003e0: 94e6 833d c2e7 2b3e 559e c4ba 488b 0a3e
000003f0: 4385 353e 8c04 2d3e 2b97 793e 7fb8 89bd

decon4.0.bias f4 [4]
0.5066616 -0.24133706 0.28685865 -0.068264656
00000000: 93b4 013f 1021 77be 23df 923e 57ce 8bbd
