All_model/Distill-Tea/93-global_G.ckpt (torch, 159261 bytes, 184 tensors)

con1.con.1.weight f4 [8, 3, 4, 4]
00000000: 7148 a93d d1e4 9f3c 8118 9b3c 179a 053c
00000010: 7f25 7fbc 8c14 153c c075 863d 2f3e 4ebd
00000020: af59 863c 425d 153e 5e69 893d a207 ae3d
00000030: 2a52 fb3d e5f7 89bd fa40 e7bc 8217 b43d
00000040: 63fb aabd eccd 6f3c 3f11 f5bd ebd9 88bd
00000050: 1965 f63c f69c 883e e9a7 99bb 7852 773d
00000060: e6f9 2fbe 0875 753e e5f2 0e3d 82f4 f9bd
00000070: 7301 66be 6583 88bb 8725 4c3b c7e1 e5bd
00000080: d360 a3bd bc6b 263e 53d1 443d fc50 95bb
00000090: 70d2 d93c eecf 5c3e eb4b 693e 474a e53d
000000a0: e93d b43d 88e5 423e 1103 ab3d 7606 e63c
000000b0: 8d23 29bd 944f ed3c 6723 edbd 39f3 d3bd
000000c0: b282 dfbd 9e30 8dbd 71b4 d2bd 248e 4d3d
000000d0: 655f c13d 579a 9f3e e251 ed3d c128 fb3b
000000e0: 42c3 b8bd 6795 fe3e 3d36 ac3d 9dfb e4bd
000000f0: bf7c 06be 3d1f ba3c 078f 76bd fdc7 383e
00000100: 4b67 87bb c0cb 01bd 9b7e 1fbe b138 993d
00000110: 68b1 d0bd 5bd5 983e d1bd 5a3d 3bf3 75bd
00000120: 4415 ff3d 3a67 4e3e f846 063e eb2a 303d
00000130: 1303 06be 7873 5cbc 48d3 c0bd f74c 4fbd
00000140: 0e3b 4ebd 4ace 483b 6545 b1bb 77cc c33d
00000150: 5d56 973d 42f9 a63d d8bb c1bd 943a d2bd
00000160: 3342 2bb8 c1de 6a3b 29df f83c 630b bdbd
00000170: cc7b eabc efbf 943d 5f7d dfbd 4763 43bd
00000180: a8af 10bd aef9 a73d c2b5 89bd c0b3 fd3d
00000190: 3775 203d 1220 eabd 8978 c5bd ef2a 48bd
000001a0: 4c95 8cbc a859 7fbd d775 163e d5e2 7b3c
000001b0: 055b 363a c103 d1bd 8d71 353e ddb9 48bc
000001c0: 58cf 903d 25cc 9abd d1fd d9bc 6b3b 143d
000001d0: 80a0 053c eb42 b9bd 4ca6 8bbc 2f6d e0bd
000001e0: d3d9 9abd 53cd ea3c b018 653e aff5 9fbc
000001f0: 9aec 993d e229 0abd 9489 ea3d 0c9d 96bd
00000200: 97c9 d93c 9402 a13d 6476 283d be03 8bbd
00000210: 5f33 fabb 5d19 8ebe 6bde 313d 85f1 c4bd
00000220: d20b b13d 3393 37bd 133a fe3e 345f 903d
00000230: e0e5 a1bd 94c9 6fbe d3b8 6b3e ef2f 24be
00000240: bb43 11be a790 b8bd 15b4 363d 4448 80bd
00000250: 8cac abbd 6041 e23d 109a 113e fd2c febd
00000260: c061 d7bd 55d2 203d afd2 1abe 7e6c 02be
00000270: 6e6d 07bd 0902 b53c 5b78 15be e326 c73d
00000280: 2d6d b73c e0b4 d13d 7dd4 e43d ce5c 38bd
00000290: b5ea 0c3e 88d9 db3d 6130 883e f22e 1e3e
000002a0: 682d 053e d8dd c7bc e5f8 99bc ec35 fe3d
000002b0: a89a 1e3e 1835 febc 69a2 b83d c253 eb3d
000002c0: 1784 e2bd 9fd1 293c 6d47 ca3c e52e 25be
000002d0: c034 0fbd c398 ed3d f336 713b 4a64 9e3d
000002e0: 7faf 97bd 9a08 91bc d3a5 dbbd b111 1fbe
000002f0: cdd3 80bd eead d8bd 3917 a6bd 6221 62bc
00000300: b444 f1bd a1ee 05bd f9e1 313c 0f17 6c3c
00000310: aa13 bb3d 41ea 043e 229f f13d 8a91 3abe
00000320: 6a19 9d3d 303a c83d c288 f63b e28c db3d
00000330: b3d3 0abe edd2 6fbd dd21 4abd 09b6 ecbd
00000340: 523c a3bd 24f5 e73d c30f c03d c7e9 e3bd
00000350: e964 22be 8f8a 7f3e 6d3d 193e 0152 2abd
00000360: 5c92 9c3c f503 9d3e aa71 b83e d473 183e
00000370: ebf7 9d3c bb15 cf3c a837 673e 06ce d0bd
00000380: 4db1 f7bc d1d7 99bc 1d14 613d 2c07 08be
00000390: 3a4e c3bd 843a d73d 614f c13d 556f a2bc
000003a0: 0d03 a93d 6d73 023e 2d52 103e 7928 3a3e
000003b0: 01a3 5f3c 4b40 803b 5221 683e 9c58 663d
000003c0: 811c ba3b 5d7d 983c 7382 2b3c d884 013e
000003d0: eda9 08bd 8256 243e 61b6 d8be 14a7 acbe
000003e0: 44cc 2cbd 355d 403e adac 8ebe 414a e4be
000003f0: 7d8b 4cbd 92fc e23d 6856 b1bd d53f 4d3e
0.0826577 0.019518288 0.018932583 0.008154414 -0.015572905 0.009099137 0.06565428 -0.05035227
0.016400186 0.14586356 0.0670955 0.084975496 0.12271531 -0.06736735 -0.028229225 0.08793546
-0.083487295 0.014636498 -0.1196618 -0.066821896 0.030077504 0.26682252 -0.004689206 0.060381383
-0.17185172 0.23970425 0.03489961 -0.12204839 -0.2246149 -0.004166054 0.0031150298 -0.11224704
-0.07977452 0.16252035 0.04805119 -0.004556773 0.026589602 0.21563694 0.22782867 0.11195808
0.08800871 0.19032872 0.08350194 0.028079253 -0.04129367 0.02896861 -0.11579018 -0.103491254
-0.109136 -0.068940386 -0.10288323 0.050184384 0.09442023 0.3117244 0.115878835 0.0076647704
-0.090216175 0.4972336 0.08408783 -0.11180804 -0.13133524 0.022719974 -0.060194995 0.1804504
-0.0041321865 -0.03168845 -0.1557564 0.07481516 -0.101900876 0.29850277 0.05340368 -0.060046416
0.12455228 0.20156565 0.1311301 0.04300968 -0.1308711 -0.013455264 -0.09415299 -0.05061051
-0.050349288 0.0030640536 -0.005409884 0.09560483 0.07389519 0.08153011 -0.094596565 -0.10265079
-4.083123e-05 0.0035838338 0.030379849 -0.092306875 -0.028623484 0.07263171 -0.109125845 -0.0477021
-0.03532377 0.082019195 -0.06724121 0.123878 0.039174285 -0.11431898 -0.09642131 -0.04886907
-0.017161034 -0.062341362 0.1469339 0.015373905 0.0006956312 -0.10205794 0.17719097 -0.0122513445
0.07070798 -0.07558469 -0.026610287 0.036189478 0.008155942 -0.09045967 -0.01704707 -0.10958325
-0.07561078 0.02866236 0.22372699 -0.01952633 0.07515831 -0.03373135 0.11452022 -0.07354173
0.026585383 0.0786182 0.04112853 -0.06787823 -0.0076355184 -0.27753726 0.043425005 -0.09616379
0.08644833 -0.044818114 0.49653682 0.070494086 -0.07905173 -0.2341674 0.23019724 -0.1603391
-0.14185993 -0.09011965 0.044605333 -0.062637836 -0.0838252 0.110476255 0.14218926 -0.124109246
-0.10516691 0.03926309 -0.15119432 -0.12736699 -0.033063345 0.022095697 -0.14596693 0.09724214
0.022390926 0.10239577 0.111733414 -0.04501038 0.13761409 0.1073485 0.2659941 0.15447596
0.13005602 -0.024397776 -0.01879544 0.124126285 0.15488684 -0.031031176 0.09015352 0.11490585
-0.110603504 0.010364919 0.024692262 -0.1613117 -0.034962416 0.116014026 0.0036806434 0.07733972
-0.0740652 -0.017704297 -0.10724988 -0.15534092 -0.06290398 -0.105800495 -0.08109898 -0.013801904
-0.11780682 -0.032698277 0.010857099 0.0144097945 0.0913461 0.12979986 0.1179793 -0.18219581
0.07670863 0.097767234 0.007523627 0.10720231 -0.1355732 -0.058550764 -0.0493487 -0.11558158
-0.079704896 0.11326054 0.09378006 -0.11128574 -0.15858807 0.249552 0.14964838 -0.04158211
0.019112758 0.3066708 0.3602422 0.14887935 0.019283256 0.025278917 0.22579825 -0.10195546
-0.03023591 -0.018779667 0.054950822 -0.13283986 -0.09536405 0.10509208 0.094389684 -0.019828478
0.08252535 0.12739344 0.14093848 0.18179502 0.013649703 0.0039139143 0.2266896 0.05623685
0.0056796675 0.018614465 0.010468113 0.12648332 -0.03336518 0.16048625 -0.42326644 -0.3372122
-0.04218699 0.18785556 -0.27866116 -0.445879 -0.049937714 0.1108333 -0.08659059 0.20043881

con1.con.1.bias f4 [8]
00000000: 7b18 523d efec 4abd 7854 c1bd 36a1 bcbd
00000010: 11c5 e33d e2b9 af3d e3f6 163e ade6 413d
0.051292878 -0.049542364 -0.09439939 -0.09210436 0.11121572 0.08580376 0.14742617 0.04733913

con1.con.2.weight f4 [8]
00000000: 248f 803f 93f8 843f 159d 673f 5f7b 383f
00000010: c5d0 8a3f 8d68 993f e906 603f 2c5a 8d3f
1.0043683 1.0388359 0.90474063 0.7206325 1.0844961 1.1985031 0.87510544 1.1043143

con1.con.2.bias f4 [8]
00000000: 6eb4 4a3d eab4 ce3e 2415 1e3e 9537 5e3f
00000010: fffd 063e 64d6 ecbe 1f53 8b3e 9cc1 0cbe
0.049488477 0.403724 0.15437752 0.8680356 0.1318283 -0.46257317 0.27211854 -0.13745731

con1.con.2.running_mean f4 [8]
00000000: 6634 49be b81e 13be cf52 02be 1051 5b3b
00000010: d287 3abe 7680 593e 7c10 f23c 4928 a63e
-0.19648895 -0.14367187 -0.12726901 0.0033465065 -0.18215874 0.2124041 0.029548876 0.3245261

con1.con.2.running_var f4 [8]
00000000: cb21 983e 7cce 323e e196 413c e457 283d
00000010: 9850 663f f5c8 893e dfe1 363e c46b 183f
0.29713282 0.1746158 0.0118157575 0.041099444 0.89966726 0.2691113 0.178596 0.5953944

con2.con.1.weight f4 [8, 8, 4, 4]
00000000: 5aae 3bbe ec81 09be 8e8a 013d 4c37 8cbd
00000010: f469 80bd b3fb 693b f9c8 b13d 61d3 0cbc
00000020: b24b c53c b15f 8b3d 1985 583e 512d 673d
00000030: 7fd1 febb 1986 2f3c 852d 95bc 572c 72bd
00000040: 48be bfbc 4dfc 8abc bfc4 a2bd c0b8 22bd
00000050: 64b4 0ebe 1795 f8bb 26c4 af3d 32be 8cbd
00000060: 2ac8 95bd 97bd 703d 5f10 863c 7d31 9abd
00000070: 08a7 a9bb 34b0 45bd 2c06 bd3b 4db7 bf3c
00000080: 76ca e2b9 92e5 f53d 6c2b f73d b212 b03c
00000090: 9653 9c3d 0d82 3d3e 716d 0d3e ad2b fbbc
000000a0: 6a45 fa3c 9c12 cb3d 21e6 123d 20d6 8abd
000000b0: 3acd 29bd 274d 4abd 2b01 eabc e36f 6e3c
000000c0: 97ea 523d 253c e2bb b475 193c bf49 c83d
000000d0: 84cb f63d 3942 9fbc 4c2a 583d 1b23 d93d
000000e0: cae2 eb3d 899b ab3d c3d2 023d d3a2 a03d
000000f0: 14e4 433d aaac 103d 51e1 da3d 5829 173e
00000100: c946 74bd 37eb 823b 3efc 613a eec7 0ebd
00000110: 2c25 c6bc 7dab 35bc d546 f73b d31f 26bd
00000120: 4c2b c53b e49b 10bc b382 a43d e7b1 acbd
00000130: 64fc c0bd 89f2 a0bc 31fa ebbb 811e f9ba
00000140: 5cc9 a03d e61b dd3d c56f 9e3d 3dd0 b43d
00000150: 0a27 d33c 5244 fe3d 683c 303e 54c2 bb3d
00000160: b4fe 99bd 3f0b c9bc 9395 363d 5d61 0c3e
00000170: e895 013d 6991 95b9 50a5 a23c b5c2 4b3d
00000180: 9bd4 a33c 6490 fb3c 6bb3 c6bc 6f3d 7a3c
00000190: 9ae3 fe3d 1303 233e 2eb6 a83d 9232 8b3d
000001a0: cda8 a6bc bfbb 063e 8efa 433d 757e bf3d
000001b0: 8d84 ffbc 2a93 b9bd 20f9 3abc b18b 873d
000001c0: b1bc 1cbd b75e cbbd 8834 823c e3c4 b43c
000001d0: 64a8 33bd f4e3 2abe dbe3 0fbe eac5 10bd
000001e0: 382e a1bd e2a7 39be 4a7f 8abd 98a9 b7bd
000001f0: 5a1d 573d a942 353d f943 4abd 1ba5 8dbc
00000200: 1e1e 89bd cb02 2fbd 10e8 88bd c80e 39be
00000210: 2723 9cbd ee59 0fbc b491 a43c feb8 e339
00000220: d0b7 9dbc 246c 3d3d 01a7 ba3d 2473 78bd
00000230: dee7 e43c 500a 56bd 924a 9ebb fe84 48bd
00000240: f1bf 3b3d f3c2 8e3d c6f3 96bd 7fd7 853c
00000250: f182 93bd 2486 0a3e 100e b33d b02d 7c38
00000260: d852 23bd 7dbc 16bd 03b5 92bd 3d3f cdbc
00000270: e0ea 0fbd e331 bfbd aefc 9dbc 6be5 5abd
00000280: 6b42 2e3e ac83 4f3e a38b bdbb e83a f6bd
00000290: 6566 223e 4ae5 113e e034 21bd 95d2 3dbd
000002a0: 5a27 fcba f78c 7bbd 0ba8 4fbd f1d7 f23b
000002b0: 36e0 38bd cbc8 86bd 5c33 7cbd 0d86 d5bc
000002c0: e139 603b be6f e8bc eeea c2bc 57bb fb3b
000002d0: fd23 8c3d 9bf0 853d d447 e23d 21ca 62bd
000002e0: 7a80 ce3b 1d3e b13d 52c9 f13c 6640 bcbc
000002f0: a579 423d d5b5 453d b33a 97bc 3e88 9ebc
00000300: 2fdc 433e 533f eb3d e641 b73d a1f9 143d
00000310: 2f54 b13d cf09 583e 9996 603e 5614 24bc
00000320: 170b 803d 4a47 283e 2bc1 db3d 78ed 823d
00000330: 5413 923d c667 40bd a9b1 efbc 5144 c93d
00000340: a0cd 003e 188a bd3d 802b 2c3d aef3 7639
00000350: 4c24 1c3b 7ef4 46bc eae7 323e b210 033e
00000360: 2aec 0f3d a380 853d ee39 9d3d 9dd3 153c
00000370: 1771 df3d de5c 243e ba97 3d3d ccea 7ebd
00000380: eb93 56bd a45f e63a 3287 5ebd 7dd4 ceba
00000390: f056 183c d5bc 80bd b494 a4bc 64cc f3bc
000003a0: 1b78 1abd e08d 07bc a633 053d 36f7 9dbd
000003b0: 919b a4bc 544e e3bd ad9c 3a3c 0f48 b2bd
000003c0: abb2 fd3d 6997 44be d39d 44bd d7d1 85bc
000003d0: 2362 0b3d 11e2 5dbe 22d4 0fbe cd1a 57bd
000003e0: 842e 153d afda 63bd df61 8a3c 6bd1 a6bc
000003f0: cca9 073c 7291 59bd 0c72 86bc 731f aabc
-0.18328229 -0.13428468 0.031626277 -0.068464845 -0.06270209 0.0035703003 0.086809106 -0.0085953185
0.024083946 0.06805361 0.21144523 0.0564397 -0.0077764387 0.010713124 -0.018210182 -0.059124317
-0.023406163 -0.01696601 -0.079476826 -0.039726973 -0.13936001 -0.0075861323 0.08582334 -0.068722144
-0.07313569 0.058774557 0.016365228 -0.075289704 -0.0051773824 -0.048263744 0.005768558 0.023402834
-0.00043256924 0.12006678 0.12068829 0.02149329 0.0763313 0.18506642 0.1381128 -0.030660475
0.030550677 0.09915659 0.035864 -0.06779122 -0.041455485 -0.049389984 -0.02856501 0.014553043
0.051493254 -0.0069041424 0.0093664415 0.09779691 0.12050536 -0.019440757 0.052774712 0.10602399
0.11517866 0.08379275 0.03193928 0.07843556 0.047824934 0.035320915 0.10687507 0.14761865
-0.05963782 0.003995325 0.0008620656 -0.034858637 -0.024187647 -0.011088249 0.0075462856 -0.040557694
0.0060171243 -0.00882623 0.080327414 -0.0843237 -0.0942314 -0.0196469 -0.007201456 -0.0019006283
0.07850906 0.10796337 0.07736162 0.08828781 0.025775451 0.12415375 0.17210543 0.091679245
-0.07519284 -0.024541495 0.04457624 0.13709016 0.031637102 -0.00028527834 0.019854218 0.049746234
0.01999884 0.0307085 -0.024255475 0.015273436 0.12445755 0.15919141 0.08237873 0.06796755
-0.020344162 0.13157557 0.04784637 0.09350292 -0.031191135 -0.090612724 -0.011411935 0.06618441
-0.038265888 -0.09930175 0.01589419 0.02206654 -0.04386176 -0.1668852 -0.14051764 -0.035344996
-0.07870144 -0.18130448 -0.0676256 -0.08967894 0.052518226 0.044253025 -0.04938123 -0.017290642
-0.066951975 -0.042727273 -0.066848874 -0.18072045 -0.07623892 -0.008749468 0.020089008 0.00043434644
-0.019252688 0.04624571 0.09113885 -0.06065668 0.027942594 -0.05225593 -0.004830667 -0.048954956
0.045837346 0.06970777 -0.07370715 0.016338108 -0.072027095 0.13527733 0.087429166 6.012403e-05
-0.039873928 -0.03680085 -0.071634315 -0.025054568 -0.035136104 -0.09335687 -0.019285526 -0.053441446
0.17017524 0.20265073 -0.0057844683 -0.12022954 0.15859373 0.14247623 -0.039357066 -0.046343405
-0.0019237802 -0.06141373 -0.050697368 0.007410996 -0.0451357 -0.06581267 -0.061572418 -0.026064897
0.0034214186 -0.028373595 -0.023793664 0.0076822448 0.06842802 0.065400325 0.110488564 -0.055368546
0.0063019367 0.08654425 0.029514942 -0.022979926 0.04747929 0.04826911 -0.018460607 -0.019352075
0.19126962 0.114866875 0.08948116 0.036370877 0.08658635 0.21097492 0.21932448 -0.010014614
0.06252115 0.16433445 0.10730203 0.0639295 0.07132593 -0.046973966 -0.02925952 0.098274834
0.1257844 0.09254855 0.042033672 0.00023551166 0.0023825346 -0.012143252 0.1747128 0.12799338
0.035137333 0.06518676 0.07677065 0.009144691 0.10910242 0.16051051 0.046287276 -0.06223564
-0.05238716 0.001757611 -0.05432815 -0.0015779879 0.009298071 -0.06286017 -0.020090438 -0.029760547
-0.037712198 -0.008273572 0.03251996 -0.07713167 -0.020093711 -0.11098924 0.0113898935 -0.0870515
0.12387594 -0.19198383 -0.048002075 -0.016335411 0.034029137 -0.21668269 -0.14045766 -0.052515794
0.036421314 -0.055628475 0.016892372 -0.02036353 0.008280229 -0.053117223 -0.016411804 -0.02076695

con2.con.1.bias f4 [8]
00000000: d101 c53d 85e7 b13c 29fc f3bd 718c 49bd
00000010: 00e9 7abd 6914 833c 34f5 a23c dc98 0b3d
0.09619487 0.021716842 -0.1191333 -0.0492062 -0.061257362 0.016000943 0.019892313 0.034081325

con2.con.2.weight f4 [8]
00000000: b330 5f3f 2310 813f c4c6 753f ad08 853f
00000010: 860d 893f 3448 833f 0828 893f efe8 863f
0.87183684 1.008305 0.9600642 1.0393273 1.0707252 1.025641 1.0715342 1.0539836

con2.con.2.bias f4 [8]
00000000: 0534 3c3e 6097 45bd 5a3e 3dbe ae97 e6be
00000010: 9285 0d3e 7b04 873d 6dd4 66bd cdca 91be
0.18379219 -0.048240066 -0.18480816 -0.45037597 0.13820484 0.065926515 -0.05635493 -0.28475037

con2.con.2.running_mean f4 [8]
00000000: 59a8 893f d376 f43e 70f7 d7be 747a 713f
00000010: f2e0 553e 169d 7bbf d899 113f 6251 d43f
1.0754501 0.47746906 -0.42180967 0.94327474 0.20886591 -0.9828657 0.5687537 1.6587336

con2.con.2.running_var f4 [8]
00000000: cdc8 8b3f a2c9 2e3f 227c cf3f b16a 1f40
00000010: d155 8d3f 8498 7e40 23d3 2640 d0de 6c3f
1.0920655 0.6827642 1.6209757 2.490887 1.1041814 3.9780588 2.6066368 0.92527485

con3.con.1.weight f4 [8, 8, 4, 4]
00000000: 1aae 52bc ce9f a83d 0431 b5bb 6c32 363d
00000010: d91c b13d a497 e53a 04c6 883d 6ff5 f33c
00000020: 0c8d 0f3d 7fbc d43d 34df a03d c50e 4b3d
00000030: 1148 df3d d032 063d 570e 6e3d 0c41 893c
00000040: 0e9a 19bd 9459 00bc da18 5abd 5ad2 d63c
00000050: 7051 38bc 2ba4 053d 2bc3 d2bc 775e 2ebc
00000060: 112b bcbb c343 ac3c 7b2c 173d 4b15 39bd
00000070: d589 81bc 6fd2 c9bc 3507 103b 014d 0bbc
00000080: 5c79 c63d eeea ce3c edd4 35bd 5c50 8bb9
00000090: 510d acbb 6ab3 39ba 2b11 74bb e188 a9bd
000000a0: b02e 0bbd f9ed a8bc 91b4 88bc 4ee9 f7bd
000000b0: 3d01 943d fcbf 67bd 4b69 b3bd e872 08bd
000000c0: 0c34 09bd 194a b43d 301d 033e adcf f23b
000000d0: 2f4f 413d 18d6 163e fd86 183e e9f1 d73d
000000e0: 85cd 293c 8d90 033e bc7b 1d3e dc6a 0c3e
000000f0: f639 e43d 7c07 2c3e 47cd 493e d2d1 f53d
00000100: 2d16 16be e805 0ebe 8fd4 5bbd c017 8ebd
00000110: 90e2 9cbd 08a4 04be cc6c cdbd c56c e6bd
00000120: 5340 72bd 63bc d9bd db73 14be 3290 eebd
00000130: 3de6 d4bd cbd5 fbbd 3ce6 fabd 04d4 f5bd
00000140: 3b05 cc3d d3b8 3d3d 585e d93d 9332 cc3d
00000150: c830 823c 38f1 aa3d 332d 0c3e 4596 e93d
00000160: bbd6 913d 2372 a13d a40e 0a3e 5394 113e
00000170: 0aad b03c 6c51 853d 0d02 b23d 0a38 e63c
00000180: 254a 7bbc 6306 38bd 403f 143c f728 8dbd
00000190: e9c5 8e3b 7c9a 1dbc cb72 9ebd 218a 0abe
000001a0: 91b9 213d 6066 1ebd af68 7ebd 67a5 e2bd
000001b0: fa0d 7cbd 0345 6cbd a356 a8bc 0b76 eabd
000001c0: 5b20 e1bd 0ae6 0c3b 8e9a 31bd 91e8 28bc
000001d0: dcb6 b4bd cace 8bbc 7bfa ca3c 2825 7f3d
000001e0: a16f e2bc c012 77bc 1eb6 473d 9de4 863d
000001f0: fee0 40bb f8ee 743d 4b8b cd3c b741 803d
00000200: 9f29 733d ecee 603d 7618 533d c041 fc3c
00000210: dc90 17bd ffe3 973d 5016 4bbc 2f0e a43c
00000220: 0804 e9bd deed a8bd a2aa 06bd b91e 47bc
00000230: db7e 87bc 0e23 7f3c 3f6b 823a 02b4 803c
00000240: 0fa3 fd3d 2781 b43d c9d7 0d3e 2522 003e
00000250: 4a8d 4a3e cf88 2b3e f3fc bd3d a3de 733d
00000260: 3c97 983d b7d8 7a3d 5418 93bd 6c30 9dbd
00000270: fc94 d5bc ec6d a8bc 5ba8 e2bd a3e6 c3bd
00000280: 9b50 cd3c 032a d8bc 2ff3 65bd 30ca d7bc
00000290: 675c 8ebd 2042 9bbd 5849 7bbd 9233 d8b9
000002a0: 9fad 343b 8f21 d43c beb6 b1bc 780d cbbc
000002b0: 2c63 a2bd e8ac babc 206a e4bd c26e e2bd
000002c0: d014 ba3d b4b5 9cbb 2031 67bd d620 c0bc
000002d0: 37a7 033d 9525 dcbd 1616 75bd 0b47 8fbd
000002e0: 58f3 8c3d b706 2e3d 78a7 f23b acc5 70bc
000002f0: a9fd f8bc a2c5 713d 632f 5b3c 4889 cc3b
00000300: 2624 5d3e 8bb5 503e 9c67 2c3e 4026 ca3d
00000310: dcb8 353e 7e94 053e b0b9 9f3d a5f6 983d
00000320: dde7 ab3d c8fd b23b 8826 2e3d 9825 093c
00000330: 8b72 723d c265 903a d7f3 4ebc aba5 123c
00000340: da3a 20be 9bb2 923d 1d8b a13c d698 c33c
00000350: 7841 c8ba b2c8 9f3a 92b8 a53d f2a4 2d3d
00000360: 2576 7d3d d940 b53d f449 2f3e c4dc 0f3e
00000370: 478e 49bc 363a 8b3b cbc8 1e3d 2a55 803d
00000380: edfe dfbc 249a 45bd 4ff1 14bc 78f8 dcbb
00000390: bb1a b2bd 2426 07be 3d1d 9bbd 0f4f 8cbc
000003a0: e748 aebc bb6a 183b 038c 87bc 9c8b d63a
000003b0: d64c 2fbc 5208 71bd cf17 c6bb e029 d93d
000003c0: 8068 ca3d fd09 d33b 7d65 d9bc 1d5e 84bc
000003d0: 0ebf 513d a911 e0bc 9e1b a8bd 528c 91bd
000003e0: c613 a8bc 477a 92bc ce37 c6bd 2860 d5bd
000003f0: a31c f7bb d6c4 a53c aca7 36bd af33 6bbd
-0.012858892 0.08233605 -0.0055295248 0.04448168 0.086480804 0.0017516506 0.066783935 0.029780118
0.035046622 0.10387515 0.078550726 0.049574632 0.109024175 0.032763302 0.058119144 0.01675465
-0.037500434 -0.007833857 -0.053246357 0.02622335 -0.011249885 0.032627266 -0.025727829 -0.010642639
-0.0057424386 0.021028405 0.036907654 -0.045186322 -0.015812794 -0.024636475 0.0021976952 -0.008502246
0.09691116 0.025258508 -0.044392515 -0.00026572018 -0.005250611 -0.0007083925 -0.0037241678 -0.08278061
-0.03398007 -0.020621287 -0.016687663 -0.12105046 0.07226799 -0.056579575 -0.087603174 -0.03331271
-0.0334969 0.088031955 0.12804103 0.007410011 0.047194656 0.14730108 0.14895244 0.105441876
0.010363941 0.1284811 0.15379232 0.13712639 0.11143868 0.1679973 0.19707213 0.12002911
-0.14656897 -0.1386944 -0.05366951 -0.06938124 -0.07660401 -0.12953198 -0.10030517 -0.11251215
-0.059143376 -0.10631635 -0.1449732 -0.11648597 -0.10395477 -0.12296637 -0.12250945 -0.120033294
0.09961935 0.04631884 0.10613698 0.09970584 0.015892401 0.0834679 0.13689117 0.11405615
0.07121035 0.07883098 0.13482147 0.14216737 0.021566886 0.065096706 0.086917974 0.028102893
-0.015337502 -0.044927966 0.009048283 -0.06892579 0.004357089 -0.0096193515 -0.07736739 -0.13529254
0.03948361 -0.03867185 -0.062111553 -0.11066704 -0.061536767 -0.057683002 -0.020549124 -0.11448296
-0.109924994 0.0021499419 -0.043360285 -0.010309354 -0.0882394 -0.017066378 0.024777642 0.062291294
-0.02764112 -0.015080154 0.048757665 0.06586573 -0.002943098 0.05979821 0.025090834 0.06262534
0.059365865 0.054915354 0.051537 0.03079307 -0.037003383 0.07416534 -0.012395456 0.020026295
-0.11377722 -0.082484946 -0.032877572 -0.012153321 -0.016539982 0.0155723225 0.0009950175 0.015710834
0.123846166 0.08813696 0.13851847 0.12513025 0.1978046 0.16751407 0.09276762 0.059538495
0.07450721 0.06124183 -0.071823746 -0.07675251 -0.026072018 -0.020560227 -0.110672675 -0.09565475
0.02506285 -0.02638722 -0.05614012 -0.026341528 -0.06951218 -0.07580972 -0.061349243 -0.00041237153
0.0027569307 0.025894908 -0.021693584 -0.024786696 -0.07929072 -0.022787526 -0.11153054 -0.110562816
0.09086001 -0.004782403 -0.056443334 -0.023453157 0.03214189 -0.10749356 -0.059835516 -0.06995972
0.06882352 0.042486873 0.0074052177 -0.014695566 -0.030394392 0.059026368 0.013377997 0.006241951
0.21595821 0.20381753 0.16836399 0.09870577 0.177463 0.13044927 0.07799089 0.07468919
0.08393834 0.005462382 0.042517215 0.008370779 0.059191268 0.0011016654 -0.012631378 0.008950631
-0.1564745 0.071629725 0.019719655 0.023876589 -0.00152783 0.0012190549 0.080918446 0.042393632
0.06188025 0.08850259 0.17118055 0.14049059 -0.012301988 0.0042488826 0.03876571 0.06266244
-0.027343238 -0.048242703 -0.009090736 -0.006743487 -0.08696505 -0.13198143 -0.07573936 -0.017127542
-0.021274997 0.0023256976 -0.016546255 0.0016368511 -0.010699471 -0.058845825 -0.0060453187 0.1060369
0.09883213 0.0064403997 -0.026537651 -0.016158158 0.051207595 -0.027352171 -0.082083926 -0.07106842
-0.020517241 -0.017880572 -0.09678613 -0.10418731 -0.0075412556 0.02023546 -0.044593498 -0.057422336

con3.con.1.bias f4 [8]
00000000: 7429 703d 44c6 2fbc 6a6b 8cbd 127a 5f3d
00000010: 433d 56bd 3aac 9c3a 1368 813c 48ef 00bb
0.058633283 -0.010728423 -0.06856425 0.054559775 -0.052304517 0.0011953183 0.015796697 -0.0019673873

con3.con.2.weight f4 [8]
00000000: 453e 9e3f 5470 913f d610 813f 204d a03f
00000010: cb83 913f 9a71 893f e62b 983f 0644 9d3f
1.2362753 1.1362405 1.0083263 1.2523537 1.1368345 1.0737793 1.1888397 1.2286384

con3.con.2.bias f4 [8]
00000000: 0a7e 253d d8c4 0a3d 194f e63e 29dc 143e
00000010: 572a efbe 5b6e eabe 43d0 12bd e1b1 2ebe
0.040403403 0.03387913 0.44982222 0.1453711 -0.4671199 -0.4578732 -0.035843145 -0.17060043

con3.con.2.running_mean f4 [8]
00000000: f3b9 2bbb 5649 3c3f dc02 3ebf a8da 3bbf
00000010: 7595 9a3f 0832 bd3f 031d 27bf b62b f53f
-0.0026203364 0.735494 -0.74223113 -0.7338052 1.2076861 1.4780893 -0.65278643 1.9153965

con3.con.2.running_var f4 [8]
00000000: 0fe8 de40 66b0 593f 7dc0 6240 1784 a840
00000010: af8a c13f 5fcb 8640 730e d540 4a0f 2040
6.9658275 0.8503479 3.5429986 5.2661242 1.5120448 4.2123256 6.658014 2.5009332

con4.con.1.weight f4 [8, 8, 4, 4]
00000000: f9e1 163e 475d 77bd a1d0 76bd a2c6 cebd
00000010: 631c 17bd fc5c 163c 80cd 063c 9cb2 a8bd
00000020: e49e cfba 59bc f4bd 53d3 9cbd 1e3e 5ebd
00000030: d9dc 513d 8978 fdbd d26d b3bd ee51 02be
00000040: 0938 d5bd 5e5e 07be 2714 d0bc 36a4 36bd
00000050: 37fc a6bd c55e f2bd 42ca cbbc d1b8 99bd
00000060: 9f45 c1bc 91f4 0abd 7d6e a4bd d9e8 93bd
00000070: 657a 1bbe 6b8f fdbd 7951 b43c 32d0 6ebd
00000080: 682d 133d 72a4 96bc 2026 f5bc 4cb5 79bd
00000090: 1f37 c63c 8b53 a93d 7359 483d 08c0 46bb
000000a0: f4b0 83bd 694a a93d 43a8 013e dafa cf3d
000000b0: 662d 473b b55a 813c 9f9b 253e 8237 f23d
000000c0: 7f26 1fbd e126 dfbc ae48 dfbd 646b 12be
000000d0: 2525 cdbd 6c5b 87bb f9bf 8bbd fe2a 43bd
000000e0: f1ba 09be bb63 173c 68c6 05bd 0add 413c
000000f0: 2b88 8ebd f03b 8abd 41cf 503d 977f 403d
00000100: 54c2 16be c9ab 1fbc b10c aabd 2724 233d
00000110: 69e0 1fbe 9d27 15be d49d e0bd 2497 febb
00000120: ef87 7dbd babc 17be 8313 0bbe 7167 76bd
00000130: 0fbb e5bc 7ec5 7cbc e01c dabc 84de 2d3d
00000140: a864 fbbc 4d20 17bd 630b d1bc 89ae 81bd
00000150: 4fd8 643a 1fad 8f3d 57d3 59bd 5862 01bc
00000160: 1be5 7abd 2036 1abd 0652 c43b 7d45 c2bc
00000170: 74e5 62bc d8de a63d 8a8d 763b 699e ec3d
00000180: f14c 1b3d faea 963d 98dd f83d c8e5 b33d
00000190: fe56 9dbc 7a39 6f3d 6c71 6dbd ffdb 45bd
000001a0: bcfd a93d f53b bebd d74b 723d 080b 543d
000001b0: 8b4d 2d3d 0522 8abd ef1e cebd 7dd0 f13c
000001c0: d75a 743c 2c8b bd3d 836c fb3c 53a8 db3d
000001d0: 5947 3c3d 480f 92bd 6404 23bc bfba ea3d
000001e0: b505 2f3c b9bc 50bb d241 ba3d 7302 38bc
000001f0: f647 d33d 9e9e ba3d d364 4c3d 1762 c33c
00000200: 9c6f 4dbd 8fd4 b3bd b4ee 2dbe 5f90 3bbe
00000210: a2eb 3ebd 6d3c 06be 11cc 02be 22f4 45bd
00000220: 237c 6fbc 66fc e3bd 226e 9d3b 424a f3bd
00000230: 190d 86bd bc4a ce3c b284 82bd d9a9 97bd
00000240: ad06 063d 3ad3 0c3e c839 d03d a1fa ee3c
00000250: 67a4 4d3d d73c 083d 988f 503d 5ee7 423d
00000260: 040d a83d 7405 343d 267d 1a3d 9fb8 433d
00000270: 2858 cebd d9e8 883c f4ce a23b 0204 24bd
00000280: d68e 013e f090 063d bf10 b9bd bc27 173c
00000290: a569 0d3e a5f7 81bc 80c6 d73b ee63 08bd
000002a0: c9cf 0c3e ecf3 163c 0795 aebc ea57 ccbd
000002b0: 95d9 a33d cdd0 163d 83d3 8ebb f1a9 01be
000002c0: c20a d4bd 3b33 0ebe 0854 95bd a4fc d9bc
000002d0: 80df c13c db73 03be 5b8c 15be ff15 60bd
000002e0: 5b13 1bbe 01c4 1bbe 659f 843b f989 abbc
000002f0: 6760 39bd 0105 b93b 1baf 99bd 8afd af3c
00000300: 2c57 913d 6a75 343d da31 8fbd 03e2 49bb
00000310: 1e7b 04be 8afe c7bd aafc e2bd 55fb 02bd
00000320: 05b2 b7bc 78d3 73bc 0c97 e3bc 4e0a 05bd
00000330: b414 8d3d 81f4 38bd 21e7 673c ce0c e4bb
00000340: 4e9d 4b3c 9448 073d 6536 973c 10ff 8e3d
00000350: 2399 e7bc c67e d13d 3984 163d 814c 883d
00000360: ae85 0f3d edcf 1e3d 6ff6 eabc 7bff 093e
00000370: fa09 99bd 96e0 523d ba53 9cbb f903 893c
00000380: 204f 29be 41e4 73bc 498f cabd 7759 4dbd
00000390: 8d7c 1abe af60 dabd 8889 72bd 3211 b8bd
000003a0: fe77 41be 5692 4fbe 9d4d 87bd 92a5 e3bd
000003b0: 8181 b8bd b0d3 c6bd 5e49 00bc 180a e53a
000003c0: 33ee d03d 1fb8 933d b520 c23c 6ea5 de3c
000003d0: f621 303a 11d7 9bbd 46e3 d13c 5d88 483d
000003e0: 6c06 17bc c22b f4bb 6e58 923d 4c92 61bc
000003f0: cd0b 69bd 4bc9 c9bd 6497 0e3c 9c5a 55bd
0.14734639 -0.06039169 -0.060257558 -0.1009648 -0.036892306 0.009177443 0.008227706 -0.08237192
-0.00158402 -0.11949987 -0.076574944 -0.05425846 0.051236007 -0.12376506 -0.08761181 -0.12726566
-0.104110785 -0.13219592 -0.025400234 -0.044590198 -0.08153575 -0.11834482 -0.024876717 -0.07505954
-0.023592768 -0.033924643 -0.080288865 -0.072221465 -0.15183409 -0.123808704 0.022011505 -0.05830402
0.035931975 -0.01838896 -0.029925406 -0.060963914 0.024196206 0.08267888 0.04891343 -0.0030326862
-0.064302355 0.08266146 0.12661843 0.10155268 0.003039205 0.015790323 0.16172646 0.118269935
-0.038855072 -0.027240219 -0.109025344 -0.14298779 -0.100168504 -0.0041307714 -0.06823725 -0.047648422
-0.13450219 0.009240086 -0.032659918 0.011832485 -0.06959566 -0.067497134 0.050978903 0.04699668
-0.14722568 -0.009745547 -0.08303202 0.0398294 -0.1561295 -0.14565893 -0.10967603 -0.007769482
-0.061897215 -0.14818087 -0.13581662 -0.060157243 -0.028043298 -0.015427945 -0.026625097 0.042448536
-0.030687645 -0.03689604 -0.025518125 -0.06332118 0.0008729742 0.07015442 -0.053180065 -0.007896982
-0.06125365 -0.037649274 0.0059912233 -0.023714775 -0.013848651 0.08147973 0.0037620985 0.11553652
0.037915174 0.07369037 0.12151641 0.08784062 -0.01920652 0.058404423 -0.057969496 -0.048305508
0.08300349 -0.0928878 0.059154358 0.051768333 0.04231028 -0.0674477 -0.10064494 0.02951836
0.014914236 0.092550606 0.03069139 0.10725465 0.04596648 -0.07131821 -0.009949777 0.114614
0.010682513 -0.0031850769 0.090945855 -0.011231053 0.1031646 0.09112285 0.04990084 0.023850484
-0.050155267 -0.08780777 -0.1698559 -0.18316792 -0.046611436 -0.13108988 -0.12773158 -0.048328526
-0.014616999 -0.111321256 0.0048043886 -0.11879398 -0.06545467 0.02518212 -0.06372966 -0.07405443
0.03272121 0.13752452 0.10167271 0.029172244 0.050205614 0.033261146 0.05091819 0.04758393
0.082056075 0.043950513 0.037717007 0.04778349 -0.10075408 0.016712593 0.0049685184 -0.040042885
0.12652144 0.032853067 -0.09036397 0.009225782 0.13809831 -0.015865156 0.0065849423 -0.033298425
0.13751139 0.009213429 -0.021311296 -0.09977706 0.08000485 0.03682022 -0.0043587103 -0.12662484
-0.103536144 -0.1388673 -0.07291418 -0.026609726 0.023666143 -0.12837164 -0.14604323 -0.054708477
-0.15144102 -0.15211488 0.0040473216 -0.020939814 -0.045257952 0.0056463485 -0.07504102 0.021483202
0.07096705 0.044057287 -0.0699193 -0.003080488 -0.1293759 -0.09765346 -0.11083348 -0.03197797
-0.022423754 -0.014881961 -0.027781986 -0.03248053 0.068887144 -0.045155052 0.0141542265 -0.0069595343
0.012427641 0.0330282 0.018458555 0.06982243 -0.028271263 0.10229258 0.03674719 0.06655217
0.035039596 0.038772512 -0.028681962 0.13476364 -0.07472606 0.051483713 -0.004770723 0.016725527
-0.1653409 -0.014885963 -0.09890611 -0.05013415 -0.15086575 -0.10662972 -0.05921319 -0.08987655
-0.1889343 -0.20270666 -0.066066004 -0.111155644 -0.09009076 -0.09708345 -0.007829992 0.0017474322
0.10201683 0.07212853 0.023697237 0.027178492 0.0006718928 -0.0760938 0.025621068 0.04895817
-0.00921784 -0.0074515054 0.07145773 -0.01376779 -0.05689602 -0.09852847 0.0087030865 -0.052088365

con4.con.1.bias f4 [8]
00000000: bdbc 5a3d 223b d5bc c9dd a23d 2748 56bd
00000010: 4cb9 52bd 1cd5 9d3d 3a42 9d3d d39a b4bd
0.05340265 -0.026029173 0.079524584 -0.052314904 -0.051446244 0.07706663 0.07678647 -0.08818593

con4.con.2.weight f4 [8]
00000000: 21cd 893f e8f0 8a3f a2d0 8f3f f3d6 7b3f
00000010: 1d26 843f 39ea 5e3f bde6 6c3f 30dd 863f
1.0765725 1.0854769 1.1235545 0.9837486 1.0324131 0.87076145 0.9253958 1.0536251

con4.con.2.bias f4 [8]
00000000: 26bd 843d 59d0 063f 3733 833e 6232 86be
00000010: 303e 473d 024e bbbe 71c1 d3bd 9d19 2f3e
0.0648139 0.52661663 0.2562501 -0.26210314 0.04864329 -0.36582953 -0.103396304 0.17099614

con4.con.2.running_mean f4 [8]
00000000: 36cc 03bf 68e3 a0bf 1775 11bf 75ed 843e
00000010: fa03 c13d c106 c63f adc8 4c3f 726f 163e
-0.51483476 -1.2569399 -0.5681929 0.25962415 0.094245866 1.5470811 0.79993707 0.1469095

con4.con.2.running_var f4 [8]
00000000: 681d 4a40 2ca8 3240 2b06 3340 1571 9d40
00000010: 5109 4140 d7ac 5b40 7b61 8340 87b2 af40
3.1580448 2.7915144 2.7972515 4.920054 3.0161936 3.4324243 4.1056495 5.490543

con5.con.1.weight f4 [8, 8, 4, 4]
00000000: 0e77 2e3e 3233 8dbd e664 88bd b6ad e93d
00000010: 1340 eb3c bd70 a9bd 9770 88bc 357a b2bc
00000020: 9091 05bb 95cf ed3b 6666 82bd f1db c53d
00000030: 0f55 3b3e ea97 093e 2962 5b3d 50e6 603d
00000040: 6b46 923d 907c bc3d 32c6 053e e28a db3d
00000050: a016 67bd a22e 46bd d614 7b3d fb9f b1bc
00000060: 47fb acbc 17c7 a13d b691 cf3b 25ad 14bd
00000070: d4de 453e 4b67 38bc dc9b 13bc 0c25 ae3d
00000080: 1ea3 a1bd d2b9 363d 17b8 cc3d edfb 5e3d
00000090: 162c 93bd 7b7c 1abe ab48 eebd 8bde 7e3d
000000a0: 13b1 dc3c d99e f2bd c36c 3abd 1d5c 7fbd
000000b0: 9dab ca3c 7252 6f3d f3b8 b63c 7872 c93c
000000c0: 496e a73d f0e0 a0bd 681d cbba fd2d 91bd
000000d0: 9534 773c 3f2e bb3d fda0 023e e1d1 d93b
000000e0: 78f8 133d 54cc 7dbd ee85 16bd fbb4 093d
000000f0: ecd7 653d 3dcd 933b f938 963d 52e9 163e
00000100: 9a97 f03c e6e0 5dbc ea96 733c 917f 303d
00000110: ddc1 8f3d 416e afbd 5420 8ebc afd9 c13d
00000120: 50c2 5b3d 7d94 243d f8b4 d33b 0a43 9539
00000130: 96cd 633d 3169 573d 6183 0e3d acbe 8c3d
00000140: d0d1 febb 0aa1 85bc 5469 59bd c202 c0bc
00000150: 6331 4a3c 9e9a 4abd 474a 4abd 37df 353d
00000160: 5cd7 063d 8bac 933c 2e00 b5bd 0153 183d
00000170: 8994 953d 6fe7 1b3b 2d18 abbc 2ee3 4cbd
00000180: f227 c2bb bb95 613c 5c51 893d 5134 013e
00000190: 147e bcbb ebd2 c9bd f2a2 e33c 4e21 493d
000001a0: 750f a63b 8fd3 d4bd 08e2 d4bd 4c56 e4bc
000001b0: 123c 28bc e0a6 5cbd fabb 9cbd 77f1 a03d
000001c0: 8257 57bc e029 523d 1ebe 03be 49e2 6f3c
000001d0: a736 21bc 9823 ae3c cd70 f8bd 6242 47be
000001e0: 2620 333b 238f 95bc 8606 b7bd 20ca 99bc
000001f0: 4679 d7bd 8b11 acbd 8b65 2cbd 7618 e7bc
00000200: ac62 29be c40b 5bbd e629 5ebd 44ff 0cbc
00000210: 5fc8 93bc 2067 8ebd 9543 cc3d ee73 c83d
00000220: 922e d13c 9914 89bd b04c 45bc 73a0 283e
00000230: fbe1 d9bc feaf bb3d e535 613d 12f0 253d
00000240: 6c7d febd 61f1 b9bd 460b 5cbc f252 8e3d
00000250: 5c9a fd3b 5450 373c f8f2 d2bd 39af c13d
00000260: d588 bdbd 5f1d 55bd e21e 9ebd 380c 6f3d
00000270: 9974 3b3d 300c bf3d 6533 243c 30d8 1b3e
00000280: 251f 06be 7ff2 2fbb 1a91 e13d da10 133e
00000290: 0a9d 4d3d 6b9c 1abe b2ae cebd 9424 fb3d
000002a0: d460 dbbd cf1c efbd 3cf2 28bd d9e3 ea3d
000002b0: 1339 dcbd 263d 313d a460 8b3b 6cc2 133e
000002c0: 6059 8d3c bff8 b03d b18c 84bc a387 afbd
000002d0: 8980 72bc bd28 3b3d ef66 b43d c7c6 18be
000002e0: 5eb9 393d 763a 4dbd 9d61 473d 6a8d f7bd
000002f0: 2e13 863c 2d83 e8bc 4573 8abb 6966 dabd
00000300: dfe4 073d 8f66 07bd 6804 5c3d 5202 f2bd
00000310: d43a 763d 2cd4 fdbd bd78 cdbd cee9 b13c
00000320: f6e4 4c3c 7dfe bbbd 4527 83bd b28d 0a3c
00000330: 6d47 0a3d 14a8 91bd 547d b1bd b7f1 513b
00000340: 50dc 803d d4cb 9d3b bbbc 20bd 4dae 4a3d
00000350: dc39 81bd 57cc 083d fb8d 483c c9ed a53c
00000360: dc1c 02bd 898b 5e3c 403e 743d b3a8 3dbd
00000370: fe52 4abd cdc4 0fbc b7d0 b73d 2c6e b2bc
00000380: ebd4 7bbd e832 43bd eb63 b8bc d7af a0bd
00000390: 188e 5c3d 239c 07bc 4703 b7bd 248b b73b
000003a0: c3e5 663c 6c78 c13b f5d7 e0bc f5fa e5bd
000003b0: 66a3 613d b2f2 b4bd b1db b43d a68d 8cbc
000003c0: 87eb 64bd 08b4 3d3d c584 e33d bb02 823d
000003d0: d6b7 013c d62f f6bb 4480 02bc 1399 b33d
000003e0: dd80 f8bc 3152 763d 19da ffba 6eaa 0f3d
000003f0: d896 c7bd 0347 b03d a621 b53d 376b 8f3d
0.17037603 -0.0689453 -0.0665987 0.11410086 0.028717076 -0.08273456 -0.01665525 -0.021786788
-0.0020380951 0.0072574117 -0.06367187 0.09661091 0.18294166 0.13436857 0.05356041 0.054907143
0.071423374 0.09203446 0.13063887 0.10719849 -0.05641806 -0.048384316 0.061299168 -0.02168273
-0.021115912 0.078993015 0.006334509 -0.036297936 0.19323283 -0.011255096 -0.009009328 0.0850316
-0.0789244 0.044610806 0.0999605 0.054439474 -0.07186143 -0.15086548 -0.11634954 0.062223952
0.026939904 -0.11846704 -0.04551388 -0.062343705 0.024740035 0.058428235 0.022304988 0.024590716
0.08175332 -0.078554034 -0.0015496435 -0.0708885 0.01508822 0.0913968 0.12756725 0.006647334
0.03612563 -0.06196244 -0.03674882 0.033619862 0.056114122 0.0045105503 0.073350854 0.14737442
0.029369164 -0.0135423895 0.014867524 0.043090407 0.07019398 -0.08565951 -0.0173494 0.09465348
0.053652108 0.040180672 0.006460782 0.00028469443 0.055615984 0.052590553 0.03479326 0.06872305
-0.0077764764 -0.016312141 -0.053078964 -0.023438815 0.012340876 -0.04946386 -0.049387243 0.044402327
0.032920226 0.01802661 -0.08837925 0.037188534 0.073037215 0.0023789068 -0.020885551 -0.050021343
-0.005925172 0.013768609 0.06704971 0.12617613 -0.0057523344 -0.098546825 0.02778766 0.049104027
0.0050677606 -0.10391914 -0.103946745 -0.02787318 -0.010268228 -0.053870082 -0.07653041 0.07858556
-0.013143422 0.051309466 -0.12865493 0.014641353 -0.00983969 0.021257207 -0.1213089 -0.19458917
0.0027332394 -0.01825673 -0.08936791 -0.018773139 -0.10521178 -0.084017836 -0.042089026 -0.028209906
-0.16541547 -0.053478017 -0.054239176 -0.008605782 -0.01803988 -0.06953263 0.09973828 0.09787737
0.025534902 -0.06693382 -0.0120422095 0.16467457 -0.026597014 0.09164427 0.05498304 0.040512152
-0.12426266 -0.090792425 -0.013430422 0.06949414 0.0077393483 0.011188585 -0.10300249 0.09457249
-0.09254614 -0.052029964 -0.07720734 0.058361262 0.045765493 0.093284965 0.010022019 0.15219188
-0.13097818 -0.002684742 0.11014004 0.14361897 0.050198592 -0.15098731 -0.10091914 0.12262836
-0.10711828 -0.11675417 -0.041246638 0.1146924 -0.107530735 0.043271206 0.004253464 0.14429635
0.017254531 0.086411946 -0.016180368 -0.085707925 -0.014801153 0.045693148 0.088086955 -0.14919578
0.045342796 -0.05010458 0.048677076 -0.120875195 0.016366567 -0.028382862 -0.004225167 -0.106640644
0.033177253 -0.033056792 0.05371514 -0.11816849 0.060114697 -0.12393984 -0.100327946 0.021717932
0.01250576 -0.09179399 -0.064039744 0.008456634 0.033759523 -0.071121365 -0.086664826 0.0032034942
0.06292021 0.004815558 -0.039242487 0.049482632 -0.06309864 0.033398 0.012240882 0.020254986
-0.031765804 0.013583072 0.05962968 -0.046303462 -0.049395554 -0.008774948 0.08975356 -0.02178105
-0.06148235 -0.04765597 -0.022508582 -0.07846039 0.05384645 -0.008276972 -0.08936172 0.0056013037
0.014092865 0.005904248 -0.027446726 -0.11229507 0.05508747 -0.08835353 0.08830965 -0.017157387
-0.05588868 0.04631427 0.11109308 0.06348177 0.007917365 -0.0075130267 -0.007965151 0.08769431
-0.030334884 0.060136978 -0.0019519954 0.035074644 -0.09745568 0.086072944 0.088443086 0.070028715

con5.con.1.bias f4 [8]
00000000: 1b8f 5fbd 7943 9a3d 5b63 c4bd 46f1 bf3d
00000010: a449 a8bd 6fb2 6ebd d2ac 7a3d 84ee 793d
-0.054579835 0.07532401 -0.09589263 0.09372191 -0.08217171 -0.058275636 0.06119997 0.06101848

con5.con.2.weight f4 [8]
00000000: d1bb 5d3f 4146 4c3f 9252 763f 240d 6c3f
00000010: 2291 703f 0798 873f 2e29 5f3f 2100 5b3f
0.8661471 0.797947 0.9621974 0.9220755 0.93971455 1.059327 0.8717221 0.8554707

con5.con.2.bias f4 [8]
00000000: 31e0 afbc 7b5d 92be c2f6 b73e 8c7b 60bd
00000010: 6740 953d 002f 303b df69 45bd 0c69 893e
-0.021469207 -0.28586945 0.3593045 -0.054805323 0.072876744 0.0026883483 -0.04819667 0.26837957

con5.con.2.running_mean f4 [8]
00000000: ee1d a13e 4446 183d 4fdd 573f ac43 143f
00000010: a385 be3e 2e69 7cbd 194b 683f 8f52 563e
0.31468147 0.037176386 0.84322065 0.5791576 0.37211332 -0.061623745 0.9073959 0.20929931

con5.con.2.running_var f4 [8]
00000000: 972e 983f 8219 ab3e 493d ec3f 3acc 9d3f
00000010: c72d 0d3f 0760 153f da26 a53f ee7c 9f3e
1.1889218 0.33417898 1.8456203 1.232795 0.55147976 0.5834965 1.2902482 0.3115

RCAB1.body.0.conv.0.weight f4 [8, 1, 3, 3]
00000000: 5850 56be ce5c 433e 2e62 8c3d b08d 543d
00000010: 4eeb a2be f912 cebb ad49 353e e4cb 653e
00000020: 5e0a 3d3e df7f 153e 4d76 07be 699d 96be
00000030: 9e04 b0be 37a8 0a3e 784f 73be 60e9 433e
00000040: 9b00 45bd a15b 4d3e 6383 c1bd 1f31 423d
00000050: c69d 733e 9688 8ebe 4255 3cbe e858 1cbd
00000060: e194 aa3e 4fe0 143e d78d 953d 0fca 8e3e
00000070: 57c8 463e 9b2c ac3e 8381 8abe c24e 86be
00000080: 463b 34be 03a2 a63a dde4 ffbc 680d 643d
00000090: b2b6 40be a56a e3bd 44e2 07be bc23 36be
000000a0: 3707 d33e 322a 69be 630c 843e 0ff0 89bd
000000b0: 0ae9 133e eb1d b13e 7f72 85be c2fc 583d
000000c0: 42a0 9fbe ab8c 6f3e 65cc 613d 4e0c 3fbc
000000d0: 8679 aebc 076f 80be eebd b3be ba01 053d
000000e0: cd1f 603e 9b7d fc3d b4f9 813d 3adc fabd
000000f0: 2c14 74be 8b90 3b3e 1bdd 323d 5ba8 893e
00000100: f1f5 83be e1a4 81bc c5ee 22bd 6a74 f2bd
00000110: ade4 303e a1ce a43e ccd8 a33d b848 743e
-0.20929086 0.19078371 0.06854664 0.051892936 -0.31820148 -0.006288883 0.17703886 0.2244106
0.18460986 0.1459956 -0.13228722 -0.2941697 -0.34378523 0.13540731 -0.23760784 0.19131994
-0.04809628 0.20054485 -0.09448888 0.047410127 0.23790655 -0.27838582 -0.18391898 -0.038170725
0.3331671 0.14538692 0.073024444 0.27888533 0.19412361 0.3362778 -0.27051935 -0.26231962
-0.17600736 0.0012713078 -0.03123706 0.055676848 -0.18819693 -0.11104325 -0.13269907 -0.17787069
0.41216442 -0.22770002 0.257907 -0.06735241 0.14444366 0.34593138 -0.26063916 0.052975424
-0.31176955 0.23393504 0.055126566 -0.0116606485 -0.021298181 -0.25084707 -0.35105842 0.03247235
0.21887131 0.12328645 0.06346455 -0.12249036 -0.2383582 0.18316858 0.043667894 0.26886258
-0.25773576 -0.01582569 -0.03977849 -0.118386105 0.17274733 0.32188895 0.08000335 0.23855865

RCAB1.body.0.conv.0.bias f4 [8]
00000000: 6336 63be 0303 8bbe 8300 f2bd 78b1 6d3c
00000010: 396b dd3b d72d 1d3e 74bc 943d 8c2e d0bd
-0.22188716 -0.27150735 -0.11816504 0.014507644 0.0067571667 0.15349518 0.07262507 -0.10165128

RCAB1.body.0.conv.1.weight f4 [8]
00000000: 494d 643f 42e6 823f b015 793f a743 6d3f
00000010: 4e05 933f 47b1 803f a6f5 813f 8b23 813f
0.8918043 1.0226519 0.9729872 0.92681354 1.1485994 1.0054101 1.0153091 1.0088972

RCAB1.body.0.conv.1.bias f4 [8]
00000000: ab4f cf3a 83fa 1cbb d1a0 38bb 1aa3 8fbb
00000010: d7a0 bb3b cbc5 523b 8388 ffba 477c 4d39
0.001581659 -0.0023953028 -0.0028172026 -0.004383457 0.0057259607 0.003216135 -0.001949564 0.0001959662

RCAB1.body.0.conv.1.running_mean f4 [8]
00000000: 8fc6 1dbe c837 9abe 9218 0bbd afc0 9d3c
00000010: 31eb 4cbb 19a3 da3d 798c 983d 497a e73d
-0.15407775 -0.30120683 -0.03395898 0.019256918 -0.0031268115 0.1067564 0.07448668 0.11302621

RCAB1.body.0.conv.1.running_var f4 [8]
00000000: 7bb5 233d 1fcc e93c 126a 7a3d 512f 8c3d
00000010: c86c 7b3d 2ccc 203d 6998 0b3d 2217 f83d
0.039967995 0.028539715 0.061136313 0.068449624 0.06138304 0.039257213 0.034080897 0.12113787

RCAB1.body.0.conv.2.weight f4 [8, 8, 1, 1]
00000000: 6c25 2ebe 8f19 5fbe 520a 81be e117 4e3e
00000010: 6d4e 063e bd27 68be 5a68 fabd e758 c13e
00000020: 864a 4bbe 01a4 a7be 6a39 4cbe 85e0 aa3e
00000030: cbff 93be d4ec b73c bd60 9c3d 4c66 3f3e
00000040: 7141 023e 06b3 ecbd 0add 84be e174 6abe
00000050: 1dfb e43d f5f4 593b c0b7 c63e 34be 93bc
00000060: 46ca e93d 37d1 5e3c 3b5f c43e e496 683e
00000070: b4b2 36be 59c6 4b3e e9e2 483d ae47 b63e
00000080: 4abc babe a164 a8bc 1c28 8a3e 59cd 573b
00000090: 712d 0b3e 8b14 c23e 7955 6cbe 4604 84be
000000a0: afd3 b13d bf82 69be a484 3b3d 767f f6bd
000000b0: f89f 993e 779d e33d e7e8 33bd f5b9 a03e
000000c0: c34c 6fbd 498e f23e 36d7 2a3e 3385 16bd
000000d0: 6ab7 66be de36 d6bd 29c6 92bd 899a f3bd
000000e0: 0d0b 19be 1ac5 84bd 2500 2d3c 9572 ad3e
000000f0: d925 45bd 1f4b f2bd a526 783e 0231 bcbe
-0.17006463 -0.21787094 -0.25203186 0.20126297 0.13115855 -0.22671409 -0.12226935 0.3776314
-0.19852647 -0.32742313 -0.19943777 0.3337442 -0.28906092 0.022451796 0.07635639 0.18691367
0.12720276 -0.115575835 -0.2594989 -0.22896148 0.111807086 0.0033257578 0.38812065 -0.018035032
0.11415534 0.013599685 0.38353905 0.2271381 -0.17841607 0.19899882 0.049044523 0.35601562
-0.36471778 -0.020555796 0.26983726 0.0032928793 0.13591553 0.37906298 -0.2307948 -0.2578451
0.086829536 -0.22803782 0.045780793 -0.1203603 0.3000486 0.111140184 -0.043923285 0.31391874
-0.058422815 0.4737418 0.16683659 -0.036748122 -0.22530904 -0.10459684 -0.07166702 -0.118947096
-0.14945622 -0.06482907 0.0105591165 0.33876482 -0.048131797 -0.118307345 0.24233492 -0.3675614

RCAB1.body.0.conv.2.bias f4 [8]
00000000: 9f2b 93be 485d adbc 9f67 70be 37e1 b9bd
00000010: f0ca c5bd ece6 9b3e 8e18 cd3d 5401 e73d
-0.28744218 -0.021162644 -0.23477028 -0.090761594 -0.09657848 0.30449617 0.10014449 0.1127955

RCAB1.body.1.weight f4 [8]
00000000: 25ca 713f 1b5c 663f 16f7 3b3f 127a 083f
00000010: b55a 7e3f d67c 0c3f 7080 4f3f 8d76 3a3f
0.94449073 0.8998429 0.734239 0.53311265 0.9935716 0.54877985 0.81055355 0.72837144

RCAB1.body.1.bias f4 [8]
00000000: 1923 1a3d 1667 d73d 8bea 61be cdec de3e
00000010: 3f04 bdbb 45fe d63e 25db 2ebe 65ad 7d3e
0.037631128 0.10517709 -0.22062127 0.4354004 -0.0057683284 0.41990867 -0.17075785 0.24773176

RCAB1.body.1.running_mean f4 [8]
00000000: 77fc 92be d1d6 bebc a03a 6ebe 1baa bebd
00000010: 1488 c3bd 9a93 9d3e 3aef c63d 2046 e13d
-0.2870824 -0.023295792 -0.23264551 -0.09309789 -0.09547439 0.30776674 0.097135976 0.109997034

RCAB1.body.1.running_var f4 [8]
00000000: dc15 943e 3e41 cc3e 4df8 883e cf62 053f
00000010: c8c5 de3e 0c2c 913e b153 8c3e 7dd4 c63e
0.28922927 0.39893526 0.26751938 0.52103895 0.4351027 0.28353918 0.274076 0.3883399

RCAB1.body.3.conv.0.weight f4 [8, 1, 3, 3]
00000000: 5e45 d1be 0572 bbbd 2afc 083e 8746 50be
00000010: ff31 89bb d25e abbd 814d edbe d428 a1bc
00000020: 7d41 a03d 7820 8c3e d180 403e b9c9 d03e
00000030: 4075 05bd ca6b bd3d a25f 7f3e b4a6 993d
00000040: 46ad 32be 1953 a43d 431d 543e f085 283e
00000050: b8e1 2d3e a84a 8f3d 4fc9 84bd 92a6 e73d
00000060: 2034 c43d 02c6 323e 2ccd bd3e d998 013c
00000070: 675e 78be 8aff 183e 3c3e 0cbe 59be bb3d
00000080: 0aec 0d3e efde 1fbe c8fb d5bd 77ca e83e
00000090: de75 483e 6c62 64bd c0f5 8d3d faf1 8b3d
000000a0: 28a9 a2bd 426f 8c3e 5534 e73d bf32 843e
000000b0: 330c 593e b577 8c3e 365f 373c 3e1b 3ebd
000000c0: 10b9 2b3c 2e7b 783e edfd 4bbe 0c42 d3be
000000d0: e410 c8be b087 583d abdd c23e 354f 623e
000000e0: cadf 1c3e 07f7 7a3e fceb 1dbe f799 943e
000000f0: 9ded 933e c9e5 d0bd 9518 513e 290f 8cbe
00000100: b043 6bbe 7360 55bd 4584 d9bd 8a75 4dbc
00000110: 43fb 59bd aedc b3be 9f93 3dbd 94ab c6be
-0.40873235 -0.09152607 0.13377443 -0.20339404 -0.004186868 -0.08367695 -0.46348193 -0.019672789
0.07824991 0.27368522 0.1879914 0.40778902 -0.03258252 0.09249075 0.24938825 0.07502499
-0.17448911 0.08023662 0.20714287 0.16457343 0.16980636 0.069966614 -0.06483709 0.11311068
0.095802546 0.17458346 0.37070596 0.007909977 -0.24254762 0.1494123 -0.13695616 0.09167165
0.13859573 -0.15612386 -0.10448414 0.45466968 0.19576213 -0.055757925 0.06931639 0.06833263
-0.0794242 0.27428633 0.112892784 0.25819966 0.2119606 0.2743508 0.011192134 -0.0464127
0.010481134 0.2426574 -0.19921084 -0.41261327 -0.39075387 0.052863777 0.38059744 0.22100528
0.15319744 0.24508296 -0.15422052 0.29023716 0.28892222 -0.10200078 0.20419534 -0.27355316
-0.2297504 -0.052093934 -0.106209315 -0.0125402305 -0.053218137 -0.35129303 -0.04628336 -0.3880278

RCAB1.body.3.conv.0.bias f4 [8]
00000000: 3bd2 603e 37ba e6bd b1eb 9dbe 9fcf 98bd
00000010: ed7d 8e3c ad87 c43d 0575 27be 312c 263e
0.21955197 -0.112659864 -0.3084388 -0.074614756 0.01739403 0.095961906 -0.16353233 0.16227795

RCAB1.body.3.conv.1.weight f4 [8]
00000000: c879 8a3f d3c7 833f a812 733f ebec 8b3f
00000010: b1c8 843f 503f 703f f4f6 833f 0472 713f
1.0818415 1.0295357 0.9495034 1.0931677 1.0373746 0.9384661 1.0309739 0.943146

RCAB1.body.3.conv.1.bias f4 [8]
00000000: 1af5 fb3a 6833 debb 935a b33a f894 37bb
00000010: 2182 dcba 6d9a 203b a8a4 f23a 067e 053a
0.0019222826 -0.0067810304 0.001368361 -0.0028012376 -0.0016823449 0.0024506107 0.0018512206 0.00050923263

RCAB1.body.3.conv.1.running_mean f4 [8]
00000000: a698 d6bd 16bc 613e 6d26 21be 8b0b d0bb
00000010: cd82 aa3e fb02 51bd cde9 de3d 35e1 b1be
-0.10478334 0.22044405 -0.15737315 -0.0063490323 0.33302918 -0.051028233 0.10884438 -0.34742132

RCAB1.body.3.conv.1.running_var f4 [8]
00000000: b441 5b3e b242 723e 3ae3 653d d40d 763d
00000010: 1ad0 c93d f827 b13d aa48 c93d 6420 1d3e
0.21411783 0.23658255 0.056124903 0.06007178 0.09854145 0.086502016 0.09828313 0.15344387

RCAB1.body.3.conv.2.weight f4 [8, 8, 1, 1]
00000000: c6a0 1bbe 7495 1d3e bb58 1b3e 4e19 623e
00000010: 21e8 2abe d22c b6bd bdcd e93e 9c86 6e3e
00000020: bba8 953e 4e87 acbd 957d 5e3e 45bd 533e
00000030: 2d8a 91bd 24c5 8d3d e299 7abe 748d 07be
00000040: a540 1d3d 7e3c 863d edff 17be b38d b83e
00000050: f741 333e 8452 88be 62c9 b63d 4302 81bd
00000060: 20fa 48bd 24ef ad3e a668 a93d b6a4 943e
00000070: 92a1 9dbe a091 58be a399 97bc 16d3 0ebe
00000080: 648f e9bd 4463 793e 2266 11be d4e5 aabe
00000090: 726d a53e cfc3 7ebd 0fb1 ba3d 4804 083e
000000a0: 6b89 d0bd 90ee d63e d82c 6cbe a981 0bbd
000000b0: eaaf 94bd 9968 9f3e e1ff c93d 3db1 2a3e
000000c0: b07a 12be b315 b0be 7df0 84be 38bc 83bd
000000d0: bd90 943c d16b aabe b367 40be 971a ffbd
000000e0: f65f 8c3d e1a9 b3be 8c76 a83e 2c13 6abe
000000f0: cef1 cdbd 6355 863e 3c40 38be 6923 993e
-0.15198049 0.15389043 0.15170567 0.22079965 -0.16690113 -0.088952675 0.45664778 0.23293537
0.29230294 -0.08424245 0.21727593 0.2067767 -0.07106433 0.06922367 -0.24472764 -0.13237554
0.038391728 0.06554507 -0.14843722 0.36045608 0.17505632 -0.26625454 0.089251295 -0.062992595
-0.049066663 0.33971512 0.08271913 0.29031914 -0.3078733 -0.21149302 -0.018505877 -0.1394771
-0.11404303 0.24354273 -0.14199117 -0.3337847 0.32310063 -0.062198456 0.091158025 0.13282883
-0.101824604 0.41978884 -0.23063982 -0.0340592 -0.072601154 0.3113449 0.09863258 0.16669174
-0.14304614 -0.34391555 -0.25964728 -0.06432384 0.018135423 -0.33285382 -0.18789558 -0.124562435
0.068542406 -0.35090545 0.32902944 -0.22858876 -0.10055886 0.2623702 -0.17993253 0.29909828

RCAB1.body.3.conv.2.bias f4 [8]
00000000: 2f0f 33be f56e a0bd cdd9 19be c685 1bbe
00000010: 590c 96bd 2d99 b33e d33f e33d c9a1 0b3e
-0.17486261 -0.078336634 -0.1502449 -0.1518775 -0.07326574 0.350778 0.11096158 0.13635935

RCAB1.body.4.weight f4 [8]
00000000: 1d6e 9c3f 1f73 8c3f 44b7 833f 233a 583f
00000010: 1b2d 943f 2ecb 543f bbe9 8d3f ecf3 7c3f
1.2221104 1.0972632 1.0290303 0.8446371 1.1576265 0.8312253 1.1086954 0.98809695

RCAB1.body.4.bias f4 [8]
00000000: e70e 443d 43cc ecbd 01e2 9d3e 2e6b 3abd
00000010: 605e 2f3e e471 113e b781 a13c 5a1a 0f3e
0.047865774 -0.11562397 0.3083649 -0.04551237 0.17125845 0.14203602 0.019715173 0.13974896

RCAB1.body.4.running_mean f4 [8]
00000000: 83c2 33be b82a 9fbd 9344 1cbe d4c8 1ebe
00000010: ba38 99bd d283 b23e 1b6f e43d 04ef 0f3e
-0.17554669 -0.0777182 -0.15260534 -0.15506297 -0.07481523 0.34866196 0.11154004 0.14056021

RCAB1.body.4.running_var f4 [8]
00000000: 2823 b43e 1e65 893e 3747 b83e 9f46 c83e
00000010: 731d aa3e 01f1 ba3e e6a5 963e da64 093f
0.35183072 0.2683496 0.35991833 0.3911638 0.33225593 0.36511996 0.29423445 0.5366951

RCAB1.CA.conv_du.0.weight f4 [8, 8, 1, 1]
00000000: 3053 593d 167b 193e 9be6 853e 2f58 91be
00000010: 41cc 843e 9178 0a3e bec1 ca3d 3786 ad3d
00000020: d9be 16be 8ac3 24be e4e6 1abd ddef 713e
00000030: 29d7 d0bd fd91 d6bd e343 abbe 03fb 883e
00000040: d3da 4e3d 8469 a83d 0ee4 1b3e 246c 2a3d
00000050: 38cb 9b3e 8154 0dbf 1979 293e da2a 443e
00000060: 397b 2dbe 3c5a 00be c19f 28be 2d6f 41be
00000070: 7cd6 88be 5e3c 62be 024d 45be c5d5 cbbe
00000080: 85e1 dabd 59ac 92be cbde 58bd 6019 6cbd
00000090: 75f1 973e 58fb 35be f682 c53e 2929 043d
000000a0: 536c cd3d f8dd 7e3d 37dd bebe b468 b6be
000000b0: 64bc a93e 1b95 bd3e 9a61 8a3d 47bc 98be
000000c0: fc8d d8be 0ef7 62be 9db2 183e 622b 813e
000000d0: 4e35 a7be af1a 47bc 81bc 273e a024 aabe
000000e0: e76a ebbe 05af c33e b98f 8b3e 179b 5dbe
000000f0: 3caa cabc 80ed 1abe 623d b33e e835 12be
0.05305785 0.1498836 0.261525 -0.2838759 0.25937083 0.13522555 0.09900235 0.08472865
-0.1472124 -0.16090217 -0.03781785 0.23626657 -0.101972885 -0.10477064 -0.3345023 0.26754007
0.050501656 0.082232505 0.15223715 0.041607037 0.3042848 -0.5520707 0.16550101 0.19156972
-0.16941537 -0.12534422 -0.16467191 -0.18890066 -0.2672614 -0.22093341 -0.19267657 -0.3981153
-0.10687546 -0.28647116 -0.052946847 -0.057641387 0.29676405 -0.17771661 0.38576478 0.032265816
0.10030427 0.062223405 -0.3727815 -0.35626757 0.33151543 0.3702782 0.06756897 -0.29831144
-0.42295825 -0.22164556 0.14911886 0.2522841 -0.32657856 -0.012152358 0.16380502 -0.33231068
-0.45979998 0.38219467 0.2725809 -0.21641193 -0.024739377 -0.15129662 0.3500777 -0.14278376

RCAB1.CA.conv_du.0.bias f4 [8]
00000000: 05b9 573e 1820 c5be df73 ecbd 151b 343c
00000010: 038b 5c3d 93f3 5b3e 2829 9c3d 07d4 a53e
0.21066673 -0.38501048 -0.11545538 0.010992785 0.05384351 0.21479635 0.076250374 0.32388327

RCAB1.CA.conv_du.2.weight f4 [8, 8, 1, 1]
00000000: 47d0 92be 8ad7 65be ab86 673d 7fe7 843e
00000010: ce59 11be 793a 2c3d 6470 923e fbd2 723d
00000020: d602 323e a231 f43d 9ded 043e 3267 b5bc
00000030: cc9a 0fbe b536 ea3e ebf6 c63e d278 e43e
00000040: 1957 a43e a32e a23e 7ecd 3e3e dddc 4b3e
00000050: e993 efbe 687b a0bd 12e8 47be dc74 d3bb
00000060: a53a 283e a829 14be c451 b13d d90d 17be
00000070: b3d4 8f3e 8b22 fbbe 3455 e63b 8239 a7bd
00000080: d516 07be f431 83be e01c f8be d249 f6be
00000090: 70c3 083e 9cc5 f1bd 70ac ba3e d306 813e
000000a0: c837 b2be fe80 fb3d 5ac2 aebe d2f3 6abd
000000b0: c63f 153e e8ed 4bbe ced5 2a3e c9f8 88be
000000c0: 972e a3be 2ea0 a9be ba8d be3d 9449 743e
000000d0: fa3f 193e a0cc b9be 800c a83e fba4 9d3e
000000e0: 8c53 5a3e 1572 5dbe 5ec2 8cbd 1e64 62be
000000f0: 5921 db3d 185c 04be 367d 84bd af64 8f3e
-0.28674528 -0.22445503 0.056524914 0.25957868 -0.14194414 0.04204795 0.28601372 0.059283238
0.17383894 0.11923529 0.12981267 -0.022143934 -0.14023894 0.45744863 0.38860258 0.4462343
0.320977 0.31676206 0.18633077 0.19908471 -0.46792534 -0.07836038 -0.19522122 -0.0064531397
0.16428621 -0.14469016 0.08658174 -0.14751376 0.28091964 -0.49049792 0.0070292 -0.081652656
-0.13192303 -0.2562405 -0.4845953 -0.48103195 0.13355803 -0.11805269 0.36459684 0.2520052
-0.34808183 0.12280463 -0.34132653 -0.05736143 0.14575109 -0.19914973 0.16683123 -0.26752308
-0.31871483 -0.3313002 0.09304376 0.23856193 0.14965811 -0.3628893 0.32822037 0.30789933
0.21320933 -0.2162555 -0.0687301 -0.22108504 0.1069972 -0.12925756 -0.064691946 0.28006503

RCAB1.CA.conv_du.2.bias f4 [8]
00000000: 45b2 e13e 7c9f cb3d 1a2d 583e a1f3 86be
00000010: 6137 06be 7150 803d 73f2 8a3e fdac 093e
0.4408132 0.099425286 0.21110955 -0.2635775 -0.13107063 0.06265343 0.271381 0.13444896
